<?xml version="1.0" ?>
<net name="torch_jit" version="11">
	<layers>
		<layer id="448" name="input" type="Parameter" version="opset1">
			<data shape="1,3,224,224" element_type="f32"/>
			<rt_info>
				<attribute name="old_api_map_element_type" version="0" value="f16"/>
			</rt_info>
			<output>
				<port id="0" precision="FP32" names="input">
					<dim>1</dim>
					<dim>3</dim>
					<dim>224</dim>
					<dim>224</dim>
					<rt_info/>
				</port>
			</output>
		</layer>
		<layer id="0" name="1881188513949" type="Const" version="opset1">
			<data offset="0" size="4" shape="" element_type="f32"/>
			<output>
				<port id="0" precision="FP32"/>
			</output>
		</layer>
		<layer id="1" name="1882188613358" type="Const" version="opset1">
			<data offset="4" size="4" shape="" element_type="f32"/>
			<output>
				<port id="0" precision="FP32"/>
			</output>
		</layer>
		<layer id="2" name="1883188713934" type="Const" version="opset1">
			<data offset="0" size="4" shape="" element_type="f32"/>
			<output>
				<port id="0" precision="FP32"/>
			</output>
		</layer>
		<layer id="3" name="1884188812005" type="Const" version="opset1">
			<data offset="4" size="4" shape="" element_type="f32"/>
			<output>
				<port id="0" precision="FP32"/>
			</output>
		</layer>
		<layer id="4" name="2101210514504" type="Const" version="opset1">
			<data offset="8" size="4" shape="" element_type="f32"/>
			<output>
				<port id="0" precision="FP32"/>
			</output>
		</layer>
		<layer id="5" name="2102210612332" type="Const" version="opset1">
			<data offset="12" size="4" shape="" element_type="f32"/>
			<output>
				<port id="0" precision="FP32"/>
			</output>
		</layer>
		<layer id="6" name="2103210712986" type="Const" version="opset1">
			<data offset="8" size="4" shape="" element_type="f32"/>
			<output>
				<port id="0" precision="FP32"/>
			</output>
		</layer>
		<layer id="7" name="2104210812908" type="Const" version="opset1">
			<data offset="12" size="4" shape="" element_type="f32"/>
			<output>
				<port id="0" precision="FP32"/>
			</output>
		</layer>
		<layer id="8" name="2731273512098" type="Const" version="opset1">
			<data offset="16" size="4096" shape="1024,1" element_type="f32"/>
			<output>
				<port id="0" precision="FP32">
					<dim>1024</dim>
					<dim>1</dim>
				</port>
			</output>
		</layer>
		<layer id="9" name="2732273612470" type="Const" version="opset1">
			<data offset="4112" size="4096" shape="1024,1" element_type="f32"/>
			<output>
				<port id="0" precision="FP32">
					<dim>1024</dim>
					<dim>1</dim>
				</port>
			</output>
		</layer>
		<layer id="10" name="2733273714540" type="Const" version="opset1">
			<data offset="16" size="4096" shape="1024,1" element_type="f32"/>
			<output>
				<port id="0" precision="FP32">
					<dim>1024</dim>
					<dim>1</dim>
				</port>
			</output>
		</layer>
		<layer id="11" name="2734273812746" type="Const" version="opset1">
			<data offset="4112" size="4096" shape="1024,1" element_type="f32"/>
			<output>
				<port id="0" precision="FP32">
					<dim>1024</dim>
					<dim>1</dim>
				</port>
			</output>
		</layer>
		<layer id="12" name="classifier.0.weight104313466" type="Const" version="opset1">
			<data offset="8208" size="1179648" shape="1024,576" element_type="f16"/>
			<output>
				<port id="0" precision="FP16">
					<dim>1024</dim>
					<dim>576</dim>
				</port>
			</output>
		</layer>
		<layer id="13" name="classifier.0.weight10439073/restored_convert" type="Convert" version="opset1">
			<data destination_type="f32"/>
			<rt_info>
				<attribute name="decompression" version="0"/>
			</rt_info>
			<input>
				<port id="0">
					<dim>1024</dim>
					<dim>576</dim>
				</port>
			</input>
			<output>
				<port id="1" precision="FP32" names="classifier.0.weight">
					<dim>1024</dim>
					<dim>576</dim>
				</port>
			</output>
		</layer>
		<layer id="14" name="/classifier/classifier.0/Gemm/WithoutBiases/fq_weights_1" type="FakeQuantize" version="opset1">
			<data levels="255" auto_broadcast="numpy"/>
			<input>
				<port id="0">
					<dim>1024</dim>
					<dim>576</dim>
				</port>
				<port id="1">
					<dim>1024</dim>
					<dim>1</dim>
				</port>
				<port id="2">
					<dim>1024</dim>
					<dim>1</dim>
				</port>
				<port id="3">
					<dim>1024</dim>
					<dim>1</dim>
				</port>
				<port id="4">
					<dim>1024</dim>
					<dim>1</dim>
				</port>
			</input>
			<output>
				<port id="5" precision="FP32">
					<dim>1024</dim>
					<dim>576</dim>
				</port>
			</output>
		</layer>
		<layer id="15" name="Constant_1646104013961" type="Const" version="opset1">
			<data offset="1187856" size="16" shape="2" element_type="i64"/>
			<output>
				<port id="0" precision="I64">
					<dim>2</dim>
				</port>
			</output>
		</layer>
		<layer id="16" name="4540454414006" type="Const" version="opset1">
			<data offset="1187872" size="4" shape="" element_type="f32"/>
			<output>
				<port id="0" precision="FP32"/>
			</output>
		</layer>
		<layer id="17" name="4541454512320" type="Const" version="opset1">
			<data offset="1187876" size="4" shape="" element_type="f32"/>
			<output>
				<port id="0" precision="FP32"/>
			</output>
		</layer>
		<layer id="18" name="4542454614135" type="Const" version="opset1">
			<data offset="1187872" size="4" shape="" element_type="f32"/>
			<output>
				<port id="0" precision="FP32"/>
			</output>
		</layer>
		<layer id="19" name="4543454714210" type="Const" version="opset1">
			<data offset="1187876" size="4" shape="" element_type="f32"/>
			<output>
				<port id="0" precision="FP32"/>
			</output>
		</layer>
		<layer id="20" name="Range_1642103814441" type="Const" version="opset1">
			<data offset="1187880" size="16" shape="2" element_type="i64"/>
			<output>
				<port id="0" precision="I64">
					<dim>2</dim>
				</port>
			</output>
		</layer>
		<layer id="21" name="3141314513349" type="Const" version="opset1">
			<data offset="1187896" size="4" shape="" element_type="f32"/>
			<output>
				<port id="0" precision="FP32"/>
			</output>
		</layer>
		<layer id="22" name="3142314613121" type="Const" version="opset1">
			<data offset="1187900" size="4" shape="" element_type="f32"/>
			<output>
				<port id="0" precision="FP32"/>
			</output>
		</layer>
		<layer id="23" name="3143314714429" type="Const" version="opset1">
			<data offset="1187896" size="4" shape="" element_type="f32"/>
			<output>
				<port id="0" precision="FP32"/>
			</output>
		</layer>
		<layer id="24" name="3144314814054" type="Const" version="opset1">
			<data offset="1187900" size="4" shape="" element_type="f32"/>
			<output>
				<port id="0" precision="FP32"/>
			</output>
		</layer>
		<layer id="25" name="3561356513616" type="Const" version="opset1">
			<data offset="1187904" size="4" shape="" element_type="f32"/>
			<output>
				<port id="0" precision="FP32"/>
			</output>
		</layer>
		<layer id="26" name="3562356613865" type="Const" version="opset1">
			<data offset="1187908" size="4" shape="" element_type="f32"/>
			<output>
				<port id="0" precision="FP32"/>
			</output>
		</layer>
		<layer id="27" name="3563356712554" type="Const" version="opset1">
			<data offset="1187904" size="4" shape="" element_type="f32"/>
			<output>
				<port id="0" precision="FP32"/>
			</output>
		</layer>
		<layer id="28" name="3564356813853" type="Const" version="opset1">
			<data offset="1187908" size="4" shape="" element_type="f32"/>
			<output>
				<port id="0" precision="FP32"/>
			</output>
		</layer>
		<layer id="29" name="3101310514144" type="Const" version="opset1">
			<data offset="1187912" size="4" shape="" element_type="f32"/>
			<output>
				<port id="0" precision="FP32"/>
			</output>
		</layer>
		<layer id="30" name="3102310614477" type="Const" version="opset1">
			<data offset="1187916" size="4" shape="" element_type="f32"/>
			<output>
				<port id="0" precision="FP32"/>
			</output>
		</layer>
		<layer id="31" name="3103310712203" type="Const" version="opset1">
			<data offset="1187912" size="4" shape="" element_type="f32"/>
			<output>
				<port id="0" precision="FP32"/>
			</output>
		</layer>
		<layer id="32" name="3104310812236" type="Const" version="opset1">
			<data offset="1187916" size="4" shape="" element_type="f32"/>
			<output>
				<port id="0" precision="FP32"/>
			</output>
		</layer>
		<layer id="33" name="2181218512233" type="Const" version="opset1">
			<data offset="1187920" size="4" shape="" element_type="f32"/>
			<output>
				<port id="0" precision="FP32"/>
			</output>
		</layer>
		<layer id="34" name="2182218612206" type="Const" version="opset1">
			<data offset="1187924" size="4" shape="" element_type="f32"/>
			<output>
				<port id="0" precision="FP32"/>
			</output>
		</layer>
		<layer id="35" name="2183218714111" type="Const" version="opset1">
			<data offset="1187920" size="4" shape="" element_type="f32"/>
			<output>
				<port id="0" precision="FP32"/>
			</output>
		</layer>
		<layer id="36" name="2184218812590" type="Const" version="opset1">
			<data offset="1187924" size="4" shape="" element_type="f32"/>
			<output>
				<port id="0" precision="FP32"/>
			</output>
		</layer>
		<layer id="37" name="3171317514198" type="Const" version="opset1">
			<data offset="1187928" size="4" shape="" element_type="f32"/>
			<output>
				<port id="0" precision="FP32"/>
			</output>
		</layer>
		<layer id="38" name="3172317614444" type="Const" version="opset1">
			<data offset="1187932" size="4" shape="" element_type="f32"/>
			<output>
				<port id="0" precision="FP32"/>
			</output>
		</layer>
		<layer id="39" name="3173317714315" type="Const" version="opset1">
			<data offset="1187928" size="4" shape="" element_type="f32"/>
			<output>
				<port id="0" precision="FP32"/>
			</output>
		</layer>
		<layer id="40" name="3174317813505" type="Const" version="opset1">
			<data offset="1187932" size="4" shape="" element_type="f32"/>
			<output>
				<port id="0" precision="FP32"/>
			</output>
		</layer>
		<layer id="41" name="3251325513745" type="Const" version="opset1">
			<data offset="1187936" size="4" shape="" element_type="f32"/>
			<output>
				<port id="0" precision="FP32"/>
			</output>
		</layer>
		<layer id="42" name="3252325612947" type="Const" version="opset1">
			<data offset="1187940" size="4" shape="" element_type="f32"/>
			<output>
				<port id="0" precision="FP32"/>
			</output>
		</layer>
		<layer id="43" name="3253325713481" type="Const" version="opset1">
			<data offset="1187936" size="4" shape="" element_type="f32"/>
			<output>
				<port id="0" precision="FP32"/>
			</output>
		</layer>
		<layer id="44" name="3254325812857" type="Const" version="opset1">
			<data offset="1187940" size="4" shape="" element_type="f32"/>
			<output>
				<port id="0" precision="FP32"/>
			</output>
		</layer>
		<layer id="45" name="3601360513310" type="Const" version="opset1">
			<data offset="1187936" size="4" shape="" element_type="f32"/>
			<output>
				<port id="0" precision="FP32"/>
			</output>
		</layer>
		<layer id="46" name="3602360613814" type="Const" version="opset1">
			<data offset="1187944" size="4" shape="" element_type="f32"/>
			<output>
				<port id="0" precision="FP32"/>
			</output>
		</layer>
		<layer id="47" name="3603360713850" type="Const" version="opset1">
			<data offset="1187936" size="4" shape="" element_type="f32"/>
			<output>
				<port id="0" precision="FP32"/>
			</output>
		</layer>
		<layer id="48" name="3604360813946" type="Const" version="opset1">
			<data offset="1187944" size="4" shape="" element_type="f32"/>
			<output>
				<port id="0" precision="FP32"/>
			</output>
		</layer>
		<layer id="49" name="3431343513217" type="Const" version="opset1">
			<data offset="1187948" size="4" shape="" element_type="f32"/>
			<output>
				<port id="0" precision="FP32"/>
			</output>
		</layer>
		<layer id="50" name="3432343612416" type="Const" version="opset1">
			<data offset="1187952" size="4" shape="" element_type="f32"/>
			<output>
				<port id="0" precision="FP32"/>
			</output>
		</layer>
		<layer id="51" name="3433343713700" type="Const" version="opset1">
			<data offset="1187948" size="4" shape="" element_type="f32"/>
			<output>
				<port id="0" precision="FP32"/>
			</output>
		</layer>
		<layer id="52" name="3434343813997" type="Const" version="opset1">
			<data offset="1187952" size="4" shape="" element_type="f32"/>
			<output>
				<port id="0" precision="FP32"/>
			</output>
		</layer>
		<layer id="53" name="Range_156299812428" type="Const" version="opset1">
			<data offset="1187880" size="16" shape="2" element_type="i64"/>
			<output>
				<port id="0" precision="I64">
					<dim>2</dim>
				</port>
			</output>
		</layer>
		<layer id="54" name="1951195513760" type="Const" version="opset1">
			<data offset="1187956" size="4" shape="" element_type="f32"/>
			<output>
				<port id="0" precision="FP32"/>
			</output>
		</layer>
		<layer id="55" name="1952195613913" type="Const" version="opset1">
			<data offset="1187960" size="4" shape="" element_type="f32"/>
			<output>
				<port id="0" precision="FP32"/>
			</output>
		</layer>
		<layer id="56" name="1953195714207" type="Const" version="opset1">
			<data offset="1187956" size="4" shape="" element_type="f32"/>
			<output>
				<port id="0" precision="FP32"/>
			</output>
		</layer>
		<layer id="57" name="1954195814546" type="Const" version="opset1">
			<data offset="1187960" size="4" shape="" element_type="f32"/>
			<output>
				<port id="0" precision="FP32"/>
			</output>
		</layer>
		<layer id="58" name="2811281513664" type="Const" version="opset1">
			<data offset="1187964" size="4" shape="" element_type="f32"/>
			<output>
				<port id="0" precision="FP32"/>
			</output>
		</layer>
		<layer id="59" name="2812281613463" type="Const" version="opset1">
			<data offset="1187968" size="4" shape="" element_type="f32"/>
			<output>
				<port id="0" precision="FP32"/>
			</output>
		</layer>
		<layer id="60" name="2813281713898" type="Const" version="opset1">
			<data offset="1187964" size="4" shape="" element_type="f32"/>
			<output>
				<port id="0" precision="FP32"/>
			</output>
		</layer>
		<layer id="61" name="2814281814228" type="Const" version="opset1">
			<data offset="1187968" size="4" shape="" element_type="f32"/>
			<output>
				<port id="0" precision="FP32"/>
			</output>
		</layer>
		<layer id="62" name="3271327513373" type="Const" version="opset1">
			<data offset="1187972" size="2304" shape="1,576,1,1" element_type="f32"/>
			<output>
				<port id="0" precision="FP32">
					<dim>1</dim>
					<dim>576</dim>
					<dim>1</dim>
					<dim>1</dim>
				</port>
			</output>
		</layer>
		<layer id="63" name="3272327612932" type="Const" version="opset1">
			<data offset="1190276" size="2304" shape="1,576,1,1" element_type="f32"/>
			<output>
				<port id="0" precision="FP32">
					<dim>1</dim>
					<dim>576</dim>
					<dim>1</dim>
					<dim>1</dim>
				</port>
			</output>
		</layer>
		<layer id="64" name="3273327714564" type="Const" version="opset1">
			<data offset="1187972" size="2304" shape="1,576,1,1" element_type="f32"/>
			<output>
				<port id="0" precision="FP32">
					<dim>1</dim>
					<dim>576</dim>
					<dim>1</dim>
					<dim>1</dim>
				</port>
			</output>
		</layer>
		<layer id="65" name="3274327812815" type="Const" version="opset1">
			<data offset="1190276" size="2304" shape="1,576,1,1" element_type="f32"/>
			<output>
				<port id="0" precision="FP32">
					<dim>1</dim>
					<dim>576</dim>
					<dim>1</dim>
					<dim>1</dim>
				</port>
			</output>
		</layer>
		<layer id="66" name="2051205513793" type="Const" version="opset1">
			<data offset="1192580" size="4" shape="" element_type="f32"/>
			<output>
				<port id="0" precision="FP32"/>
			</output>
		</layer>
		<layer id="67" name="2052205612608" type="Const" version="opset1">
			<data offset="1192584" size="4" shape="" element_type="f32"/>
			<output>
				<port id="0" precision="FP32"/>
			</output>
		</layer>
		<layer id="68" name="2053205712653" type="Const" version="opset1">
			<data offset="1192580" size="4" shape="" element_type="f32"/>
			<output>
				<port id="0" precision="FP32"/>
			</output>
		</layer>
		<layer id="69" name="2054205813928" type="Const" version="opset1">
			<data offset="1192584" size="4" shape="" element_type="f32"/>
			<output>
				<port id="0" precision="FP32"/>
			</output>
		</layer>
		<layer id="70" name="2351235513031" type="Const" version="opset1">
			<data offset="1192588" size="2304" shape="576,1,1,1" element_type="f32"/>
			<output>
				<port id="0" precision="FP32">
					<dim>576</dim>
					<dim>1</dim>
					<dim>1</dim>
					<dim>1</dim>
				</port>
			</output>
		</layer>
		<layer id="71" name="2352235612434" type="Const" version="opset1">
			<data offset="1194892" size="2304" shape="576,1,1,1" element_type="f32"/>
			<output>
				<port id="0" precision="FP32">
					<dim>576</dim>
					<dim>1</dim>
					<dim>1</dim>
					<dim>1</dim>
				</port>
			</output>
		</layer>
		<layer id="72" name="2353235713514" type="Const" version="opset1">
			<data offset="1192588" size="2304" shape="576,1,1,1" element_type="f32"/>
			<output>
				<port id="0" precision="FP32">
					<dim>576</dim>
					<dim>1</dim>
					<dim>1</dim>
					<dim>1</dim>
				</port>
			</output>
		</layer>
		<layer id="73" name="2354235812980" type="Const" version="opset1">
			<data offset="1194892" size="2304" shape="576,1,1,1" element_type="f32"/>
			<output>
				<port id="0" precision="FP32">
					<dim>576</dim>
					<dim>1</dim>
					<dim>1</dim>
					<dim>1</dim>
				</port>
			</output>
		</layer>
		<layer id="74" name="onnx::Conv_51197512152" type="Const" version="opset1">
			<data offset="1197196" size="110592" shape="576,96,1,1" element_type="f16"/>
			<output>
				<port id="0" precision="FP16">
					<dim>576</dim>
					<dim>96</dim>
					<dim>1</dim>
					<dim>1</dim>
				</port>
			</output>
		</layer>
		<layer id="75" name="onnx::Conv_5119759050/restored_convert" type="Convert" version="opset1">
			<data destination_type="f32"/>
			<rt_info>
				<attribute name="decompression" version="0"/>
			</rt_info>
			<input>
				<port id="0">
					<dim>576</dim>
					<dim>96</dim>
					<dim>1</dim>
					<dim>1</dim>
				</port>
			</input>
			<output>
				<port id="1" precision="FP32" names="onnx::Conv_511">
					<dim>576</dim>
					<dim>96</dim>
					<dim>1</dim>
					<dim>1</dim>
				</port>
			</output>
		</layer>
		<layer id="76" name="/features/features.11/block/block.0/block.0.0/Conv/WithoutBiases/fq_weights_1" type="FakeQuantize" version="opset1">
			<data levels="255" auto_broadcast="numpy"/>
			<input>
				<port id="0">
					<dim>576</dim>
					<dim>96</dim>
					<dim>1</dim>
					<dim>1</dim>
				</port>
				<port id="1">
					<dim>576</dim>
					<dim>1</dim>
					<dim>1</dim>
					<dim>1</dim>
				</port>
				<port id="2">
					<dim>576</dim>
					<dim>1</dim>
					<dim>1</dim>
					<dim>1</dim>
				</port>
				<port id="3">
					<dim>576</dim>
					<dim>1</dim>
					<dim>1</dim>
					<dim>1</dim>
				</port>
				<port id="4">
					<dim>576</dim>
					<dim>1</dim>
					<dim>1</dim>
					<dim>1</dim>
				</port>
			</input>
			<output>
				<port id="5" precision="FP32">
					<dim>576</dim>
					<dim>96</dim>
					<dim>1</dim>
					<dim>1</dim>
				</port>
			</output>
		</layer>
		<layer id="77" name="2191219513229" type="Const" version="opset1">
			<data offset="1307788" size="4" shape="" element_type="f32"/>
			<output>
				<port id="0" precision="FP32"/>
			</output>
		</layer>
		<layer id="78" name="2192219613856" type="Const" version="opset1">
			<data offset="1307792" size="4" shape="" element_type="f32"/>
			<output>
				<port id="0" precision="FP32"/>
			</output>
		</layer>
		<layer id="79" name="2193219714573" type="Const" version="opset1">
			<data offset="1307788" size="4" shape="" element_type="f32"/>
			<output>
				<port id="0" precision="FP32"/>
			</output>
		</layer>
		<layer id="80" name="2194219812548" type="Const" version="opset1">
			<data offset="1307792" size="4" shape="" element_type="f32"/>
			<output>
				<port id="0" precision="FP32"/>
			</output>
		</layer>
		<layer id="81" name="1981198512680" type="Const" version="opset1">
			<data offset="1307796" size="4" shape="" element_type="f32"/>
			<output>
				<port id="0" precision="FP32"/>
			</output>
		</layer>
		<layer id="82" name="1982198613829" type="Const" version="opset1">
			<data offset="1307800" size="4" shape="" element_type="f32"/>
			<output>
				<port id="0" precision="FP32"/>
			</output>
		</layer>
		<layer id="83" name="1983198714033" type="Const" version="opset1">
			<data offset="1307796" size="4" shape="" element_type="f32"/>
			<output>
				<port id="0" precision="FP32"/>
			</output>
		</layer>
		<layer id="84" name="1984198814285" type="Const" version="opset1">
			<data offset="1307800" size="4" shape="" element_type="f32"/>
			<output>
				<port id="0" precision="FP32"/>
			</output>
		</layer>
		<layer id="85" name="2621262513271" type="Const" version="opset1">
			<data offset="1307804" size="4" shape="" element_type="f32"/>
			<output>
				<port id="0" precision="FP32"/>
			</output>
		</layer>
		<layer id="86" name="2622262614237" type="Const" version="opset1">
			<data offset="1307808" size="4" shape="" element_type="f32"/>
			<output>
				<port id="0" precision="FP32"/>
			</output>
		</layer>
		<layer id="87" name="2623262712533" type="Const" version="opset1">
			<data offset="1307804" size="4" shape="" element_type="f32"/>
			<output>
				<port id="0" precision="FP32"/>
			</output>
		</layer>
		<layer id="88" name="2624262813142" type="Const" version="opset1">
			<data offset="1307808" size="4" shape="" element_type="f32"/>
			<output>
				<port id="0" precision="FP32"/>
			</output>
		</layer>
		<layer id="89" name="3391339512011" type="Const" version="opset1">
			<data offset="1187936" size="4" shape="" element_type="f32"/>
			<output>
				<port id="0" precision="FP32"/>
			</output>
		</layer>
		<layer id="90" name="3392339613655" type="Const" version="opset1">
			<data offset="1187940" size="4" shape="" element_type="f32"/>
			<output>
				<port id="0" precision="FP32"/>
			</output>
		</layer>
		<layer id="91" name="3393339712578" type="Const" version="opset1">
			<data offset="1187936" size="4" shape="" element_type="f32"/>
			<output>
				<port id="0" precision="FP32"/>
			</output>
		</layer>
		<layer id="92" name="3394339813472" type="Const" version="opset1">
			<data offset="1187940" size="4" shape="" element_type="f32"/>
			<output>
				<port id="0" precision="FP32"/>
			</output>
		</layer>
		<layer id="93" name="2301230514393" type="Const" version="opset1">
			<data offset="1187936" size="4" shape="" element_type="f32"/>
			<output>
				<port id="0" precision="FP32"/>
			</output>
		</layer>
		<layer id="94" name="2302230614123" type="Const" version="opset1">
			<data offset="1307812" size="4" shape="" element_type="f32"/>
			<output>
				<port id="0" precision="FP32"/>
			</output>
		</layer>
		<layer id="95" name="2303230713730" type="Const" version="opset1">
			<data offset="1187936" size="4" shape="" element_type="f32"/>
			<output>
				<port id="0" precision="FP32"/>
			</output>
		</layer>
		<layer id="96" name="2304230813232" type="Const" version="opset1">
			<data offset="1307812" size="4" shape="" element_type="f32"/>
			<output>
				<port id="0" precision="FP32"/>
			</output>
		</layer>
		<layer id="97" name="1861186512695" type="Const" version="opset1">
			<data offset="1307816" size="4" shape="" element_type="f32"/>
			<output>
				<port id="0" precision="FP32"/>
			</output>
		</layer>
		<layer id="98" name="1862186613304" type="Const" version="opset1">
			<data offset="1307820" size="4" shape="" element_type="f32"/>
			<output>
				<port id="0" precision="FP32"/>
			</output>
		</layer>
		<layer id="99" name="1863186712674" type="Const" version="opset1">
			<data offset="1307816" size="4" shape="" element_type="f32"/>
			<output>
				<port id="0" precision="FP32"/>
			</output>
		</layer>
		<layer id="100" name="1864186812308" type="Const" version="opset1">
			<data offset="1307820" size="4" shape="" element_type="f32"/>
			<output>
				<port id="0" precision="FP32"/>
			</output>
		</layer>
		<layer id="101" name="Range_141594614102" type="Const" version="opset1">
			<data offset="1187880" size="16" shape="2" element_type="i64"/>
			<output>
				<port id="0" precision="I64">
					<dim>2</dim>
				</port>
			</output>
		</layer>
		<layer id="102" name="3551355513652" type="Const" version="opset1">
			<data offset="1307824" size="4" shape="" element_type="f32"/>
			<output>
				<port id="0" precision="FP32"/>
			</output>
		</layer>
		<layer id="103" name="3552355612830" type="Const" version="opset1">
			<data offset="1307828" size="4" shape="" element_type="f32"/>
			<output>
				<port id="0" precision="FP32"/>
			</output>
		</layer>
		<layer id="104" name="3553355712290" type="Const" version="opset1">
			<data offset="1307824" size="4" shape="" element_type="f32"/>
			<output>
				<port id="0" precision="FP32"/>
			</output>
		</layer>
		<layer id="105" name="3554355814468" type="Const" version="opset1">
			<data offset="1307828" size="4" shape="" element_type="f32"/>
			<output>
				<port id="0" precision="FP32"/>
			</output>
		</layer>
		<layer id="106" name="3331333513613" type="Const" version="opset1">
			<data offset="1307832" size="4" shape="" element_type="f32"/>
			<output>
				<port id="0" precision="FP32"/>
			</output>
		</layer>
		<layer id="107" name="3332333613259" type="Const" version="opset1">
			<data offset="1307836" size="4" shape="" element_type="f32"/>
			<output>
				<port id="0" precision="FP32"/>
			</output>
		</layer>
		<layer id="108" name="3333333712215" type="Const" version="opset1">
			<data offset="1307832" size="4" shape="" element_type="f32"/>
			<output>
				<port id="0" precision="FP32"/>
			</output>
		</layer>
		<layer id="109" name="3334333812035" type="Const" version="opset1">
			<data offset="1307836" size="4" shape="" element_type="f32"/>
			<output>
				<port id="0" precision="FP32"/>
			</output>
		</layer>
		<layer id="110" name="2461246512497" type="Const" version="opset1">
			<data offset="1307840" size="2304" shape="1,576,1,1" element_type="f32"/>
			<output>
				<port id="0" precision="FP32">
					<dim>1</dim>
					<dim>576</dim>
					<dim>1</dim>
					<dim>1</dim>
				</port>
			</output>
		</layer>
		<layer id="111" name="2462246613553" type="Const" version="opset1">
			<data offset="1310144" size="2304" shape="1,576,1,1" element_type="f32"/>
			<output>
				<port id="0" precision="FP32">
					<dim>1</dim>
					<dim>576</dim>
					<dim>1</dim>
					<dim>1</dim>
				</port>
			</output>
		</layer>
		<layer id="112" name="2463246712131" type="Const" version="opset1">
			<data offset="1307840" size="2304" shape="1,576,1,1" element_type="f32"/>
			<output>
				<port id="0" precision="FP32">
					<dim>1</dim>
					<dim>576</dim>
					<dim>1</dim>
					<dim>1</dim>
				</port>
			</output>
		</layer>
		<layer id="113" name="2464246813706" type="Const" version="opset1">
			<data offset="1310144" size="2304" shape="1,576,1,1" element_type="f32"/>
			<output>
				<port id="0" precision="FP32">
					<dim>1</dim>
					<dim>576</dim>
					<dim>1</dim>
					<dim>1</dim>
				</port>
			</output>
		</layer>
		<layer id="114" name="2701270514213" type="Const" version="opset1">
			<data offset="1312448" size="4" shape="" element_type="f32"/>
			<output>
				<port id="0" precision="FP32"/>
			</output>
		</layer>
		<layer id="115" name="2702270612905" type="Const" version="opset1">
			<data offset="1312452" size="4" shape="" element_type="f32"/>
			<output>
				<port id="0" precision="FP32"/>
			</output>
		</layer>
		<layer id="116" name="2703270713136" type="Const" version="opset1">
			<data offset="1312448" size="4" shape="" element_type="f32"/>
			<output>
				<port id="0" precision="FP32"/>
			</output>
		</layer>
		<layer id="117" name="2704270813421" type="Const" version="opset1">
			<data offset="1312452" size="4" shape="" element_type="f32"/>
			<output>
				<port id="0" precision="FP32"/>
			</output>
		</layer>
		<layer id="118" name="3221322513070" type="Const" version="opset1">
			<data offset="1312456" size="2304" shape="576,1,1,1" element_type="f32"/>
			<output>
				<port id="0" precision="FP32">
					<dim>576</dim>
					<dim>1</dim>
					<dim>1</dim>
					<dim>1</dim>
				</port>
			</output>
		</layer>
		<layer id="119" name="3222322613955" type="Const" version="opset1">
			<data offset="1314760" size="2304" shape="576,1,1,1" element_type="f32"/>
			<output>
				<port id="0" precision="FP32">
					<dim>576</dim>
					<dim>1</dim>
					<dim>1</dim>
					<dim>1</dim>
				</port>
			</output>
		</layer>
		<layer id="120" name="3223322712974" type="Const" version="opset1">
			<data offset="1312456" size="2304" shape="576,1,1,1" element_type="f32"/>
			<output>
				<port id="0" precision="FP32">
					<dim>576</dim>
					<dim>1</dim>
					<dim>1</dim>
					<dim>1</dim>
				</port>
			</output>
		</layer>
		<layer id="121" name="3224322812383" type="Const" version="opset1">
			<data offset="1314760" size="2304" shape="576,1,1,1" element_type="f32"/>
			<output>
				<port id="0" precision="FP32">
					<dim>576</dim>
					<dim>1</dim>
					<dim>1</dim>
					<dim>1</dim>
				</port>
			</output>
		</layer>
		<layer id="122" name="onnx::Conv_50292314204" type="Const" version="opset1">
			<data offset="1317064" size="110592" shape="576,96,1,1" element_type="f16"/>
			<output>
				<port id="0" precision="FP16">
					<dim>576</dim>
					<dim>96</dim>
					<dim>1</dim>
					<dim>1</dim>
				</port>
			</output>
		</layer>
		<layer id="123" name="onnx::Conv_5029239033/restored_convert" type="Convert" version="opset1">
			<data destination_type="f32"/>
			<rt_info>
				<attribute name="decompression" version="0"/>
			</rt_info>
			<input>
				<port id="0">
					<dim>576</dim>
					<dim>96</dim>
					<dim>1</dim>
					<dim>1</dim>
				</port>
			</input>
			<output>
				<port id="1" precision="FP32" names="onnx::Conv_502">
					<dim>576</dim>
					<dim>96</dim>
					<dim>1</dim>
					<dim>1</dim>
				</port>
			</output>
		</layer>
		<layer id="124" name="/features/features.10/block/block.0/block.0.0/Conv/WithoutBiases/fq_weights_1" type="FakeQuantize" version="opset1">
			<data levels="255" auto_broadcast="numpy"/>
			<input>
				<port id="0">
					<dim>576</dim>
					<dim>96</dim>
					<dim>1</dim>
					<dim>1</dim>
				</port>
				<port id="1">
					<dim>576</dim>
					<dim>1</dim>
					<dim>1</dim>
					<dim>1</dim>
				</port>
				<port id="2">
					<dim>576</dim>
					<dim>1</dim>
					<dim>1</dim>
					<dim>1</dim>
				</port>
				<port id="3">
					<dim>576</dim>
					<dim>1</dim>
					<dim>1</dim>
					<dim>1</dim>
				</port>
				<port id="4">
					<dim>576</dim>
					<dim>1</dim>
					<dim>1</dim>
					<dim>1</dim>
				</port>
			</input>
			<output>
				<port id="5" precision="FP32">
					<dim>576</dim>
					<dim>96</dim>
					<dim>1</dim>
					<dim>1</dim>
				</port>
			</output>
		</layer>
		<layer id="125" name="1991199513679" type="Const" version="opset1">
			<data offset="1427656" size="4" shape="" element_type="f32"/>
			<output>
				<port id="0" precision="FP32"/>
			</output>
		</layer>
		<layer id="126" name="1992199612194" type="Const" version="opset1">
			<data offset="1427660" size="4" shape="" element_type="f32"/>
			<output>
				<port id="0" precision="FP32"/>
			</output>
		</layer>
		<layer id="127" name="1993199712515" type="Const" version="opset1">
			<data offset="1427656" size="4" shape="" element_type="f32"/>
			<output>
				<port id="0" precision="FP32"/>
			</output>
		</layer>
		<layer id="128" name="1994199812248" type="Const" version="opset1">
			<data offset="1427660" size="4" shape="" element_type="f32"/>
			<output>
				<port id="0" precision="FP32"/>
			</output>
		</layer>
		<layer id="129" name="1901190514330" type="Const" version="opset1">
			<data offset="1427664" size="4" shape="" element_type="f32"/>
			<output>
				<port id="0" precision="FP32"/>
			</output>
		</layer>
		<layer id="130" name="1902190614048" type="Const" version="opset1">
			<data offset="1427668" size="4" shape="" element_type="f32"/>
			<output>
				<port id="0" precision="FP32"/>
			</output>
		</layer>
		<layer id="131" name="1903190713502" type="Const" version="opset1">
			<data offset="1427664" size="4" shape="" element_type="f32"/>
			<output>
				<port id="0" precision="FP32"/>
			</output>
		</layer>
		<layer id="132" name="1904190813844" type="Const" version="opset1">
			<data offset="1427668" size="4" shape="" element_type="f32"/>
			<output>
				<port id="0" precision="FP32"/>
			</output>
		</layer>
		<layer id="133" name="2741274514000" type="Const" version="opset1">
			<data offset="1187936" size="4" shape="" element_type="f32"/>
			<output>
				<port id="0" precision="FP32"/>
			</output>
		</layer>
		<layer id="134" name="2742274612188" type="Const" version="opset1">
			<data offset="1187940" size="4" shape="" element_type="f32"/>
			<output>
				<port id="0" precision="FP32"/>
			</output>
		</layer>
		<layer id="135" name="2743274713775" type="Const" version="opset1">
			<data offset="1187936" size="4" shape="" element_type="f32"/>
			<output>
				<port id="0" precision="FP32"/>
			</output>
		</layer>
		<layer id="136" name="2744274813712" type="Const" version="opset1">
			<data offset="1187940" size="4" shape="" element_type="f32"/>
			<output>
				<port id="0" precision="FP32"/>
			</output>
		</layer>
		<layer id="137" name="3291329512167" type="Const" version="opset1">
			<data offset="1187936" size="4" shape="" element_type="f32"/>
			<output>
				<port id="0" precision="FP32"/>
			</output>
		</layer>
		<layer id="138" name="3292329614159" type="Const" version="opset1">
			<data offset="1427672" size="4" shape="" element_type="f32"/>
			<output>
				<port id="0" precision="FP32"/>
			</output>
		</layer>
		<layer id="139" name="3293329712743" type="Const" version="opset1">
			<data offset="1187936" size="4" shape="" element_type="f32"/>
			<output>
				<port id="0" precision="FP32"/>
			</output>
		</layer>
		<layer id="140" name="3294329812788" type="Const" version="opset1">
			<data offset="1427672" size="4" shape="" element_type="f32"/>
			<output>
				<port id="0" precision="FP32"/>
			</output>
		</layer>
		<layer id="141" name="3121312514183" type="Const" version="opset1">
			<data offset="1427676" size="4" shape="" element_type="f32"/>
			<output>
				<port id="0" precision="FP32"/>
			</output>
		</layer>
		<layer id="142" name="3122312612500" type="Const" version="opset1">
			<data offset="1427680" size="4" shape="" element_type="f32"/>
			<output>
				<port id="0" precision="FP32"/>
			</output>
		</layer>
		<layer id="143" name="3123312712527" type="Const" version="opset1">
			<data offset="1427676" size="4" shape="" element_type="f32"/>
			<output>
				<port id="0" precision="FP32"/>
			</output>
		</layer>
		<layer id="144" name="3124312813091" type="Const" version="opset1">
			<data offset="1427680" size="4" shape="" element_type="f32"/>
			<output>
				<port id="0" precision="FP32"/>
			</output>
		</layer>
		<layer id="145" name="Range_126989512800" type="Const" version="opset1">
			<data offset="1187880" size="16" shape="2" element_type="i64"/>
			<output>
				<port id="0" precision="I64">
					<dim>2</dim>
				</port>
			</output>
		</layer>
		<layer id="146" name="2871287514438" type="Const" version="opset1">
			<data offset="1427684" size="4" shape="" element_type="f32"/>
			<output>
				<port id="0" precision="FP32"/>
			</output>
		</layer>
		<layer id="147" name="2872287612437" type="Const" version="opset1">
			<data offset="1427688" size="4" shape="" element_type="f32"/>
			<output>
				<port id="0" precision="FP32"/>
			</output>
		</layer>
		<layer id="148" name="2873287712476" type="Const" version="opset1">
			<data offset="1427684" size="4" shape="" element_type="f32"/>
			<output>
				<port id="0" precision="FP32"/>
			</output>
		</layer>
		<layer id="149" name="2874287812326" type="Const" version="opset1">
			<data offset="1427688" size="4" shape="" element_type="f32"/>
			<output>
				<port id="0" precision="FP32"/>
			</output>
		</layer>
		<layer id="150" name="1801180513640" type="Const" version="opset1">
			<data offset="1427692" size="4" shape="" element_type="f32"/>
			<output>
				<port id="0" precision="FP32"/>
			</output>
		</layer>
		<layer id="151" name="1802180612302" type="Const" version="opset1">
			<data offset="1427696" size="4" shape="" element_type="f32"/>
			<output>
				<port id="0" precision="FP32"/>
			</output>
		</layer>
		<layer id="152" name="1803180712365" type="Const" version="opset1">
			<data offset="1427692" size="4" shape="" element_type="f32"/>
			<output>
				<port id="0" precision="FP32"/>
			</output>
		</layer>
		<layer id="153" name="1804180812455" type="Const" version="opset1">
			<data offset="1427696" size="4" shape="" element_type="f32"/>
			<output>
				<port id="0" precision="FP32"/>
			</output>
		</layer>
		<layer id="154" name="2141214514522" type="Const" version="opset1">
			<data offset="1427700" size="1152" shape="1,288,1,1" element_type="f32"/>
			<output>
				<port id="0" precision="FP32">
					<dim>1</dim>
					<dim>288</dim>
					<dim>1</dim>
					<dim>1</dim>
				</port>
			</output>
		</layer>
		<layer id="155" name="2142214614489" type="Const" version="opset1">
			<data offset="1428852" size="1152" shape="1,288,1,1" element_type="f32"/>
			<output>
				<port id="0" precision="FP32">
					<dim>1</dim>
					<dim>288</dim>
					<dim>1</dim>
					<dim>1</dim>
				</port>
			</output>
		</layer>
		<layer id="156" name="2143214713319" type="Const" version="opset1">
			<data offset="1427700" size="1152" shape="1,288,1,1" element_type="f32"/>
			<output>
				<port id="0" precision="FP32">
					<dim>1</dim>
					<dim>288</dim>
					<dim>1</dim>
					<dim>1</dim>
				</port>
			</output>
		</layer>
		<layer id="157" name="2144214812269" type="Const" version="opset1">
			<data offset="1428852" size="1152" shape="1,288,1,1" element_type="f32"/>
			<output>
				<port id="0" precision="FP32">
					<dim>1</dim>
					<dim>288</dim>
					<dim>1</dim>
					<dim>1</dim>
				</port>
			</output>
		</layer>
		<layer id="158" name="2321232513196" type="Const" version="opset1">
			<data offset="1430004" size="4" shape="" element_type="f32"/>
			<output>
				<port id="0" precision="FP32"/>
			</output>
		</layer>
		<layer id="159" name="2322232613019" type="Const" version="opset1">
			<data offset="1430008" size="4" shape="" element_type="f32"/>
			<output>
				<port id="0" precision="FP32"/>
			</output>
		</layer>
		<layer id="160" name="2323232713376" type="Const" version="opset1">
			<data offset="1430004" size="4" shape="" element_type="f32"/>
			<output>
				<port id="0" precision="FP32"/>
			</output>
		</layer>
		<layer id="161" name="2324232812539" type="Const" version="opset1">
			<data offset="1430008" size="4" shape="" element_type="f32"/>
			<output>
				<port id="0" precision="FP32"/>
			</output>
		</layer>
		<layer id="162" name="3231323513661" type="Const" version="opset1">
			<data offset="1430012" size="4" shape="" element_type="f32"/>
			<output>
				<port id="0" precision="FP32"/>
			</output>
		</layer>
		<layer id="163" name="3232323613532" type="Const" version="opset1">
			<data offset="1430016" size="4" shape="" element_type="f32"/>
			<output>
				<port id="0" precision="FP32"/>
			</output>
		</layer>
		<layer id="164" name="3233323714015" type="Const" version="opset1">
			<data offset="1430012" size="4" shape="" element_type="f32"/>
			<output>
				<port id="0" precision="FP32"/>
			</output>
		</layer>
		<layer id="165" name="3234323812347" type="Const" version="opset1">
			<data offset="1430016" size="4" shape="" element_type="f32"/>
			<output>
				<port id="0" precision="FP32"/>
			</output>
		</layer>
		<layer id="166" name="2521252512866" type="Const" version="opset1">
			<data offset="1430020" size="4" shape="" element_type="f32"/>
			<output>
				<port id="0" precision="FP32"/>
			</output>
		</layer>
		<layer id="167" name="2522252612965" type="Const" version="opset1">
			<data offset="1430024" size="4" shape="" element_type="f32"/>
			<output>
				<port id="0" precision="FP32"/>
			</output>
		</layer>
		<layer id="168" name="2523252713547" type="Const" version="opset1">
			<data offset="1430020" size="4" shape="" element_type="f32"/>
			<output>
				<port id="0" precision="FP32"/>
			</output>
		</layer>
		<layer id="169" name="2524252813910" type="Const" version="opset1">
			<data offset="1430024" size="4" shape="" element_type="f32"/>
			<output>
				<port id="0" precision="FP32"/>
			</output>
		</layer>
		<layer id="170" name="2281228512812" type="Const" version="opset1">
			<data offset="1430028" size="4" shape="" element_type="f32"/>
			<output>
				<port id="0" precision="FP32"/>
			</output>
		</layer>
		<layer id="171" name="2282228612692" type="Const" version="opset1">
			<data offset="1430032" size="4" shape="" element_type="f32"/>
			<output>
				<port id="0" precision="FP32"/>
			</output>
		</layer>
		<layer id="172" name="2283228713787" type="Const" version="opset1">
			<data offset="1430028" size="4" shape="" element_type="f32"/>
			<output>
				<port id="0" precision="FP32"/>
			</output>
		</layer>
		<layer id="173" name="2284228814417" type="Const" version="opset1">
			<data offset="1430032" size="4" shape="" element_type="f32"/>
			<output>
				<port id="0" precision="FP32"/>
			</output>
		</layer>
		<layer id="174" name="3061306513451" type="Const" version="opset1">
			<data offset="1187936" size="4" shape="" element_type="f32"/>
			<output>
				<port id="0" precision="FP32"/>
			</output>
		</layer>
		<layer id="175" name="3062306613883" type="Const" version="opset1">
			<data offset="1187940" size="4" shape="" element_type="f32"/>
			<output>
				<port id="0" precision="FP32"/>
			</output>
		</layer>
		<layer id="176" name="3063306712911" type="Const" version="opset1">
			<data offset="1187936" size="4" shape="" element_type="f32"/>
			<output>
				<port id="0" precision="FP32"/>
			</output>
		</layer>
		<layer id="177" name="3064306812485" type="Const" version="opset1">
			<data offset="1187940" size="4" shape="" element_type="f32"/>
			<output>
				<port id="0" precision="FP32"/>
			</output>
		</layer>
		<layer id="178" name="3371337512887" type="Const" version="opset1">
			<data offset="1187936" size="4" shape="" element_type="f32"/>
			<output>
				<port id="0" precision="FP32"/>
			</output>
		</layer>
		<layer id="179" name="3372337613973" type="Const" version="opset1">
			<data offset="1430036" size="4" shape="" element_type="f32"/>
			<output>
				<port id="0" precision="FP32"/>
			</output>
		</layer>
		<layer id="180" name="3373337712710" type="Const" version="opset1">
			<data offset="1187936" size="4" shape="" element_type="f32"/>
			<output>
				<port id="0" precision="FP32"/>
			</output>
		</layer>
		<layer id="181" name="3374337813520" type="Const" version="opset1">
			<data offset="1430036" size="4" shape="" element_type="f32"/>
			<output>
				<port id="0" precision="FP32"/>
			</output>
		</layer>
		<layer id="182" name="2481248514201" type="Const" version="opset1">
			<data offset="1430040" size="4" shape="" element_type="f32"/>
			<output>
				<port id="0" precision="FP32"/>
			</output>
		</layer>
		<layer id="183" name="2482248613445" type="Const" version="opset1">
			<data offset="1430044" size="4" shape="" element_type="f32"/>
			<output>
				<port id="0" precision="FP32"/>
			</output>
		</layer>
		<layer id="184" name="2483248713475" type="Const" version="opset1">
			<data offset="1430040" size="4" shape="" element_type="f32"/>
			<output>
				<port id="0" precision="FP32"/>
			</output>
		</layer>
		<layer id="185" name="2484248812494" type="Const" version="opset1">
			<data offset="1430044" size="4" shape="" element_type="f32"/>
			<output>
				<port id="0" precision="FP32"/>
			</output>
		</layer>
		<layer id="186" name="Range_112284313265" type="Const" version="opset1">
			<data offset="1187880" size="16" shape="2" element_type="i64"/>
			<output>
				<port id="0" precision="I64">
					<dim>2</dim>
				</port>
			</output>
		</layer>
		<layer id="187" name="2431243512863" type="Const" version="opset1">
			<data offset="1430048" size="4" shape="" element_type="f32"/>
			<output>
				<port id="0" precision="FP32"/>
			</output>
		</layer>
		<layer id="188" name="2432243613298" type="Const" version="opset1">
			<data offset="1430052" size="4" shape="" element_type="f32"/>
			<output>
				<port id="0" precision="FP32"/>
			</output>
		</layer>
		<layer id="189" name="2433243713607" type="Const" version="opset1">
			<data offset="1430048" size="4" shape="" element_type="f32"/>
			<output>
				<port id="0" precision="FP32"/>
			</output>
		</layer>
		<layer id="190" name="2434243812806" type="Const" version="opset1">
			<data offset="1430052" size="4" shape="" element_type="f32"/>
			<output>
				<port id="0" precision="FP32"/>
			</output>
		</layer>
		<layer id="191" name="2981298513832" type="Const" version="opset1">
			<data offset="1430056" size="4" shape="" element_type="f32"/>
			<output>
				<port id="0" precision="FP32"/>
			</output>
		</layer>
		<layer id="192" name="2982298612566" type="Const" version="opset1">
			<data offset="1430060" size="4" shape="" element_type="f32"/>
			<output>
				<port id="0" precision="FP32"/>
			</output>
		</layer>
		<layer id="193" name="2983298713469" type="Const" version="opset1">
			<data offset="1430056" size="4" shape="" element_type="f32"/>
			<output>
				<port id="0" precision="FP32"/>
			</output>
		</layer>
		<layer id="194" name="2984298812836" type="Const" version="opset1">
			<data offset="1430060" size="4" shape="" element_type="f32"/>
			<output>
				<port id="0" precision="FP32"/>
			</output>
		</layer>
		<layer id="195" name="2761276511999" type="Const" version="opset1">
			<data offset="1430064" size="576" shape="1,144,1,1" element_type="f32"/>
			<output>
				<port id="0" precision="FP32">
					<dim>1</dim>
					<dim>144</dim>
					<dim>1</dim>
					<dim>1</dim>
				</port>
			</output>
		</layer>
		<layer id="196" name="2762276612542" type="Const" version="opset1">
			<data offset="1430640" size="576" shape="1,144,1,1" element_type="f32"/>
			<output>
				<port id="0" precision="FP32">
					<dim>1</dim>
					<dim>144</dim>
					<dim>1</dim>
					<dim>1</dim>
				</port>
			</output>
		</layer>
		<layer id="197" name="2763276713160" type="Const" version="opset1">
			<data offset="1430064" size="576" shape="1,144,1,1" element_type="f32"/>
			<output>
				<port id="0" precision="FP32">
					<dim>1</dim>
					<dim>144</dim>
					<dim>1</dim>
					<dim>1</dim>
				</port>
			</output>
		</layer>
		<layer id="198" name="2764276813397" type="Const" version="opset1">
			<data offset="1430640" size="576" shape="1,144,1,1" element_type="f32"/>
			<output>
				<port id="0" precision="FP32">
					<dim>1</dim>
					<dim>144</dim>
					<dim>1</dim>
					<dim>1</dim>
				</port>
			</output>
		</layer>
		<layer id="199" name="1931193514132" type="Const" version="opset1">
			<data offset="1431216" size="4" shape="" element_type="f32"/>
			<output>
				<port id="0" precision="FP32"/>
			</output>
		</layer>
		<layer id="200" name="1932193612392" type="Const" version="opset1">
			<data offset="1431220" size="4" shape="" element_type="f32"/>
			<output>
				<port id="0" precision="FP32"/>
			</output>
		</layer>
		<layer id="201" name="1933193714498" type="Const" version="opset1">
			<data offset="1431216" size="4" shape="" element_type="f32"/>
			<output>
				<port id="0" precision="FP32"/>
			</output>
		</layer>
		<layer id="202" name="1934193814168" type="Const" version="opset1">
			<data offset="1431220" size="4" shape="" element_type="f32"/>
			<output>
				<port id="0" precision="FP32"/>
			</output>
		</layer>
		<layer id="203" name="1851185513562" type="Const" version="opset1">
			<data offset="1431224" size="576" shape="144,1,1,1" element_type="f32"/>
			<output>
				<port id="0" precision="FP32">
					<dim>144</dim>
					<dim>1</dim>
					<dim>1</dim>
					<dim>1</dim>
				</port>
			</output>
		</layer>
		<layer id="204" name="1852185612716" type="Const" version="opset1">
			<data offset="1431800" size="576" shape="144,1,1,1" element_type="f32"/>
			<output>
				<port id="0" precision="FP32">
					<dim>144</dim>
					<dim>1</dim>
					<dim>1</dim>
					<dim>1</dim>
				</port>
			</output>
		</layer>
		<layer id="205" name="1853185714072" type="Const" version="opset1">
			<data offset="1431224" size="576" shape="144,1,1,1" element_type="f32"/>
			<output>
				<port id="0" precision="FP32">
					<dim>144</dim>
					<dim>1</dim>
					<dim>1</dim>
					<dim>1</dim>
				</port>
			</output>
		</layer>
		<layer id="206" name="1854185813235" type="Const" version="opset1">
			<data offset="1431800" size="576" shape="144,1,1,1" element_type="f32"/>
			<output>
				<port id="0" precision="FP32">
					<dim>144</dim>
					<dim>1</dim>
					<dim>1</dim>
					<dim>1</dim>
				</port>
			</output>
		</layer>
		<layer id="207" name="onnx::Conv_48482012134" type="Const" version="opset1">
			<data offset="1432376" size="13824" shape="144,48,1,1" element_type="f16"/>
			<output>
				<port id="0" precision="FP16">
					<dim>144</dim>
					<dim>48</dim>
					<dim>1</dim>
					<dim>1</dim>
				</port>
			</output>
		</layer>
		<layer id="208" name="onnx::Conv_4848208999/restored_convert" type="Convert" version="opset1">
			<data destination_type="f32"/>
			<rt_info>
				<attribute name="decompression" version="0"/>
			</rt_info>
			<input>
				<port id="0">
					<dim>144</dim>
					<dim>48</dim>
					<dim>1</dim>
					<dim>1</dim>
				</port>
			</input>
			<output>
				<port id="1" precision="FP32" names="onnx::Conv_484">
					<dim>144</dim>
					<dim>48</dim>
					<dim>1</dim>
					<dim>1</dim>
				</port>
			</output>
		</layer>
		<layer id="209" name="/features/features.8/block/block.0/block.0.0/Conv/WithoutBiases/fq_weights_1" type="FakeQuantize" version="opset1">
			<data levels="255" auto_broadcast="numpy"/>
			<input>
				<port id="0">
					<dim>144</dim>
					<dim>48</dim>
					<dim>1</dim>
					<dim>1</dim>
				</port>
				<port id="1">
					<dim>144</dim>
					<dim>1</dim>
					<dim>1</dim>
					<dim>1</dim>
				</port>
				<port id="2">
					<dim>144</dim>
					<dim>1</dim>
					<dim>1</dim>
					<dim>1</dim>
				</port>
				<port id="3">
					<dim>144</dim>
					<dim>1</dim>
					<dim>1</dim>
					<dim>1</dim>
				</port>
				<port id="4">
					<dim>144</dim>
					<dim>1</dim>
					<dim>1</dim>
					<dim>1</dim>
				</port>
			</input>
			<output>
				<port id="5" precision="FP32">
					<dim>144</dim>
					<dim>48</dim>
					<dim>1</dim>
					<dim>1</dim>
				</port>
			</output>
		</layer>
		<layer id="210" name="2531253513220" type="Const" version="opset1">
			<data offset="1446200" size="4" shape="" element_type="f32"/>
			<output>
				<port id="0" precision="FP32"/>
			</output>
		</layer>
		<layer id="211" name="2532253613538" type="Const" version="opset1">
			<data offset="1446204" size="4" shape="" element_type="f32"/>
			<output>
				<port id="0" precision="FP32"/>
			</output>
		</layer>
		<layer id="212" name="2533253714249" type="Const" version="opset1">
			<data offset="1446200" size="4" shape="" element_type="f32"/>
			<output>
				<port id="0" precision="FP32"/>
			</output>
		</layer>
		<layer id="213" name="2534253812023" type="Const" version="opset1">
			<data offset="1446204" size="4" shape="" element_type="f32"/>
			<output>
				<port id="0" precision="FP32"/>
			</output>
		</layer>
		<layer id="214" name="2411241512122" type="Const" version="opset1">
			<data offset="1446208" size="4" shape="" element_type="f32"/>
			<output>
				<port id="0" precision="FP32"/>
			</output>
		</layer>
		<layer id="215" name="2412241614105" type="Const" version="opset1">
			<data offset="1446212" size="4" shape="" element_type="f32"/>
			<output>
				<port id="0" precision="FP32"/>
			</output>
		</layer>
		<layer id="216" name="2413241712053" type="Const" version="opset1">
			<data offset="1446208" size="4" shape="" element_type="f32"/>
			<output>
				<port id="0" precision="FP32"/>
			</output>
		</layer>
		<layer id="217" name="2414241812587" type="Const" version="opset1">
			<data offset="1446212" size="4" shape="" element_type="f32"/>
			<output>
				<port id="0" precision="FP32"/>
			</output>
		</layer>
		<layer id="218" name="3451345512419" type="Const" version="opset1">
			<data offset="1187936" size="4" shape="" element_type="f32"/>
			<output>
				<port id="0" precision="FP32"/>
			</output>
		</layer>
		<layer id="219" name="3452345613931" type="Const" version="opset1">
			<data offset="1446216" size="4" shape="" element_type="f32"/>
			<output>
				<port id="0" precision="FP32"/>
			</output>
		</layer>
		<layer id="220" name="3453345712407" type="Const" version="opset1">
			<data offset="1187936" size="4" shape="" element_type="f32"/>
			<output>
				<port id="0" precision="FP32"/>
			</output>
		</layer>
		<layer id="221" name="3454345813643" type="Const" version="opset1">
			<data offset="1446216" size="4" shape="" element_type="f32"/>
			<output>
				<port id="0" precision="FP32"/>
			</output>
		</layer>
		<layer id="222" name="2201220512218" type="Const" version="opset1">
			<data offset="1187936" size="4" shape="" element_type="f32"/>
			<output>
				<port id="0" precision="FP32"/>
			</output>
		</layer>
		<layer id="223" name="2202220612638" type="Const" version="opset1">
			<data offset="1446220" size="4" shape="" element_type="f32"/>
			<output>
				<port id="0" precision="FP32"/>
			</output>
		</layer>
		<layer id="224" name="2203220712446" type="Const" version="opset1">
			<data offset="1187936" size="4" shape="" element_type="f32"/>
			<output>
				<port id="0" precision="FP32"/>
			</output>
		</layer>
		<layer id="225" name="2204220812071" type="Const" version="opset1">
			<data offset="1446220" size="4" shape="" element_type="f32"/>
			<output>
				<port id="0" precision="FP32"/>
			</output>
		</layer>
		<layer id="226" name="2601260514525" type="Const" version="opset1">
			<data offset="1446224" size="4" shape="" element_type="f32"/>
			<output>
				<port id="0" precision="FP32"/>
			</output>
		</layer>
		<layer id="227" name="2602260614321" type="Const" version="opset1">
			<data offset="1446228" size="4" shape="" element_type="f32"/>
			<output>
				<port id="0" precision="FP32"/>
			</output>
		</layer>
		<layer id="228" name="2603260713622" type="Const" version="opset1">
			<data offset="1446224" size="4" shape="" element_type="f32"/>
			<output>
				<port id="0" precision="FP32"/>
			</output>
		</layer>
		<layer id="229" name="2604260813571" type="Const" version="opset1">
			<data offset="1446228" size="4" shape="" element_type="f32"/>
			<output>
				<port id="0" precision="FP32"/>
			</output>
		</layer>
		<layer id="230" name="Range_97679213919" type="Const" version="opset1">
			<data offset="1187880" size="16" shape="2" element_type="i64"/>
			<output>
				<port id="0" precision="I64">
					<dim>2</dim>
				</port>
			</output>
		</layer>
		<layer id="231" name="2091209513418" type="Const" version="opset1">
			<data offset="1446232" size="4" shape="" element_type="f32"/>
			<output>
				<port id="0" precision="FP32"/>
			</output>
		</layer>
		<layer id="232" name="2092209614117" type="Const" version="opset1">
			<data offset="1446236" size="4" shape="" element_type="f32"/>
			<output>
				<port id="0" precision="FP32"/>
			</output>
		</layer>
		<layer id="233" name="2093209712545" type="Const" version="opset1">
			<data offset="1446232" size="4" shape="" element_type="f32"/>
			<output>
				<port id="0" precision="FP32"/>
			</output>
		</layer>
		<layer id="234" name="2094209812050" type="Const" version="opset1">
			<data offset="1446236" size="4" shape="" element_type="f32"/>
			<output>
				<port id="0" precision="FP32"/>
			</output>
		</layer>
		<layer id="235" name="3081308513892" type="Const" version="opset1">
			<data offset="1446240" size="4" shape="" element_type="f32"/>
			<output>
				<port id="0" precision="FP32"/>
			</output>
		</layer>
		<layer id="236" name="3082308613148" type="Const" version="opset1">
			<data offset="1446244" size="4" shape="" element_type="f32"/>
			<output>
				<port id="0" precision="FP32"/>
			</output>
		</layer>
		<layer id="237" name="3083308713244" type="Const" version="opset1">
			<data offset="1446240" size="4" shape="" element_type="f32"/>
			<output>
				<port id="0" precision="FP32"/>
			</output>
		</layer>
		<layer id="238" name="3084308812275" type="Const" version="opset1">
			<data offset="1446244" size="4" shape="" element_type="f32"/>
			<output>
				<port id="0" precision="FP32"/>
			</output>
		</layer>
		<layer id="239" name="2961296514267" type="Const" version="opset1">
			<data offset="1446248" size="480" shape="1,120,1,1" element_type="f32"/>
			<output>
				<port id="0" precision="FP32">
					<dim>1</dim>
					<dim>120</dim>
					<dim>1</dim>
					<dim>1</dim>
				</port>
			</output>
		</layer>
		<layer id="240" name="2962296612773" type="Const" version="opset1">
			<data offset="1446728" size="480" shape="1,120,1,1" element_type="f32"/>
			<output>
				<port id="0" precision="FP32">
					<dim>1</dim>
					<dim>120</dim>
					<dim>1</dim>
					<dim>1</dim>
				</port>
			</output>
		</layer>
		<layer id="241" name="2963296712698" type="Const" version="opset1">
			<data offset="1446248" size="480" shape="1,120,1,1" element_type="f32"/>
			<output>
				<port id="0" precision="FP32">
					<dim>1</dim>
					<dim>120</dim>
					<dim>1</dim>
					<dim>1</dim>
				</port>
			</output>
		</layer>
		<layer id="242" name="2964296814366" type="Const" version="opset1">
			<data offset="1446728" size="480" shape="1,120,1,1" element_type="f32"/>
			<output>
				<port id="0" precision="FP32">
					<dim>1</dim>
					<dim>120</dim>
					<dim>1</dim>
					<dim>1</dim>
				</port>
			</output>
		</layer>
		<layer id="243" name="3491349513754" type="Const" version="opset1">
			<data offset="1447208" size="4" shape="" element_type="f32"/>
			<output>
				<port id="0" precision="FP32"/>
			</output>
		</layer>
		<layer id="244" name="3492349614513" type="Const" version="opset1">
			<data offset="1447212" size="4" shape="" element_type="f32"/>
			<output>
				<port id="0" precision="FP32"/>
			</output>
		</layer>
		<layer id="245" name="3493349712086" type="Const" version="opset1">
			<data offset="1447208" size="4" shape="" element_type="f32"/>
			<output>
				<port id="0" precision="FP32"/>
			</output>
		</layer>
		<layer id="246" name="3494349813841" type="Const" version="opset1">
			<data offset="1447212" size="4" shape="" element_type="f32"/>
			<output>
				<port id="0" precision="FP32"/>
			</output>
		</layer>
		<layer id="247" name="2441244512722" type="Const" version="opset1">
			<data offset="1447216" size="4" shape="" element_type="f32"/>
			<output>
				<port id="0" precision="FP32"/>
			</output>
		</layer>
		<layer id="248" name="2442244612143" type="Const" version="opset1">
			<data offset="1447220" size="4" shape="" element_type="f32"/>
			<output>
				<port id="0" precision="FP32"/>
			</output>
		</layer>
		<layer id="249" name="2443244712749" type="Const" version="opset1">
			<data offset="1447216" size="4" shape="" element_type="f32"/>
			<output>
				<port id="0" precision="FP32"/>
			</output>
		</layer>
		<layer id="250" name="2444244813748" type="Const" version="opset1">
			<data offset="1447220" size="4" shape="" element_type="f32"/>
			<output>
				<port id="0" precision="FP32"/>
			</output>
		</layer>
		<layer id="251" name="3581358513010" type="Const" version="opset1">
			<data offset="1447224" size="4" shape="" element_type="f32"/>
			<output>
				<port id="0" precision="FP32"/>
			</output>
		</layer>
		<layer id="252" name="3582358613460" type="Const" version="opset1">
			<data offset="1447228" size="4" shape="" element_type="f32"/>
			<output>
				<port id="0" precision="FP32"/>
			</output>
		</layer>
		<layer id="253" name="3583358712380" type="Const" version="opset1">
			<data offset="1447224" size="4" shape="" element_type="f32"/>
			<output>
				<port id="0" precision="FP32"/>
			</output>
		</layer>
		<layer id="254" name="3584358813697" type="Const" version="opset1">
			<data offset="1447228" size="4" shape="" element_type="f32"/>
			<output>
				<port id="0" precision="FP32"/>
			</output>
		</layer>
		<layer id="255" name="2851285514189" type="Const" version="opset1">
			<data offset="1447232" size="4" shape="" element_type="f32"/>
			<output>
				<port id="0" precision="FP32"/>
			</output>
		</layer>
		<layer id="256" name="2852285614282" type="Const" version="opset1">
			<data offset="1447236" size="4" shape="" element_type="f32"/>
			<output>
				<port id="0" precision="FP32"/>
			</output>
		</layer>
		<layer id="257" name="2853285714231" type="Const" version="opset1">
			<data offset="1447232" size="4" shape="" element_type="f32"/>
			<output>
				<port id="0" precision="FP32"/>
			</output>
		</layer>
		<layer id="258" name="2854285812362" type="Const" version="opset1">
			<data offset="1447236" size="4" shape="" element_type="f32"/>
			<output>
				<port id="0" precision="FP32"/>
			</output>
		</layer>
		<layer id="259" name="2641264512929" type="Const" version="opset1">
			<data offset="1187936" size="4" shape="" element_type="f32"/>
			<output>
				<port id="0" precision="FP32"/>
			</output>
		</layer>
		<layer id="260" name="2642264612002" type="Const" version="opset1">
			<data offset="1187940" size="4" shape="" element_type="f32"/>
			<output>
				<port id="0" precision="FP32"/>
			</output>
		</layer>
		<layer id="261" name="2643264714309" type="Const" version="opset1">
			<data offset="1187936" size="4" shape="" element_type="f32"/>
			<output>
				<port id="0" precision="FP32"/>
			</output>
		</layer>
		<layer id="262" name="2644264813739" type="Const" version="opset1">
			<data offset="1187940" size="4" shape="" element_type="f32"/>
			<output>
				<port id="0" precision="FP32"/>
			</output>
		</layer>
		<layer id="263" name="3191319513676" type="Const" version="opset1">
			<data offset="1187936" size="4" shape="" element_type="f32"/>
			<output>
				<port id="0" precision="FP32"/>
			</output>
		</layer>
		<layer id="264" name="3192319612488" type="Const" version="opset1">
			<data offset="1447240" size="4" shape="" element_type="f32"/>
			<output>
				<port id="0" precision="FP32"/>
			</output>
		</layer>
		<layer id="265" name="3193319713508" type="Const" version="opset1">
			<data offset="1187936" size="4" shape="" element_type="f32"/>
			<output>
				<port id="0" precision="FP32"/>
			</output>
		</layer>
		<layer id="266" name="3194319813316" type="Const" version="opset1">
			<data offset="1447240" size="4" shape="" element_type="f32"/>
			<output>
				<port id="0" precision="FP32"/>
			</output>
		</layer>
		<layer id="267" name="2501250513388" type="Const" version="opset1">
			<data offset="1447244" size="4" shape="" element_type="f32"/>
			<output>
				<port id="0" precision="FP32"/>
			</output>
		</layer>
		<layer id="268" name="2502250612848" type="Const" version="opset1">
			<data offset="1447248" size="4" shape="" element_type="f32"/>
			<output>
				<port id="0" precision="FP32"/>
			</output>
		</layer>
		<layer id="269" name="2503250712404" type="Const" version="opset1">
			<data offset="1447244" size="4" shape="" element_type="f32"/>
			<output>
				<port id="0" precision="FP32"/>
			</output>
		</layer>
		<layer id="270" name="2504250814462" type="Const" version="opset1">
			<data offset="1447248" size="4" shape="" element_type="f32"/>
			<output>
				<port id="0" precision="FP32"/>
			</output>
		</layer>
		<layer id="271" name="Range_82974013289" type="Const" version="opset1">
			<data offset="1187880" size="16" shape="2" element_type="i64"/>
			<output>
				<port id="0" precision="I64">
					<dim>2</dim>
				</port>
			</output>
		</layer>
		<layer id="272" name="1921192512221" type="Const" version="opset1">
			<data offset="1447252" size="4" shape="" element_type="f32"/>
			<output>
				<port id="0" precision="FP32"/>
			</output>
		</layer>
		<layer id="273" name="1922192613013" type="Const" version="opset1">
			<data offset="1447256" size="4" shape="" element_type="f32"/>
			<output>
				<port id="0" precision="FP32"/>
			</output>
		</layer>
		<layer id="274" name="1923192712095" type="Const" version="opset1">
			<data offset="1447252" size="4" shape="" element_type="f32"/>
			<output>
				<port id="0" precision="FP32"/>
			</output>
		</layer>
		<layer id="275" name="1924192812047" type="Const" version="opset1">
			<data offset="1447256" size="4" shape="" element_type="f32"/>
			<output>
				<port id="0" precision="FP32"/>
			</output>
		</layer>
		<layer id="276" name="2831283514492" type="Const" version="opset1">
			<data offset="1447260" size="4" shape="" element_type="f32"/>
			<output>
				<port id="0" precision="FP32"/>
			</output>
		</layer>
		<layer id="277" name="2832283613595" type="Const" version="opset1">
			<data offset="1447264" size="4" shape="" element_type="f32"/>
			<output>
				<port id="0" precision="FP32"/>
			</output>
		</layer>
		<layer id="278" name="2833283712173" type="Const" version="opset1">
			<data offset="1447260" size="4" shape="" element_type="f32"/>
			<output>
				<port id="0" precision="FP32"/>
			</output>
		</layer>
		<layer id="279" name="2834283812611" type="Const" version="opset1">
			<data offset="1447264" size="4" shape="" element_type="f32"/>
			<output>
				<port id="0" precision="FP32"/>
			</output>
		</layer>
		<layer id="280" name="3511351512509" type="Const" version="opset1">
			<data offset="1447268" size="960" shape="1,240,1,1" element_type="f32"/>
			<output>
				<port id="0" precision="FP32">
					<dim>1</dim>
					<dim>240</dim>
					<dim>1</dim>
					<dim>1</dim>
				</port>
			</output>
		</layer>
		<layer id="281" name="3512351612839" type="Const" version="opset1">
			<data offset="1448228" size="960" shape="1,240,1,1" element_type="f32"/>
			<output>
				<port id="0" precision="FP32">
					<dim>1</dim>
					<dim>240</dim>
					<dim>1</dim>
					<dim>1</dim>
				</port>
			</output>
		</layer>
		<layer id="282" name="3513351713187" type="Const" version="opset1">
			<data offset="1447268" size="960" shape="1,240,1,1" element_type="f32"/>
			<output>
				<port id="0" precision="FP32">
					<dim>1</dim>
					<dim>240</dim>
					<dim>1</dim>
					<dim>1</dim>
				</port>
			</output>
		</layer>
		<layer id="283" name="3514351812869" type="Const" version="opset1">
			<data offset="1448228" size="960" shape="1,240,1,1" element_type="f32"/>
			<output>
				<port id="0" precision="FP32">
					<dim>1</dim>
					<dim>240</dim>
					<dim>1</dim>
					<dim>1</dim>
				</port>
			</output>
		</layer>
		<layer id="284" name="3041304513394" type="Const" version="opset1">
			<data offset="1449188" size="4" shape="" element_type="f32"/>
			<output>
				<port id="0" precision="FP32"/>
			</output>
		</layer>
		<layer id="285" name="3042304613733" type="Const" version="opset1">
			<data offset="1449192" size="4" shape="" element_type="f32"/>
			<output>
				<port id="0" precision="FP32"/>
			</output>
		</layer>
		<layer id="286" name="3043304711993" type="Const" version="opset1">
			<data offset="1449188" size="4" shape="" element_type="f32"/>
			<output>
				<port id="0" precision="FP32"/>
			</output>
		</layer>
		<layer id="287" name="3044304812896" type="Const" version="opset1">
			<data offset="1449192" size="4" shape="" element_type="f32"/>
			<output>
				<port id="0" precision="FP32"/>
			</output>
		</layer>
		<layer id="288" name="2401240512569" type="Const" version="opset1">
			<data offset="1449196" size="960" shape="240,1,1,1" element_type="f32"/>
			<output>
				<port id="0" precision="FP32">
					<dim>240</dim>
					<dim>1</dim>
					<dim>1</dim>
					<dim>1</dim>
				</port>
			</output>
		</layer>
		<layer id="289" name="2402240612119" type="Const" version="opset1">
			<data offset="1450156" size="960" shape="240,1,1,1" element_type="f32"/>
			<output>
				<port id="0" precision="FP32">
					<dim>240</dim>
					<dim>1</dim>
					<dim>1</dim>
					<dim>1</dim>
				</port>
			</output>
		</layer>
		<layer id="290" name="2403240712227" type="Const" version="opset1">
			<data offset="1449196" size="960" shape="240,1,1,1" element_type="f32"/>
			<output>
				<port id="0" precision="FP32">
					<dim>240</dim>
					<dim>1</dim>
					<dim>1</dim>
					<dim>1</dim>
				</port>
			</output>
		</layer>
		<layer id="291" name="2404240813742" type="Const" version="opset1">
			<data offset="1450156" size="960" shape="240,1,1,1" element_type="f32"/>
			<output>
				<port id="0" precision="FP32">
					<dim>240</dim>
					<dim>1</dim>
					<dim>1</dim>
					<dim>1</dim>
				</port>
			</output>
		</layer>
		<layer id="292" name="onnx::Conv_46671713064" type="Const" version="opset1">
			<data offset="1451116" size="19200" shape="240,40,1,1" element_type="f16"/>
			<output>
				<port id="0" precision="FP16">
					<dim>240</dim>
					<dim>40</dim>
					<dim>1</dim>
					<dim>1</dim>
				</port>
			</output>
		</layer>
		<layer id="293" name="onnx::Conv_4667178965/restored_convert" type="Convert" version="opset1">
			<data destination_type="f32"/>
			<rt_info>
				<attribute name="decompression" version="0"/>
			</rt_info>
			<input>
				<port id="0">
					<dim>240</dim>
					<dim>40</dim>
					<dim>1</dim>
					<dim>1</dim>
				</port>
			</input>
			<output>
				<port id="1" precision="FP32" names="onnx::Conv_466">
					<dim>240</dim>
					<dim>40</dim>
					<dim>1</dim>
					<dim>1</dim>
				</port>
			</output>
		</layer>
		<layer id="294" name="/features/features.6/block/block.0/block.0.0/Conv/WithoutBiases/fq_weights_1" type="FakeQuantize" version="opset1">
			<data levels="255" auto_broadcast="numpy"/>
			<input>
				<port id="0">
					<dim>240</dim>
					<dim>40</dim>
					<dim>1</dim>
					<dim>1</dim>
				</port>
				<port id="1">
					<dim>240</dim>
					<dim>1</dim>
					<dim>1</dim>
					<dim>1</dim>
				</port>
				<port id="2">
					<dim>240</dim>
					<dim>1</dim>
					<dim>1</dim>
					<dim>1</dim>
				</port>
				<port id="3">
					<dim>240</dim>
					<dim>1</dim>
					<dim>1</dim>
					<dim>1</dim>
				</port>
				<port id="4">
					<dim>240</dim>
					<dim>1</dim>
					<dim>1</dim>
					<dim>1</dim>
				</port>
			</input>
			<output>
				<port id="5" precision="FP32">
					<dim>240</dim>
					<dim>40</dim>
					<dim>1</dim>
					<dim>1</dim>
				</port>
			</output>
		</layer>
		<layer id="295" name="3591359512617" type="Const" version="opset1">
			<data offset="1470316" size="4" shape="" element_type="f32"/>
			<output>
				<port id="0" precision="FP32"/>
			</output>
		</layer>
		<layer id="296" name="3592359613535" type="Const" version="opset1">
			<data offset="1470320" size="4" shape="" element_type="f32"/>
			<output>
				<port id="0" precision="FP32"/>
			</output>
		</layer>
		<layer id="297" name="3593359712884" type="Const" version="opset1">
			<data offset="1470316" size="4" shape="" element_type="f32"/>
			<output>
				<port id="0" precision="FP32"/>
			</output>
		</layer>
		<layer id="298" name="3594359814381" type="Const" version="opset1">
			<data offset="1470320" size="4" shape="" element_type="f32"/>
			<output>
				<port id="0" precision="FP32"/>
			</output>
		</layer>
		<layer id="299" name="2941294512752" type="Const" version="opset1">
			<data offset="1470324" size="4" shape="" element_type="f32"/>
			<output>
				<port id="0" precision="FP32"/>
			</output>
		</layer>
		<layer id="300" name="2942294614099" type="Const" version="opset1">
			<data offset="1470328" size="4" shape="" element_type="f32"/>
			<output>
				<port id="0" precision="FP32"/>
			</output>
		</layer>
		<layer id="301" name="2943294713241" type="Const" version="opset1">
			<data offset="1470324" size="4" shape="" element_type="f32"/>
			<output>
				<port id="0" precision="FP32"/>
			</output>
		</layer>
		<layer id="302" name="2944294813826" type="Const" version="opset1">
			<data offset="1470328" size="4" shape="" element_type="f32"/>
			<output>
				<port id="0" precision="FP32"/>
			</output>
		</layer>
		<layer id="303" name="2241224512791" type="Const" version="opset1">
			<data offset="1470332" size="4" shape="" element_type="f32"/>
			<output>
				<port id="0" precision="FP32"/>
			</output>
		</layer>
		<layer id="304" name="2242224613628" type="Const" version="opset1">
			<data offset="1470336" size="4" shape="" element_type="f32"/>
			<output>
				<port id="0" precision="FP32"/>
			</output>
		</layer>
		<layer id="305" name="2243224712425" type="Const" version="opset1">
			<data offset="1470332" size="4" shape="" element_type="f32"/>
			<output>
				<port id="0" precision="FP32"/>
			</output>
		</layer>
		<layer id="306" name="2244224814264" type="Const" version="opset1">
			<data offset="1470336" size="4" shape="" element_type="f32"/>
			<output>
				<port id="0" precision="FP32"/>
			</output>
		</layer>
		<layer id="307" name="1961196514435" type="Const" version="opset1">
			<data offset="1187936" size="4" shape="" element_type="f32"/>
			<output>
				<port id="0" precision="FP32"/>
			</output>
		</layer>
		<layer id="308" name="1962196612737" type="Const" version="opset1">
			<data offset="1187940" size="4" shape="" element_type="f32"/>
			<output>
				<port id="0" precision="FP32"/>
			</output>
		</layer>
		<layer id="309" name="1963196713805" type="Const" version="opset1">
			<data offset="1187936" size="4" shape="" element_type="f32"/>
			<output>
				<port id="0" precision="FP32"/>
			</output>
		</layer>
		<layer id="310" name="1964196814405" type="Const" version="opset1">
			<data offset="1187940" size="4" shape="" element_type="f32"/>
			<output>
				<port id="0" precision="FP32"/>
			</output>
		</layer>
		<layer id="311" name="3311331513424" type="Const" version="opset1">
			<data offset="1187936" size="4" shape="" element_type="f32"/>
			<output>
				<port id="0" precision="FP32"/>
			</output>
		</layer>
		<layer id="312" name="3312331612641" type="Const" version="opset1">
			<data offset="1470340" size="4" shape="" element_type="f32"/>
			<output>
				<port id="0" precision="FP32"/>
			</output>
		</layer>
		<layer id="313" name="3313331712677" type="Const" version="opset1">
			<data offset="1187936" size="4" shape="" element_type="f32"/>
			<output>
				<port id="0" precision="FP32"/>
			</output>
		</layer>
		<layer id="314" name="3314331813835" type="Const" version="opset1">
			<data offset="1470340" size="4" shape="" element_type="f32"/>
			<output>
				<port id="0" precision="FP32"/>
			</output>
		</layer>
		<layer id="315" name="3351335513517" type="Const" version="opset1">
			<data offset="1470344" size="4" shape="" element_type="f32"/>
			<output>
				<port id="0" precision="FP32"/>
			</output>
		</layer>
		<layer id="316" name="3352335612803" type="Const" version="opset1">
			<data offset="1470348" size="4" shape="" element_type="f32"/>
			<output>
				<port id="0" precision="FP32"/>
			</output>
		</layer>
		<layer id="317" name="3353335714261" type="Const" version="opset1">
			<data offset="1470344" size="4" shape="" element_type="f32"/>
			<output>
				<port id="0" precision="FP32"/>
			</output>
		</layer>
		<layer id="318" name="3354335814318" type="Const" version="opset1">
			<data offset="1470348" size="4" shape="" element_type="f32"/>
			<output>
				<port id="0" precision="FP32"/>
			</output>
		</layer>
		<layer id="319" name="Range_68268813583" type="Const" version="opset1">
			<data offset="1187880" size="16" shape="2" element_type="i64"/>
			<output>
				<port id="0" precision="I64">
					<dim>2</dim>
				</port>
			</output>
		</layer>
		<layer id="320" name="2021202513688" type="Const" version="opset1">
			<data offset="1470352" size="4" shape="" element_type="f32"/>
			<output>
				<port id="0" precision="FP32"/>
			</output>
		</layer>
		<layer id="321" name="2022202613277" type="Const" version="opset1">
			<data offset="1470356" size="4" shape="" element_type="f32"/>
			<output>
				<port id="0" precision="FP32"/>
			</output>
		</layer>
		<layer id="322" name="2023202712371" type="Const" version="opset1">
			<data offset="1470352" size="4" shape="" element_type="f32"/>
			<output>
				<port id="0" precision="FP32"/>
			</output>
		</layer>
		<layer id="323" name="2024202813991" type="Const" version="opset1">
			<data offset="1470356" size="4" shape="" element_type="f32"/>
			<output>
				<port id="0" precision="FP32"/>
			</output>
		</layer>
		<layer id="324" name="2071207512785" type="Const" version="opset1">
			<data offset="1470360" size="4" shape="" element_type="f32"/>
			<output>
				<port id="0" precision="FP32"/>
			</output>
		</layer>
		<layer id="325" name="2072207613859" type="Const" version="opset1">
			<data offset="1470364" size="4" shape="" element_type="f32"/>
			<output>
				<port id="0" precision="FP32"/>
			</output>
		</layer>
		<layer id="326" name="2073207712155" type="Const" version="opset1">
			<data offset="1470360" size="4" shape="" element_type="f32"/>
			<output>
				<port id="0" precision="FP32"/>
			</output>
		</layer>
		<layer id="327" name="2074207812563" type="Const" version="opset1">
			<data offset="1470364" size="4" shape="" element_type="f32"/>
			<output>
				<port id="0" precision="FP32"/>
			</output>
		</layer>
		<layer id="328" name="2791279512341" type="Const" version="opset1">
			<data offset="1470368" size="960" shape="1,240,1,1" element_type="f32"/>
			<output>
				<port id="0" precision="FP32">
					<dim>1</dim>
					<dim>240</dim>
					<dim>1</dim>
					<dim>1</dim>
				</port>
			</output>
		</layer>
		<layer id="329" name="2792279613115" type="Const" version="opset1">
			<data offset="1471328" size="960" shape="1,240,1,1" element_type="f32"/>
			<output>
				<port id="0" precision="FP32">
					<dim>1</dim>
					<dim>240</dim>
					<dim>1</dim>
					<dim>1</dim>
				</port>
			</output>
		</layer>
		<layer id="330" name="2793279714387" type="Const" version="opset1">
			<data offset="1470368" size="960" shape="1,240,1,1" element_type="f32"/>
			<output>
				<port id="0" precision="FP32">
					<dim>1</dim>
					<dim>240</dim>
					<dim>1</dim>
					<dim>1</dim>
				</port>
			</output>
		</layer>
		<layer id="331" name="2794279813184" type="Const" version="opset1">
			<data offset="1471328" size="960" shape="1,240,1,1" element_type="f32"/>
			<output>
				<port id="0" precision="FP32">
					<dim>1</dim>
					<dim>240</dim>
					<dim>1</dim>
					<dim>1</dim>
				</port>
			</output>
		</layer>
		<layer id="332" name="3411341512518" type="Const" version="opset1">
			<data offset="1472288" size="4" shape="" element_type="f32"/>
			<output>
				<port id="0" precision="FP32"/>
			</output>
		</layer>
		<layer id="333" name="3412341613454" type="Const" version="opset1">
			<data offset="1472292" size="4" shape="" element_type="f32"/>
			<output>
				<port id="0" precision="FP32"/>
			</output>
		</layer>
		<layer id="334" name="3413341713100" type="Const" version="opset1">
			<data offset="1472288" size="4" shape="" element_type="f32"/>
			<output>
				<port id="0" precision="FP32"/>
			</output>
		</layer>
		<layer id="335" name="3414341812983" type="Const" version="opset1">
			<data offset="1472292" size="4" shape="" element_type="f32"/>
			<output>
				<port id="0" precision="FP32"/>
			</output>
		</layer>
		<layer id="336" name="2171217513604" type="Const" version="opset1">
			<data offset="1472296" size="960" shape="240,1,1,1" element_type="f32"/>
			<output>
				<port id="0" precision="FP32">
					<dim>240</dim>
					<dim>1</dim>
					<dim>1</dim>
					<dim>1</dim>
				</port>
			</output>
		</layer>
		<layer id="337" name="2172217612263" type="Const" version="opset1">
			<data offset="1473256" size="960" shape="240,1,1,1" element_type="f32"/>
			<output>
				<port id="0" precision="FP32">
					<dim>240</dim>
					<dim>1</dim>
					<dim>1</dim>
					<dim>1</dim>
				</port>
			</output>
		</layer>
		<layer id="338" name="2173217713937" type="Const" version="opset1">
			<data offset="1472296" size="960" shape="240,1,1,1" element_type="f32"/>
			<output>
				<port id="0" precision="FP32">
					<dim>240</dim>
					<dim>1</dim>
					<dim>1</dim>
					<dim>1</dim>
				</port>
			</output>
		</layer>
		<layer id="339" name="2174217812593" type="Const" version="opset1">
			<data offset="1473256" size="960" shape="240,1,1,1" element_type="f32"/>
			<output>
				<port id="0" precision="FP32">
					<dim>240</dim>
					<dim>1</dim>
					<dim>1</dim>
					<dim>1</dim>
				</port>
			</output>
		</layer>
		<layer id="340" name="onnx::Conv_45766512293" type="Const" version="opset1">
			<data offset="1474216" size="19200" shape="240,40,1,1" element_type="f16"/>
			<output>
				<port id="0" precision="FP16">
					<dim>240</dim>
					<dim>40</dim>
					<dim>1</dim>
					<dim>1</dim>
				</port>
			</output>
		</layer>
		<layer id="341" name="onnx::Conv_4576658948/restored_convert" type="Convert" version="opset1">
			<data destination_type="f32"/>
			<rt_info>
				<attribute name="decompression" version="0"/>
			</rt_info>
			<input>
				<port id="0">
					<dim>240</dim>
					<dim>40</dim>
					<dim>1</dim>
					<dim>1</dim>
				</port>
			</input>
			<output>
				<port id="1" precision="FP32" names="onnx::Conv_457">
					<dim>240</dim>
					<dim>40</dim>
					<dim>1</dim>
					<dim>1</dim>
				</port>
			</output>
		</layer>
		<layer id="342" name="/features/features.5/block/block.0/block.0.0/Conv/WithoutBiases/fq_weights_1" type="FakeQuantize" version="opset1">
			<data levels="255" auto_broadcast="numpy"/>
			<input>
				<port id="0">
					<dim>240</dim>
					<dim>40</dim>
					<dim>1</dim>
					<dim>1</dim>
				</port>
				<port id="1">
					<dim>240</dim>
					<dim>1</dim>
					<dim>1</dim>
					<dim>1</dim>
				</port>
				<port id="2">
					<dim>240</dim>
					<dim>1</dim>
					<dim>1</dim>
					<dim>1</dim>
				</port>
				<port id="3">
					<dim>240</dim>
					<dim>1</dim>
					<dim>1</dim>
					<dim>1</dim>
				</port>
				<port id="4">
					<dim>240</dim>
					<dim>1</dim>
					<dim>1</dim>
					<dim>1</dim>
				</port>
			</input>
			<output>
				<port id="5" precision="FP32">
					<dim>240</dim>
					<dim>40</dim>
					<dim>1</dim>
					<dim>1</dim>
				</port>
			</output>
		</layer>
		<layer id="343" name="2951295513709" type="Const" version="opset1">
			<data offset="1493416" size="4" shape="" element_type="f32"/>
			<output>
				<port id="0" precision="FP32"/>
			</output>
		</layer>
		<layer id="344" name="2952295612191" type="Const" version="opset1">
			<data offset="1493420" size="4" shape="" element_type="f32"/>
			<output>
				<port id="0" precision="FP32"/>
			</output>
		</layer>
		<layer id="345" name="2953295712296" type="Const" version="opset1">
			<data offset="1493416" size="4" shape="" element_type="f32"/>
			<output>
				<port id="0" precision="FP32"/>
			</output>
		</layer>
		<layer id="346" name="2954295812278" type="Const" version="opset1">
			<data offset="1493420" size="4" shape="" element_type="f32"/>
			<output>
				<port id="0" precision="FP32"/>
			</output>
		</layer>
		<layer id="347" name="2371237512845" type="Const" version="opset1">
			<data offset="1493424" size="4" shape="" element_type="f32"/>
			<output>
				<port id="0" precision="FP32"/>
			</output>
		</layer>
		<layer id="348" name="2372237613046" type="Const" version="opset1">
			<data offset="1493428" size="4" shape="" element_type="f32"/>
			<output>
				<port id="0" precision="FP32"/>
			</output>
		</layer>
		<layer id="349" name="2373237713154" type="Const" version="opset1">
			<data offset="1493424" size="4" shape="" element_type="f32"/>
			<output>
				<port id="0" precision="FP32"/>
			</output>
		</layer>
		<layer id="350" name="2374237813799" type="Const" version="opset1">
			<data offset="1493428" size="4" shape="" element_type="f32"/>
			<output>
				<port id="0" precision="FP32"/>
			</output>
		</layer>
		<layer id="351" name="2221222514162" type="Const" version="opset1">
			<data offset="1187936" size="4" shape="" element_type="f32"/>
			<output>
				<port id="0" precision="FP32"/>
			</output>
		</layer>
		<layer id="352" name="2222222613922" type="Const" version="opset1">
			<data offset="1493432" size="4" shape="" element_type="f32"/>
			<output>
				<port id="0" precision="FP32"/>
			</output>
		</layer>
		<layer id="353" name="2223222712008" type="Const" version="opset1">
			<data offset="1187936" size="4" shape="" element_type="f32"/>
			<output>
				<port id="0" precision="FP32"/>
			</output>
		</layer>
		<layer id="354" name="2224222812440" type="Const" version="opset1">
			<data offset="1493432" size="4" shape="" element_type="f32"/>
			<output>
				<port id="0" precision="FP32"/>
			</output>
		</layer>
		<layer id="355" name="2921292513718" type="Const" version="opset1">
			<data offset="1187936" size="4" shape="" element_type="f32"/>
			<output>
				<port id="0" precision="FP32"/>
			</output>
		</layer>
		<layer id="356" name="2922292613001" type="Const" version="opset1">
			<data offset="1493436" size="4" shape="" element_type="f32"/>
			<output>
				<port id="0" precision="FP32"/>
			</output>
		</layer>
		<layer id="357" name="2923292713007" type="Const" version="opset1">
			<data offset="1187936" size="4" shape="" element_type="f32"/>
			<output>
				<port id="0" precision="FP32"/>
			</output>
		</layer>
		<layer id="358" name="2924292812521" type="Const" version="opset1">
			<data offset="1493436" size="4" shape="" element_type="f32"/>
			<output>
				<port id="0" precision="FP32"/>
			</output>
		</layer>
		<layer id="359" name="2681268512491" type="Const" version="opset1">
			<data offset="1493440" size="4" shape="" element_type="f32"/>
			<output>
				<port id="0" precision="FP32"/>
			</output>
		</layer>
		<layer id="360" name="2682268612935" type="Const" version="opset1">
			<data offset="1493444" size="4" shape="" element_type="f32"/>
			<output>
				<port id="0" precision="FP32"/>
			</output>
		</layer>
		<layer id="361" name="2683268712662" type="Const" version="opset1">
			<data offset="1493440" size="4" shape="" element_type="f32"/>
			<output>
				<port id="0" precision="FP32"/>
			</output>
		</layer>
		<layer id="362" name="2684268814372" type="Const" version="opset1">
			<data offset="1493444" size="4" shape="" element_type="f32"/>
			<output>
				<port id="0" precision="FP32"/>
			</output>
		</layer>
		<layer id="363" name="Range_53664012926" type="Const" version="opset1">
			<data offset="1187880" size="16" shape="2" element_type="i64"/>
			<output>
				<port id="0" precision="I64">
					<dim>2</dim>
				</port>
			</output>
		</layer>
		<layer id="364" name="2361236514180" type="Const" version="opset1">
			<data offset="1493448" size="4" shape="" element_type="f32"/>
			<output>
				<port id="0" precision="FP32"/>
			</output>
		</layer>
		<layer id="365" name="2362236612479" type="Const" version="opset1">
			<data offset="1493452" size="4" shape="" element_type="f32"/>
			<output>
				<port id="0" precision="FP32"/>
			</output>
		</layer>
		<layer id="366" name="2363236714045" type="Const" version="opset1">
			<data offset="1493448" size="4" shape="" element_type="f32"/>
			<output>
				<port id="0" precision="FP32"/>
			</output>
		</layer>
		<layer id="367" name="2364236813370" type="Const" version="opset1">
			<data offset="1493452" size="4" shape="" element_type="f32"/>
			<output>
				<port id="0" precision="FP32"/>
			</output>
		</layer>
		<layer id="368" name="2001200512287" type="Const" version="opset1">
			<data offset="1493456" size="4" shape="" element_type="f32"/>
			<output>
				<port id="0" precision="FP32"/>
			</output>
		</layer>
		<layer id="369" name="2002200613190" type="Const" version="opset1">
			<data offset="1493460" size="4" shape="" element_type="f32"/>
			<output>
				<port id="0" precision="FP32"/>
			</output>
		</layer>
		<layer id="370" name="2003200714348" type="Const" version="opset1">
			<data offset="1493456" size="4" shape="" element_type="f32"/>
			<output>
				<port id="0" precision="FP32"/>
			</output>
		</layer>
		<layer id="371" name="2004200813022" type="Const" version="opset1">
			<data offset="1493460" size="4" shape="" element_type="f32"/>
			<output>
				<port id="0" precision="FP32"/>
			</output>
		</layer>
		<layer id="372" name="1761176512818" type="Const" version="opset1">
			<data offset="1493464" size="384" shape="1,96,1,1" element_type="f32"/>
			<output>
				<port id="0" precision="FP32">
					<dim>1</dim>
					<dim>96</dim>
					<dim>1</dim>
					<dim>1</dim>
				</port>
			</output>
		</layer>
		<layer id="373" name="1762176613307" type="Const" version="opset1">
			<data offset="1493848" size="384" shape="1,96,1,1" element_type="f32"/>
			<output>
				<port id="0" precision="FP32">
					<dim>1</dim>
					<dim>96</dim>
					<dim>1</dim>
					<dim>1</dim>
				</port>
			</output>
		</layer>
		<layer id="374" name="1763176712431" type="Const" version="opset1">
			<data offset="1493464" size="384" shape="1,96,1,1" element_type="f32"/>
			<output>
				<port id="0" precision="FP32">
					<dim>1</dim>
					<dim>96</dim>
					<dim>1</dim>
					<dim>1</dim>
				</port>
			</output>
		</layer>
		<layer id="375" name="1764176813103" type="Const" version="opset1">
			<data offset="1493848" size="384" shape="1,96,1,1" element_type="f32"/>
			<output>
				<port id="0" precision="FP32">
					<dim>1</dim>
					<dim>96</dim>
					<dim>1</dim>
					<dim>1</dim>
				</port>
			</output>
		</layer>
		<layer id="376" name="2261226512029" type="Const" version="opset1">
			<data offset="1494232" size="4" shape="" element_type="f32"/>
			<output>
				<port id="0" precision="FP32"/>
			</output>
		</layer>
		<layer id="377" name="2262226612602" type="Const" version="opset1">
			<data offset="1494236" size="4" shape="" element_type="f32"/>
			<output>
				<port id="0" precision="FP32"/>
			</output>
		</layer>
		<layer id="378" name="2263226714402" type="Const" version="opset1">
			<data offset="1494232" size="4" shape="" element_type="f32"/>
			<output>
				<port id="0" precision="FP32"/>
			</output>
		</layer>
		<layer id="379" name="2264226812821" type="Const" version="opset1">
			<data offset="1494236" size="4" shape="" element_type="f32"/>
			<output>
				<port id="0" precision="FP32"/>
			</output>
		</layer>
		<layer id="380" name="3471347512659" type="Const" version="opset1">
			<data offset="1494240" size="4" shape="" element_type="f32"/>
			<output>
				<port id="0" precision="FP32"/>
			</output>
		</layer>
		<layer id="381" name="3472347613625" type="Const" version="opset1">
			<data offset="1494244" size="4" shape="" element_type="f32"/>
			<output>
				<port id="0" precision="FP32"/>
			</output>
		</layer>
		<layer id="382" name="3473347712776" type="Const" version="opset1">
			<data offset="1494240" size="4" shape="" element_type="f32"/>
			<output>
				<port id="0" precision="FP32"/>
			</output>
		</layer>
		<layer id="383" name="3474347814459" type="Const" version="opset1">
			<data offset="1494244" size="4" shape="" element_type="f32"/>
			<output>
				<port id="0" precision="FP32"/>
			</output>
		</layer>
		<layer id="384" name="2031203513079" type="Const" version="opset1">
			<data offset="1494248" size="4" shape="" element_type="f32"/>
			<output>
				<port id="0" precision="FP32"/>
			</output>
		</layer>
		<layer id="385" name="2032203613199" type="Const" version="opset1">
			<data offset="1494252" size="4" shape="" element_type="f32"/>
			<output>
				<port id="0" precision="FP32"/>
			</output>
		</layer>
		<layer id="386" name="2033203714528" type="Const" version="opset1">
			<data offset="1494248" size="4" shape="" element_type="f32"/>
			<output>
				<port id="0" precision="FP32"/>
			</output>
		</layer>
		<layer id="387" name="2034203813403" type="Const" version="opset1">
			<data offset="1494252" size="4" shape="" element_type="f32"/>
			<output>
				<port id="0" precision="FP32"/>
			</output>
		</layer>
		<layer id="388" name="2901290513004" type="Const" version="opset1">
			<data offset="1187936" size="4" shape="" element_type="f32"/>
			<output>
				<port id="0" precision="FP32"/>
			</output>
		</layer>
		<layer id="389" name="2902290612467" type="Const" version="opset1">
			<data offset="1494256" size="4" shape="" element_type="f32"/>
			<output>
				<port id="0" precision="FP32"/>
			</output>
		</layer>
		<layer id="390" name="2903290712461" type="Const" version="opset1">
			<data offset="1187936" size="4" shape="" element_type="f32"/>
			<output>
				<port id="0" precision="FP32"/>
			</output>
		</layer>
		<layer id="391" name="2904290814270" type="Const" version="opset1">
			<data offset="1494256" size="4" shape="" element_type="f32"/>
			<output>
				<port id="0" precision="FP32"/>
			</output>
		</layer>
		<layer id="392" name="3021302513088" type="Const" version="opset1">
			<data offset="1494260" size="352" shape="1,88,1,1" element_type="f32"/>
			<output>
				<port id="0" precision="FP32">
					<dim>1</dim>
					<dim>88</dim>
					<dim>1</dim>
					<dim>1</dim>
				</port>
			</output>
		</layer>
		<layer id="393" name="3022302612482" type="Const" version="opset1">
			<data offset="1494612" size="352" shape="1,88,1,1" element_type="f32"/>
			<output>
				<port id="0" precision="FP32">
					<dim>1</dim>
					<dim>88</dim>
					<dim>1</dim>
					<dim>1</dim>
				</port>
			</output>
		</layer>
		<layer id="394" name="3023302712536" type="Const" version="opset1">
			<data offset="1494260" size="352" shape="1,88,1,1" element_type="f32"/>
			<output>
				<port id="0" precision="FP32">
					<dim>1</dim>
					<dim>88</dim>
					<dim>1</dim>
					<dim>1</dim>
				</port>
			</output>
		</layer>
		<layer id="395" name="3024302814327" type="Const" version="opset1">
			<data offset="1494612" size="352" shape="1,88,1,1" element_type="f32"/>
			<output>
				<port id="0" precision="FP32">
					<dim>1</dim>
					<dim>88</dim>
					<dim>1</dim>
					<dim>1</dim>
				</port>
			</output>
		</layer>
		<layer id="396" name="2591259512767" type="Const" version="opset1">
			<data offset="1494964" size="352" shape="88,1,1,1" element_type="f32"/>
			<output>
				<port id="0" precision="FP32">
					<dim>88</dim>
					<dim>1</dim>
					<dim>1</dim>
					<dim>1</dim>
				</port>
			</output>
		</layer>
		<layer id="397" name="2592259613094" type="Const" version="opset1">
			<data offset="1495316" size="352" shape="88,1,1,1" element_type="f32"/>
			<output>
				<port id="0" precision="FP32">
					<dim>88</dim>
					<dim>1</dim>
					<dim>1</dim>
					<dim>1</dim>
				</port>
			</output>
		</layer>
		<layer id="398" name="2593259712059" type="Const" version="opset1">
			<data offset="1494964" size="352" shape="88,1,1,1" element_type="f32"/>
			<output>
				<port id="0" precision="FP32">
					<dim>88</dim>
					<dim>1</dim>
					<dim>1</dim>
					<dim>1</dim>
				</port>
			</output>
		</layer>
		<layer id="399" name="2594259812377" type="Const" version="opset1">
			<data offset="1495316" size="352" shape="88,1,1,1" element_type="f32"/>
			<output>
				<port id="0" precision="FP32">
					<dim>88</dim>
					<dim>1</dim>
					<dim>1</dim>
					<dim>1</dim>
				</port>
			</output>
		</layer>
		<layer id="400" name="onnx::Conv_43959613493" type="Const" version="opset1">
			<data offset="1495668" size="4224" shape="88,24,1,1" element_type="f16"/>
			<output>
				<port id="0" precision="FP16">
					<dim>88</dim>
					<dim>24</dim>
					<dim>1</dim>
					<dim>1</dim>
				</port>
			</output>
		</layer>
		<layer id="401" name="onnx::Conv_4395968925/restored_convert" type="Convert" version="opset1">
			<data destination_type="f32"/>
			<rt_info>
				<attribute name="decompression" version="0"/>
			</rt_info>
			<input>
				<port id="0">
					<dim>88</dim>
					<dim>24</dim>
					<dim>1</dim>
					<dim>1</dim>
				</port>
			</input>
			<output>
				<port id="1" precision="FP32" names="onnx::Conv_439">
					<dim>88</dim>
					<dim>24</dim>
					<dim>1</dim>
					<dim>1</dim>
				</port>
			</output>
		</layer>
		<layer id="402" name="/features/features.3/block/block.0/block.0.0/Conv/WithoutBiases/fq_weights_1" type="FakeQuantize" version="opset1">
			<data levels="255" auto_broadcast="numpy"/>
			<input>
				<port id="0">
					<dim>88</dim>
					<dim>24</dim>
					<dim>1</dim>
					<dim>1</dim>
				</port>
				<port id="1">
					<dim>88</dim>
					<dim>1</dim>
					<dim>1</dim>
					<dim>1</dim>
				</port>
				<port id="2">
					<dim>88</dim>
					<dim>1</dim>
					<dim>1</dim>
					<dim>1</dim>
				</port>
				<port id="3">
					<dim>88</dim>
					<dim>1</dim>
					<dim>1</dim>
					<dim>1</dim>
				</port>
				<port id="4">
					<dim>88</dim>
					<dim>1</dim>
					<dim>1</dim>
					<dim>1</dim>
				</port>
			</input>
			<output>
				<port id="5" precision="FP32">
					<dim>88</dim>
					<dim>24</dim>
					<dim>1</dim>
					<dim>1</dim>
				</port>
			</output>
		</layer>
		<layer id="403" name="2041204512338" type="Const" version="opset1">
			<data offset="1499892" size="4" shape="" element_type="f32"/>
			<output>
				<port id="0" precision="FP32"/>
			</output>
		</layer>
		<layer id="404" name="2042204612596" type="Const" version="opset1">
			<data offset="1499896" size="4" shape="" element_type="f32"/>
			<output>
				<port id="0" precision="FP32"/>
			</output>
		</layer>
		<layer id="405" name="2043204712149" type="Const" version="opset1">
			<data offset="1499892" size="4" shape="" element_type="f32"/>
			<output>
				<port id="0" precision="FP32"/>
			</output>
		</layer>
		<layer id="406" name="2044204814549" type="Const" version="opset1">
			<data offset="1499896" size="4" shape="" element_type="f32"/>
			<output>
				<port id="0" precision="FP32"/>
			</output>
		</layer>
		<layer id="407" name="2661266512314" type="Const" version="opset1">
			<data offset="1187936" size="4" shape="" element_type="f32"/>
			<output>
				<port id="0" precision="FP32"/>
			</output>
		</layer>
		<layer id="408" name="2662266614516" type="Const" version="opset1">
			<data offset="1499900" size="4" shape="" element_type="f32"/>
			<output>
				<port id="0" precision="FP32"/>
			</output>
		</layer>
		<layer id="409" name="2663266712017" type="Const" version="opset1">
			<data offset="1187936" size="4" shape="" element_type="f32"/>
			<output>
				<port id="0" precision="FP32"/>
			</output>
		</layer>
		<layer id="410" name="2664266812104" type="Const" version="opset1">
			<data offset="1499900" size="4" shape="" element_type="f32"/>
			<output>
				<port id="0" precision="FP32"/>
			</output>
		</layer>
		<layer id="411" name="3151315513907" type="Const" version="opset1">
			<data offset="1499904" size="288" shape="1,72,1,1" element_type="f32"/>
			<output>
				<port id="0" precision="FP32">
					<dim>1</dim>
					<dim>72</dim>
					<dim>1</dim>
					<dim>1</dim>
				</port>
			</output>
		</layer>
		<layer id="412" name="3152315613580" type="Const" version="opset1">
			<data offset="1500192" size="288" shape="1,72,1,1" element_type="f32"/>
			<output>
				<port id="0" precision="FP32">
					<dim>1</dim>
					<dim>72</dim>
					<dim>1</dim>
					<dim>1</dim>
				</port>
			</output>
		</layer>
		<layer id="413" name="3153315714297" type="Const" version="opset1">
			<data offset="1499904" size="288" shape="1,72,1,1" element_type="f32"/>
			<output>
				<port id="0" precision="FP32">
					<dim>1</dim>
					<dim>72</dim>
					<dim>1</dim>
					<dim>1</dim>
				</port>
			</output>
		</layer>
		<layer id="414" name="3154315812242" type="Const" version="opset1">
			<data offset="1500192" size="288" shape="1,72,1,1" element_type="f32"/>
			<output>
				<port id="0" precision="FP32">
					<dim>1</dim>
					<dim>72</dim>
					<dim>1</dim>
					<dim>1</dim>
				</port>
			</output>
		</layer>
		<layer id="415" name="1781178514399" type="Const" version="opset1">
			<data offset="1500480" size="4" shape="" element_type="f32"/>
			<output>
				<port id="0" precision="FP32"/>
			</output>
		</layer>
		<layer id="416" name="1782178614084" type="Const" version="opset1">
			<data offset="1500484" size="4" shape="" element_type="f32"/>
			<output>
				<port id="0" precision="FP32"/>
			</output>
		</layer>
		<layer id="417" name="1783178713550" type="Const" version="opset1">
			<data offset="1500480" size="4" shape="" element_type="f32"/>
			<output>
				<port id="0" precision="FP32"/>
			</output>
		</layer>
		<layer id="418" name="1784178813214" type="Const" version="opset1">
			<data offset="1500484" size="4" shape="" element_type="f32"/>
			<output>
				<port id="0" precision="FP32"/>
			</output>
		</layer>
		<layer id="419" name="2121212513238" type="Const" version="opset1">
			<data offset="1187936" size="4" shape="" element_type="f32"/>
			<output>
				<port id="0" precision="FP32"/>
			</output>
		</layer>
		<layer id="420" name="2122212612719" type="Const" version="opset1">
			<data offset="1500488" size="4" shape="" element_type="f32"/>
			<output>
				<port id="0" precision="FP32"/>
			</output>
		</layer>
		<layer id="421" name="2123212713040" type="Const" version="opset1">
			<data offset="1187936" size="4" shape="" element_type="f32"/>
			<output>
				<port id="0" precision="FP32"/>
			</output>
		</layer>
		<layer id="422" name="2124212812182" type="Const" version="opset1">
			<data offset="1500488" size="4" shape="" element_type="f32"/>
			<output>
				<port id="0" precision="FP32"/>
			</output>
		</layer>
		<layer id="423" name="2541254514060" type="Const" version="opset1">
			<data offset="1187936" size="4" shape="" element_type="f32"/>
			<output>
				<port id="0" precision="FP32"/>
			</output>
		</layer>
		<layer id="424" name="2542254614021" type="Const" version="opset1">
			<data offset="1500492" size="4" shape="" element_type="f32"/>
			<output>
				<port id="0" precision="FP32"/>
			</output>
		</layer>
		<layer id="425" name="2543254713811" type="Const" version="opset1">
			<data offset="1187936" size="4" shape="" element_type="f32"/>
			<output>
				<port id="0" precision="FP32"/>
			</output>
		</layer>
		<layer id="426" name="2544254814339" type="Const" version="opset1">
			<data offset="1500492" size="4" shape="" element_type="f32"/>
			<output>
				<port id="0" precision="FP32"/>
			</output>
		</layer>
		<layer id="427" name="3001300513559" type="Const" version="opset1">
			<data offset="1187936" size="4" shape="" element_type="f32"/>
			<output>
				<port id="0" precision="FP32"/>
			</output>
		</layer>
		<layer id="428" name="3002300614483" type="Const" version="opset1">
			<data offset="1493436" size="4" shape="" element_type="f32"/>
			<output>
				<port id="0" precision="FP32"/>
			</output>
		</layer>
		<layer id="429" name="3003300713757" type="Const" version="opset1">
			<data offset="1187936" size="4" shape="" element_type="f32"/>
			<output>
				<port id="0" precision="FP32"/>
			</output>
		</layer>
		<layer id="430" name="3004300813964" type="Const" version="opset1">
			<data offset="1493436" size="4" shape="" element_type="f32"/>
			<output>
				<port id="0" precision="FP32"/>
			</output>
		</layer>
		<layer id="431" name="1821182514093" type="Const" version="opset1">
			<data offset="1187936" size="4" shape="" element_type="f32"/>
			<output>
				<port id="0" precision="FP32"/>
			</output>
		</layer>
		<layer id="432" name="1822182612944" type="Const" version="opset1">
			<data offset="1500496" size="4" shape="" element_type="f32"/>
			<output>
				<port id="0" precision="FP32"/>
			</output>
		</layer>
		<layer id="433" name="1823182713073" type="Const" version="opset1">
			<data offset="1187936" size="4" shape="" element_type="f32"/>
			<output>
				<port id="0" precision="FP32"/>
			</output>
		</layer>
		<layer id="434" name="1824182813052" type="Const" version="opset1">
			<data offset="1500496" size="4" shape="" element_type="f32"/>
			<output>
				<port id="0" precision="FP32"/>
			</output>
		</layer>
		<layer id="435" name="Range_19955114018" type="Const" version="opset1">
			<data offset="1187880" size="16" shape="2" element_type="i64"/>
			<output>
				<port id="0" precision="I64">
					<dim>2</dim>
				</port>
			</output>
		</layer>
		<layer id="436" name="2781278512245" type="Const" version="opset1">
			<data offset="1187936" size="4" shape="" element_type="f32"/>
			<output>
				<port id="0" precision="FP32"/>
			</output>
		</layer>
		<layer id="437" name="2782278612179" type="Const" version="opset1">
			<data offset="1500500" size="4" shape="" element_type="f32"/>
			<output>
				<port id="0" precision="FP32"/>
			</output>
		</layer>
		<layer id="438" name="2783278714378" type="Const" version="opset1">
			<data offset="1187936" size="4" shape="" element_type="f32"/>
			<output>
				<port id="0" precision="FP32"/>
			</output>
		</layer>
		<layer id="439" name="2784278812164" type="Const" version="opset1">
			<data offset="1500500" size="4" shape="" element_type="f32"/>
			<output>
				<port id="0" precision="FP32"/>
			</output>
		</layer>
		<layer id="440" name="2561256513247" type="Const" version="opset1">
			<data offset="1500504" size="64" shape="1,16,1,1" element_type="f32"/>
			<output>
				<port id="0" precision="FP32">
					<dim>1</dim>
					<dim>16</dim>
					<dim>1</dim>
					<dim>1</dim>
				</port>
			</output>
		</layer>
		<layer id="441" name="2562256612881" type="Const" version="opset1">
			<data offset="1500568" size="64" shape="1,16,1,1" element_type="f32"/>
			<output>
				<port id="0" precision="FP32">
					<dim>1</dim>
					<dim>16</dim>
					<dim>1</dim>
					<dim>1</dim>
				</port>
			</output>
		</layer>
		<layer id="442" name="2563256712584" type="Const" version="opset1">
			<data offset="1500504" size="64" shape="1,16,1,1" element_type="f32"/>
			<output>
				<port id="0" precision="FP32">
					<dim>1</dim>
					<dim>16</dim>
					<dim>1</dim>
					<dim>1</dim>
				</port>
			</output>
		</layer>
		<layer id="443" name="2564256813346" type="Const" version="opset1">
			<data offset="1500568" size="64" shape="1,16,1,1" element_type="f32"/>
			<output>
				<port id="0" precision="FP32">
					<dim>1</dim>
					<dim>16</dim>
					<dim>1</dim>
					<dim>1</dim>
				</port>
			</output>
		</layer>
		<layer id="444" name="3531353514408" type="Const" version="opset1">
			<data offset="1500632" size="4" shape="" element_type="f32"/>
			<output>
				<port id="0" precision="FP32"/>
			</output>
		</layer>
		<layer id="445" name="3532353612260" type="Const" version="opset1">
			<data offset="1500636" size="4" shape="" element_type="f32"/>
			<output>
				<port id="0" precision="FP32"/>
			</output>
		</layer>
		<layer id="446" name="3533353714114" type="Const" version="opset1">
			<data offset="1500632" size="4" shape="" element_type="f32"/>
			<output>
				<port id="0" precision="FP32"/>
			</output>
		</layer>
		<layer id="447" name="3534353814276" type="Const" version="opset1">
			<data offset="1500636" size="4" shape="" element_type="f32"/>
			<output>
				<port id="0" precision="FP32"/>
			</output>
		</layer>
		<layer id="449" name="/features/features.0/features.0.0/Conv/WithoutBiases/fq_input_0" type="FakeQuantize" version="opset1">
			<data levels="256" auto_broadcast="numpy"/>
			<input>
				<port id="0">
					<dim>1</dim>
					<dim>3</dim>
					<dim>224</dim>
					<dim>224</dim>
				</port>
				<port id="1"/>
				<port id="2"/>
				<port id="3"/>
				<port id="4"/>
			</input>
			<output>
				<port id="5" precision="FP32">
					<dim>1</dim>
					<dim>3</dim>
					<dim>224</dim>
					<dim>224</dim>
				</port>
			</output>
		</layer>
		<layer id="450" name="3541354514027" type="Const" version="opset1">
			<data offset="1500640" size="64" shape="16,1,1,1" element_type="f32"/>
			<output>
				<port id="0" precision="FP32">
					<dim>16</dim>
					<dim>1</dim>
					<dim>1</dim>
					<dim>1</dim>
				</port>
			</output>
		</layer>
		<layer id="451" name="3542354613577" type="Const" version="opset1">
			<data offset="1500704" size="64" shape="16,1,1,1" element_type="f32"/>
			<output>
				<port id="0" precision="FP32">
					<dim>16</dim>
					<dim>1</dim>
					<dim>1</dim>
					<dim>1</dim>
				</port>
			</output>
		</layer>
		<layer id="452" name="3543354714243" type="Const" version="opset1">
			<data offset="1500768" size="64" shape="16,1,1,1" element_type="f32"/>
			<output>
				<port id="0" precision="FP32">
					<dim>16</dim>
					<dim>1</dim>
					<dim>1</dim>
					<dim>1</dim>
				</port>
			</output>
		</layer>
		<layer id="453" name="3544354812875" type="Const" version="opset1">
			<data offset="1500832" size="64" shape="16,1,1,1" element_type="f32"/>
			<output>
				<port id="0" precision="FP32">
					<dim>16</dim>
					<dim>1</dim>
					<dim>1</dim>
					<dim>1</dim>
				</port>
			</output>
		</layer>
		<layer id="454" name="onnx::Conv_42153314036" type="Const" version="opset1">
			<data offset="1500896" size="864" shape="16,3,3,3" element_type="f16"/>
			<output>
				<port id="0" precision="FP16">
					<dim>16</dim>
					<dim>3</dim>
					<dim>3</dim>
					<dim>3</dim>
				</port>
			</output>
		</layer>
		<layer id="455" name="onnx::Conv_4215338904/restored_convert" type="Convert" version="opset1">
			<data destination_type="f32"/>
			<rt_info>
				<attribute name="decompression" version="0"/>
			</rt_info>
			<input>
				<port id="0">
					<dim>16</dim>
					<dim>3</dim>
					<dim>3</dim>
					<dim>3</dim>
				</port>
			</input>
			<output>
				<port id="1" precision="FP32" names="onnx::Conv_421">
					<dim>16</dim>
					<dim>3</dim>
					<dim>3</dim>
					<dim>3</dim>
				</port>
			</output>
		</layer>
		<layer id="456" name="/features/features.0/features.0.0/Conv/WithoutBiases/fq_weights_1" type="FakeQuantize" version="opset1">
			<data levels="255" auto_broadcast="numpy"/>
			<input>
				<port id="0">
					<dim>16</dim>
					<dim>3</dim>
					<dim>3</dim>
					<dim>3</dim>
				</port>
				<port id="1">
					<dim>16</dim>
					<dim>1</dim>
					<dim>1</dim>
					<dim>1</dim>
				</port>
				<port id="2">
					<dim>16</dim>
					<dim>1</dim>
					<dim>1</dim>
					<dim>1</dim>
				</port>
				<port id="3">
					<dim>16</dim>
					<dim>1</dim>
					<dim>1</dim>
					<dim>1</dim>
				</port>
				<port id="4">
					<dim>16</dim>
					<dim>1</dim>
					<dim>1</dim>
					<dim>1</dim>
				</port>
			</input>
			<output>
				<port id="5" precision="FP32">
					<dim>16</dim>
					<dim>3</dim>
					<dim>3</dim>
					<dim>3</dim>
				</port>
			</output>
		</layer>
		<layer id="457" name="/features/features.0/features.0.0/Conv/WithoutBiases" type="Convolution" version="opset1">
			<data auto_pad="explicit" strides="2,2" dilations="1,1" pads_begin="1,1" pads_end="1,1"/>
			<input>
				<port id="0">
					<dim>1</dim>
					<dim>3</dim>
					<dim>224</dim>
					<dim>224</dim>
				</port>
				<port id="1">
					<dim>16</dim>
					<dim>3</dim>
					<dim>3</dim>
					<dim>3</dim>
				</port>
			</input>
			<output>
				<port id="2" precision="FP32">
					<dim>1</dim>
					<dim>16</dim>
					<dim>112</dim>
					<dim>112</dim>
				</port>
			</output>
		</layer>
		<layer id="458" name="Reshape_12153612224" type="Const" version="opset1">
			<data offset="1501760" size="32" shape="1,16,1,1" element_type="f16"/>
			<output>
				<port id="0" precision="FP16">
					<dim>1</dim>
					<dim>16</dim>
					<dim>1</dim>
					<dim>1</dim>
				</port>
			</output>
		</layer>
		<layer id="459" name="Reshape_1215368905/restored_convert" type="Convert" version="opset1">
			<data destination_type="f32"/>
			<rt_info>
				<attribute name="decompression" version="0"/>
			</rt_info>
			<input>
				<port id="0">
					<dim>1</dim>
					<dim>16</dim>
					<dim>1</dim>
					<dim>1</dim>
				</port>
			</input>
			<output>
				<port id="1" precision="FP32">
					<dim>1</dim>
					<dim>16</dim>
					<dim>1</dim>
					<dim>1</dim>
				</port>
			</output>
		</layer>
		<layer id="460" name="/features/features.0/features.0.0/Conv" type="Add" version="opset1">
			<data auto_broadcast="numpy"/>
			<input>
				<port id="0">
					<dim>1</dim>
					<dim>16</dim>
					<dim>112</dim>
					<dim>112</dim>
				</port>
				<port id="1">
					<dim>1</dim>
					<dim>16</dim>
					<dim>1</dim>
					<dim>1</dim>
				</port>
			</input>
			<output>
				<port id="2" precision="FP32" names="/features/features.0/features.0.0/Conv_output_0">
					<dim>1</dim>
					<dim>16</dim>
					<dim>112</dim>
					<dim>112</dim>
				</port>
			</output>
		</layer>
		<layer id="461" name="Constant_12553914012" type="Const" version="opset1">
			<data offset="1501792" size="2" shape="" element_type="f16"/>
			<output>
				<port id="0" precision="FP16"/>
			</output>
		</layer>
		<layer id="462" name="Constant_1255398906/restored_convert" type="Convert" version="opset1">
			<data destination_type="f32"/>
			<rt_info>
				<attribute name="decompression" version="0"/>
			</rt_info>
			<input>
				<port id="0"/>
			</input>
			<output>
				<port id="1" precision="FP32"/>
			</output>
		</layer>
		<layer id="463" name="Constant_12654113274" type="Const" version="opset1">
			<data offset="1501794" size="2" shape="" element_type="f16"/>
			<output>
				<port id="0" precision="FP16"/>
			</output>
		</layer>
		<layer id="464" name="Constant_1265418907/restored_convert" type="Convert" version="opset1">
			<data destination_type="f32"/>
			<rt_info>
				<attribute name="decompression" version="0"/>
			</rt_info>
			<input>
				<port id="0"/>
			</input>
			<output>
				<port id="1" precision="FP32"/>
			</output>
		</layer>
		<layer id="465" name="/features/features.0/features.0.2/HardSigmoid" type="HardSigmoid" version="opset1">
			<input>
				<port id="0">
					<dim>1</dim>
					<dim>16</dim>
					<dim>112</dim>
					<dim>112</dim>
				</port>
				<port id="1"/>
				<port id="2"/>
			</input>
			<output>
				<port id="3" precision="FP32" names="/features/features.0/features.0.2/HardSigmoid_output_0">
					<dim>1</dim>
					<dim>16</dim>
					<dim>112</dim>
					<dim>112</dim>
				</port>
			</output>
		</layer>
		<layer id="466" name="/features/features.0/features.0.2/Mul" type="Multiply" version="opset1">
			<data auto_broadcast="numpy"/>
			<input>
				<port id="0">
					<dim>1</dim>
					<dim>16</dim>
					<dim>112</dim>
					<dim>112</dim>
				</port>
				<port id="1">
					<dim>1</dim>
					<dim>16</dim>
					<dim>112</dim>
					<dim>112</dim>
				</port>
			</input>
			<output>
				<port id="2" precision="FP32" names="/features/features.0/features.0.2/Mul_output_0">
					<dim>1</dim>
					<dim>16</dim>
					<dim>112</dim>
					<dim>112</dim>
				</port>
			</output>
		</layer>
		<layer id="467" name="/features/features.1/block/block.0/block.0.0/Conv/WithoutBiases/fq_input_0" type="FakeQuantize" version="opset1">
			<data levels="256" auto_broadcast="numpy"/>
			<input>
				<port id="0">
					<dim>1</dim>
					<dim>16</dim>
					<dim>112</dim>
					<dim>112</dim>
				</port>
				<port id="1">
					<dim>1</dim>
					<dim>16</dim>
					<dim>1</dim>
					<dim>1</dim>
				</port>
				<port id="2">
					<dim>1</dim>
					<dim>16</dim>
					<dim>1</dim>
					<dim>1</dim>
				</port>
				<port id="3">
					<dim>1</dim>
					<dim>16</dim>
					<dim>1</dim>
					<dim>1</dim>
				</port>
				<port id="4">
					<dim>1</dim>
					<dim>16</dim>
					<dim>1</dim>
					<dim>1</dim>
				</port>
			</input>
			<output>
				<port id="5" precision="FP32">
					<dim>1</dim>
					<dim>16</dim>
					<dim>112</dim>
					<dim>112</dim>
				</port>
			</output>
		</layer>
		<layer id="468" name="/features/features.1/block/block.0/block.0.0/Conv/WithoutBiases/weights_shape1008313028" type="Const" version="opset1">
			<data offset="1501796" size="40" shape="5" element_type="i64"/>
			<output>
				<port id="0" precision="I64">
					<dim>5</dim>
				</port>
			</output>
		</layer>
		<layer id="469" name="2571257513181" type="Const" version="opset1">
			<data offset="1501836" size="64" shape="16,1,1,1" element_type="f32"/>
			<output>
				<port id="0" precision="FP32">
					<dim>16</dim>
					<dim>1</dim>
					<dim>1</dim>
					<dim>1</dim>
				</port>
			</output>
		</layer>
		<layer id="470" name="2572257613916" type="Const" version="opset1">
			<data offset="1501900" size="64" shape="16,1,1,1" element_type="f32"/>
			<output>
				<port id="0" precision="FP32">
					<dim>16</dim>
					<dim>1</dim>
					<dim>1</dim>
					<dim>1</dim>
				</port>
			</output>
		</layer>
		<layer id="471" name="2573257713208" type="Const" version="opset1">
			<data offset="1501836" size="64" shape="16,1,1,1" element_type="f32"/>
			<output>
				<port id="0" precision="FP32">
					<dim>16</dim>
					<dim>1</dim>
					<dim>1</dim>
					<dim>1</dim>
				</port>
			</output>
		</layer>
		<layer id="472" name="2574257812668" type="Const" version="opset1">
			<data offset="1501900" size="64" shape="16,1,1,1" element_type="f32"/>
			<output>
				<port id="0" precision="FP32">
					<dim>16</dim>
					<dim>1</dim>
					<dim>1</dim>
					<dim>1</dim>
				</port>
			</output>
		</layer>
		<layer id="473" name="Reshape_13654513769" type="Const" version="opset1">
			<data offset="1501964" size="288" shape="16,1,3,3" element_type="f16"/>
			<output>
				<port id="0" precision="FP16">
					<dim>16</dim>
					<dim>1</dim>
					<dim>3</dim>
					<dim>3</dim>
				</port>
			</output>
		</layer>
		<layer id="474" name="Reshape_1365458908/restored_convert" type="Convert" version="opset1">
			<data destination_type="f32"/>
			<rt_info>
				<attribute name="decompression" version="0"/>
			</rt_info>
			<input>
				<port id="0">
					<dim>16</dim>
					<dim>1</dim>
					<dim>3</dim>
					<dim>3</dim>
				</port>
			</input>
			<output>
				<port id="1" precision="FP32">
					<dim>16</dim>
					<dim>1</dim>
					<dim>3</dim>
					<dim>3</dim>
				</port>
			</output>
		</layer>
		<layer id="475" name="/features/features.1/block/block.0/block.0.0/Conv/WithoutBiases/fq_weights_1" type="FakeQuantize" version="opset1">
			<data levels="255" auto_broadcast="numpy"/>
			<input>
				<port id="0">
					<dim>16</dim>
					<dim>1</dim>
					<dim>3</dim>
					<dim>3</dim>
				</port>
				<port id="1">
					<dim>16</dim>
					<dim>1</dim>
					<dim>1</dim>
					<dim>1</dim>
				</port>
				<port id="2">
					<dim>16</dim>
					<dim>1</dim>
					<dim>1</dim>
					<dim>1</dim>
				</port>
				<port id="3">
					<dim>16</dim>
					<dim>1</dim>
					<dim>1</dim>
					<dim>1</dim>
				</port>
				<port id="4">
					<dim>16</dim>
					<dim>1</dim>
					<dim>1</dim>
					<dim>1</dim>
				</port>
			</input>
			<output>
				<port id="5" precision="FP32">
					<dim>16</dim>
					<dim>1</dim>
					<dim>3</dim>
					<dim>3</dim>
				</port>
			</output>
		</layer>
		<layer id="476" name="10082" type="Reshape" version="opset1">
			<data special_zero="true"/>
			<input>
				<port id="0">
					<dim>16</dim>
					<dim>1</dim>
					<dim>3</dim>
					<dim>3</dim>
				</port>
				<port id="1">
					<dim>5</dim>
				</port>
			</input>
			<output>
				<port id="2" precision="FP32">
					<dim>16</dim>
					<dim>1</dim>
					<dim>1</dim>
					<dim>3</dim>
					<dim>3</dim>
				</port>
			</output>
		</layer>
		<layer id="477" name="/features/features.1/block/block.0/block.0.0/Conv/WithoutBiases" type="GroupConvolution" version="opset1">
			<data auto_pad="explicit" strides="2,2" dilations="1,1" pads_begin="1,1" pads_end="1,1"/>
			<input>
				<port id="0">
					<dim>1</dim>
					<dim>16</dim>
					<dim>112</dim>
					<dim>112</dim>
				</port>
				<port id="1">
					<dim>16</dim>
					<dim>1</dim>
					<dim>1</dim>
					<dim>3</dim>
					<dim>3</dim>
				</port>
			</input>
			<output>
				<port id="2" precision="FP32">
					<dim>1</dim>
					<dim>16</dim>
					<dim>56</dim>
					<dim>56</dim>
				</port>
			</output>
		</layer>
		<layer id="478" name="Reshape_18854814252" type="Const" version="opset1">
			<data offset="1502252" size="32" shape="1,16,1,1" element_type="f16"/>
			<output>
				<port id="0" precision="FP16">
					<dim>1</dim>
					<dim>16</dim>
					<dim>1</dim>
					<dim>1</dim>
				</port>
			</output>
		</layer>
		<layer id="479" name="Reshape_1885488909/restored_convert" type="Convert" version="opset1">
			<data destination_type="f32"/>
			<rt_info>
				<attribute name="decompression" version="0"/>
			</rt_info>
			<input>
				<port id="0">
					<dim>1</dim>
					<dim>16</dim>
					<dim>1</dim>
					<dim>1</dim>
				</port>
			</input>
			<output>
				<port id="1" precision="FP32">
					<dim>1</dim>
					<dim>16</dim>
					<dim>1</dim>
					<dim>1</dim>
				</port>
			</output>
		</layer>
		<layer id="480" name="/features/features.1/block/block.0/block.0.0/Conv" type="Add" version="opset1">
			<data auto_broadcast="numpy"/>
			<input>
				<port id="0">
					<dim>1</dim>
					<dim>16</dim>
					<dim>56</dim>
					<dim>56</dim>
				</port>
				<port id="1">
					<dim>1</dim>
					<dim>16</dim>
					<dim>1</dim>
					<dim>1</dim>
				</port>
			</input>
			<output>
				<port id="2" precision="FP32" names="/features/features.1/block/block.0/block.0.0/Conv_output_0">
					<dim>1</dim>
					<dim>16</dim>
					<dim>56</dim>
					<dim>56</dim>
				</port>
			</output>
		</layer>
		<layer id="481" name="/features/features.1/block/block.0/block.0.2/Relu" type="ReLU" version="opset1">
			<input>
				<port id="0">
					<dim>1</dim>
					<dim>16</dim>
					<dim>56</dim>
					<dim>56</dim>
				</port>
			</input>
			<output>
				<port id="1" precision="FP32" names="/features/features.1/block/block.0/block.0.2/Relu_output_0">
					<dim>1</dim>
					<dim>16</dim>
					<dim>56</dim>
					<dim>56</dim>
				</port>
			</output>
		</layer>
		<layer id="482" name="/features/features.1/block/block.1/GlobalAveragePool/fq_input_0" type="FakeQuantize" version="opset1">
			<data levels="256" auto_broadcast="numpy"/>
			<input>
				<port id="0">
					<dim>1</dim>
					<dim>16</dim>
					<dim>56</dim>
					<dim>56</dim>
				</port>
				<port id="1"/>
				<port id="2"/>
				<port id="3"/>
				<port id="4"/>
			</input>
			<output>
				<port id="5" precision="FP32">
					<dim>1</dim>
					<dim>16</dim>
					<dim>56</dim>
					<dim>56</dim>
				</port>
			</output>
		</layer>
		<layer id="483" name="/features/features.1/block/block.1/GlobalAveragePool" type="ReduceMean" version="opset1">
			<data keep_dims="true"/>
			<input>
				<port id="0">
					<dim>1</dim>
					<dim>16</dim>
					<dim>56</dim>
					<dim>56</dim>
				</port>
				<port id="1">
					<dim>2</dim>
				</port>
			</input>
			<output>
				<port id="2" precision="FP32" names="/features/features.1/block/block.1/GlobalAveragePool_output_0">
					<dim>1</dim>
					<dim>16</dim>
					<dim>1</dim>
					<dim>1</dim>
				</port>
			</output>
		</layer>
		<layer id="484" name="/features/features.1/block/block.1/fc1/Conv/WithoutBiases/fq_input_0" type="FakeQuantize" version="opset1">
			<data levels="256" auto_broadcast="numpy"/>
			<input>
				<port id="0">
					<dim>1</dim>
					<dim>16</dim>
					<dim>1</dim>
					<dim>1</dim>
				</port>
				<port id="1"/>
				<port id="2"/>
				<port id="3"/>
				<port id="4"/>
			</input>
			<output>
				<port id="5" precision="FP32">
					<dim>1</dim>
					<dim>16</dim>
					<dim>1</dim>
					<dim>1</dim>
				</port>
			</output>
		</layer>
		<layer id="485" name="1831183514426" type="Const" version="opset1">
			<data offset="1502284" size="32" shape="8,1,1,1" element_type="f32"/>
			<output>
				<port id="0" precision="FP32">
					<dim>8</dim>
					<dim>1</dim>
					<dim>1</dim>
					<dim>1</dim>
				</port>
			</output>
		</layer>
		<layer id="486" name="1832183612689" type="Const" version="opset1">
			<data offset="1502316" size="32" shape="8,1,1,1" element_type="f32"/>
			<output>
				<port id="0" precision="FP32">
					<dim>8</dim>
					<dim>1</dim>
					<dim>1</dim>
					<dim>1</dim>
				</port>
			</output>
		</layer>
		<layer id="487" name="1833183714465" type="Const" version="opset1">
			<data offset="1502284" size="32" shape="8,1,1,1" element_type="f32"/>
			<output>
				<port id="0" precision="FP32">
					<dim>8</dim>
					<dim>1</dim>
					<dim>1</dim>
					<dim>1</dim>
				</port>
			</output>
		</layer>
		<layer id="488" name="1834183812410" type="Const" version="opset1">
			<data offset="1502316" size="32" shape="8,1,1,1" element_type="f32"/>
			<output>
				<port id="0" precision="FP32">
					<dim>8</dim>
					<dim>1</dim>
					<dim>1</dim>
					<dim>1</dim>
				</port>
			</output>
		</layer>
		<layer id="489" name="features.1.block.1.fc1.weight55312200" type="Const" version="opset1">
			<data offset="1502348" size="512" shape="8,16,1,1" element_type="f32"/>
			<output>
				<port id="0" precision="FP32" names="features.1.block.1.fc1.weight">
					<dim>8</dim>
					<dim>16</dim>
					<dim>1</dim>
					<dim>1</dim>
				</port>
			</output>
		</layer>
		<layer id="490" name="/features/features.1/block/block.1/fc1/Conv/WithoutBiases/fq_weights_1" type="FakeQuantize" version="opset1">
			<data levels="255" auto_broadcast="numpy"/>
			<input>
				<port id="0">
					<dim>8</dim>
					<dim>16</dim>
					<dim>1</dim>
					<dim>1</dim>
				</port>
				<port id="1">
					<dim>8</dim>
					<dim>1</dim>
					<dim>1</dim>
					<dim>1</dim>
				</port>
				<port id="2">
					<dim>8</dim>
					<dim>1</dim>
					<dim>1</dim>
					<dim>1</dim>
				</port>
				<port id="3">
					<dim>8</dim>
					<dim>1</dim>
					<dim>1</dim>
					<dim>1</dim>
				</port>
				<port id="4">
					<dim>8</dim>
					<dim>1</dim>
					<dim>1</dim>
					<dim>1</dim>
				</port>
			</input>
			<output>
				<port id="5" precision="FP32">
					<dim>8</dim>
					<dim>16</dim>
					<dim>1</dim>
					<dim>1</dim>
				</port>
			</output>
		</layer>
		<layer id="491" name="/features/features.1/block/block.1/fc1/Conv/WithoutBiases" type="Convolution" version="opset1">
			<data auto_pad="explicit" strides="1,1" dilations="1,1" pads_begin="0,0" pads_end="0,0"/>
			<input>
				<port id="0">
					<dim>1</dim>
					<dim>16</dim>
					<dim>1</dim>
					<dim>1</dim>
				</port>
				<port id="1">
					<dim>8</dim>
					<dim>16</dim>
					<dim>1</dim>
					<dim>1</dim>
				</port>
			</input>
			<output>
				<port id="2" precision="FP32">
					<dim>1</dim>
					<dim>8</dim>
					<dim>1</dim>
					<dim>1</dim>
				</port>
			</output>
		</layer>
		<layer id="492" name="Reshape_21455514453" type="Const" version="opset1">
			<data offset="1502860" size="32" shape="1,8,1,1" element_type="f32"/>
			<output>
				<port id="0" precision="FP32">
					<dim>1</dim>
					<dim>8</dim>
					<dim>1</dim>
					<dim>1</dim>
				</port>
			</output>
		</layer>
		<layer id="493" name="/features/features.1/block/block.1/fc1/Conv" type="Add" version="opset1">
			<data auto_broadcast="numpy"/>
			<input>
				<port id="0">
					<dim>1</dim>
					<dim>8</dim>
					<dim>1</dim>
					<dim>1</dim>
				</port>
				<port id="1">
					<dim>1</dim>
					<dim>8</dim>
					<dim>1</dim>
					<dim>1</dim>
				</port>
			</input>
			<output>
				<port id="2" precision="FP32" names="/features/features.1/block/block.1/fc1/Conv_output_0">
					<dim>1</dim>
					<dim>8</dim>
					<dim>1</dim>
					<dim>1</dim>
				</port>
			</output>
		</layer>
		<layer id="494" name="/features/features.1/block/block.1/Relu" type="ReLU" version="opset1">
			<input>
				<port id="0">
					<dim>1</dim>
					<dim>8</dim>
					<dim>1</dim>
					<dim>1</dim>
				</port>
			</input>
			<output>
				<port id="1" precision="FP32" names="/features/features.1/block/block.1/Relu_output_0">
					<dim>1</dim>
					<dim>8</dim>
					<dim>1</dim>
					<dim>1</dim>
				</port>
			</output>
		</layer>
		<layer id="495" name="/features/features.1/block/block.1/fc2/Conv/WithoutBiases/fq_input_0" type="FakeQuantize" version="opset1">
			<data levels="256" auto_broadcast="numpy"/>
			<input>
				<port id="0">
					<dim>1</dim>
					<dim>8</dim>
					<dim>1</dim>
					<dim>1</dim>
				</port>
				<port id="1"/>
				<port id="2"/>
				<port id="3"/>
				<port id="4"/>
			</input>
			<output>
				<port id="5" precision="FP32">
					<dim>1</dim>
					<dim>8</dim>
					<dim>1</dim>
					<dim>1</dim>
				</port>
			</output>
		</layer>
		<layer id="496" name="3011301513169" type="Const" version="opset1">
			<data offset="1502892" size="64" shape="16,1,1,1" element_type="f32"/>
			<output>
				<port id="0" precision="FP32">
					<dim>16</dim>
					<dim>1</dim>
					<dim>1</dim>
					<dim>1</dim>
				</port>
			</output>
		</layer>
		<layer id="497" name="3012301612185" type="Const" version="opset1">
			<data offset="1502956" size="64" shape="16,1,1,1" element_type="f32"/>
			<output>
				<port id="0" precision="FP32">
					<dim>16</dim>
					<dim>1</dim>
					<dim>1</dim>
					<dim>1</dim>
				</port>
			</output>
		</layer>
		<layer id="498" name="3013301712968" type="Const" version="opset1">
			<data offset="1502892" size="64" shape="16,1,1,1" element_type="f32"/>
			<output>
				<port id="0" precision="FP32">
					<dim>16</dim>
					<dim>1</dim>
					<dim>1</dim>
					<dim>1</dim>
				</port>
			</output>
		</layer>
		<layer id="499" name="3014301813415" type="Const" version="opset1">
			<data offset="1502956" size="64" shape="16,1,1,1" element_type="f32"/>
			<output>
				<port id="0" precision="FP32">
					<dim>16</dim>
					<dim>1</dim>
					<dim>1</dim>
					<dim>1</dim>
				</port>
			</output>
		</layer>
		<layer id="500" name="features.1.block.1.fc2.weight55812902" type="Const" version="opset1">
			<data offset="1503020" size="512" shape="16,8,1,1" element_type="f32"/>
			<output>
				<port id="0" precision="FP32" names="features.1.block.1.fc2.weight">
					<dim>16</dim>
					<dim>8</dim>
					<dim>1</dim>
					<dim>1</dim>
				</port>
			</output>
		</layer>
		<layer id="501" name="/features/features.1/block/block.1/fc2/Conv/WithoutBiases/fq_weights_1" type="FakeQuantize" version="opset1">
			<data levels="255" auto_broadcast="numpy"/>
			<input>
				<port id="0">
					<dim>16</dim>
					<dim>8</dim>
					<dim>1</dim>
					<dim>1</dim>
				</port>
				<port id="1">
					<dim>16</dim>
					<dim>1</dim>
					<dim>1</dim>
					<dim>1</dim>
				</port>
				<port id="2">
					<dim>16</dim>
					<dim>1</dim>
					<dim>1</dim>
					<dim>1</dim>
				</port>
				<port id="3">
					<dim>16</dim>
					<dim>1</dim>
					<dim>1</dim>
					<dim>1</dim>
				</port>
				<port id="4">
					<dim>16</dim>
					<dim>1</dim>
					<dim>1</dim>
					<dim>1</dim>
				</port>
			</input>
			<output>
				<port id="5" precision="FP32">
					<dim>16</dim>
					<dim>8</dim>
					<dim>1</dim>
					<dim>1</dim>
				</port>
			</output>
		</layer>
		<layer id="502" name="/features/features.1/block/block.1/fc2/Conv/WithoutBiases" type="Convolution" version="opset1">
			<data auto_pad="explicit" strides="1,1" dilations="1,1" pads_begin="0,0" pads_end="0,0"/>
			<input>
				<port id="0">
					<dim>1</dim>
					<dim>8</dim>
					<dim>1</dim>
					<dim>1</dim>
				</port>
				<port id="1">
					<dim>16</dim>
					<dim>8</dim>
					<dim>1</dim>
					<dim>1</dim>
				</port>
			</input>
			<output>
				<port id="2" precision="FP32">
					<dim>1</dim>
					<dim>16</dim>
					<dim>1</dim>
					<dim>1</dim>
				</port>
			</output>
		</layer>
		<layer id="503" name="Reshape_23056112854" type="Const" version="opset1">
			<data offset="1503532" size="32" shape="1,16,1,1" element_type="f16"/>
			<output>
				<port id="0" precision="FP16">
					<dim>1</dim>
					<dim>16</dim>
					<dim>1</dim>
					<dim>1</dim>
				</port>
			</output>
		</layer>
		<layer id="504" name="Reshape_2305618914/restored_convert" type="Convert" version="opset1">
			<data destination_type="f32"/>
			<rt_info>
				<attribute name="decompression" version="0"/>
			</rt_info>
			<input>
				<port id="0">
					<dim>1</dim>
					<dim>16</dim>
					<dim>1</dim>
					<dim>1</dim>
				</port>
			</input>
			<output>
				<port id="1" precision="FP32">
					<dim>1</dim>
					<dim>16</dim>
					<dim>1</dim>
					<dim>1</dim>
				</port>
			</output>
		</layer>
		<layer id="505" name="/features/features.1/block/block.1/fc2/Conv" type="Add" version="opset1">
			<data auto_broadcast="numpy"/>
			<input>
				<port id="0">
					<dim>1</dim>
					<dim>16</dim>
					<dim>1</dim>
					<dim>1</dim>
				</port>
				<port id="1">
					<dim>1</dim>
					<dim>16</dim>
					<dim>1</dim>
					<dim>1</dim>
				</port>
			</input>
			<output>
				<port id="2" precision="FP32" names="/features/features.1/block/block.1/fc2/Conv_output_0">
					<dim>1</dim>
					<dim>16</dim>
					<dim>1</dim>
					<dim>1</dim>
				</port>
			</output>
		</layer>
		<layer id="506" name="Constant_23456412995" type="Const" version="opset1">
			<data offset="1501792" size="2" shape="" element_type="f16"/>
			<output>
				<port id="0" precision="FP16"/>
			</output>
		</layer>
		<layer id="507" name="Constant_2345648915/restored_convert" type="Convert" version="opset1">
			<data destination_type="f32"/>
			<rt_info>
				<attribute name="decompression" version="0"/>
			</rt_info>
			<input>
				<port id="0"/>
			</input>
			<output>
				<port id="1" precision="FP32"/>
			</output>
		</layer>
		<layer id="508" name="Constant_23556612977" type="Const" version="opset1">
			<data offset="1501794" size="2" shape="" element_type="f16"/>
			<output>
				<port id="0" precision="FP16"/>
			</output>
		</layer>
		<layer id="509" name="Constant_2355668916/restored_convert" type="Convert" version="opset1">
			<data destination_type="f32"/>
			<rt_info>
				<attribute name="decompression" version="0"/>
			</rt_info>
			<input>
				<port id="0"/>
			</input>
			<output>
				<port id="1" precision="FP32"/>
			</output>
		</layer>
		<layer id="510" name="/features/features.1/block/block.1/HardSigmoid" type="HardSigmoid" version="opset1">
			<input>
				<port id="0">
					<dim>1</dim>
					<dim>16</dim>
					<dim>1</dim>
					<dim>1</dim>
				</port>
				<port id="1"/>
				<port id="2"/>
			</input>
			<output>
				<port id="3" precision="FP32" names="/features/features.1/block/block.1/HardSigmoid_output_0">
					<dim>1</dim>
					<dim>16</dim>
					<dim>1</dim>
					<dim>1</dim>
				</port>
			</output>
		</layer>
		<layer id="511" name="/features/features.1/block/block.1/Mul/fq_input_0" type="FakeQuantize" version="opset1">
			<data levels="256" auto_broadcast="numpy"/>
			<input>
				<port id="0">
					<dim>1</dim>
					<dim>16</dim>
					<dim>1</dim>
					<dim>1</dim>
				</port>
				<port id="1"/>
				<port id="2"/>
				<port id="3"/>
				<port id="4"/>
			</input>
			<output>
				<port id="5" precision="FP32">
					<dim>1</dim>
					<dim>16</dim>
					<dim>1</dim>
					<dim>1</dim>
				</port>
			</output>
		</layer>
		<layer id="512" name="/features/features.1/block/block.1/Mul" type="Multiply" version="opset1">
			<data auto_broadcast="numpy"/>
			<input>
				<port id="0">
					<dim>1</dim>
					<dim>16</dim>
					<dim>1</dim>
					<dim>1</dim>
				</port>
				<port id="1">
					<dim>1</dim>
					<dim>16</dim>
					<dim>56</dim>
					<dim>56</dim>
				</port>
			</input>
			<output>
				<port id="2" precision="FP32" names="/features/features.1/block/block.1/Mul_output_0">
					<dim>1</dim>
					<dim>16</dim>
					<dim>56</dim>
					<dim>56</dim>
				</port>
			</output>
		</layer>
		<layer id="513" name="/features/features.1/block/block.2/block.2.0/Conv/WithoutBiases/fq_input_0" type="FakeQuantize" version="opset1">
			<data levels="256" auto_broadcast="numpy"/>
			<input>
				<port id="0">
					<dim>1</dim>
					<dim>16</dim>
					<dim>56</dim>
					<dim>56</dim>
				</port>
				<port id="1"/>
				<port id="2"/>
				<port id="3"/>
				<port id="4"/>
			</input>
			<output>
				<port id="5" precision="FP32">
					<dim>1</dim>
					<dim>16</dim>
					<dim>56</dim>
					<dim>56</dim>
				</port>
			</output>
		</layer>
		<layer id="514" name="2131213514234" type="Const" version="opset1">
			<data offset="1503564" size="64" shape="16,1,1,1" element_type="f32"/>
			<output>
				<port id="0" precision="FP32">
					<dim>16</dim>
					<dim>1</dim>
					<dim>1</dim>
					<dim>1</dim>
				</port>
			</output>
		</layer>
		<layer id="515" name="2132213613682" type="Const" version="opset1">
			<data offset="1503628" size="64" shape="16,1,1,1" element_type="f32"/>
			<output>
				<port id="0" precision="FP32">
					<dim>16</dim>
					<dim>1</dim>
					<dim>1</dim>
					<dim>1</dim>
				</port>
			</output>
		</layer>
		<layer id="516" name="2133213713058" type="Const" version="opset1">
			<data offset="1503564" size="64" shape="16,1,1,1" element_type="f32"/>
			<output>
				<port id="0" precision="FP32">
					<dim>16</dim>
					<dim>1</dim>
					<dim>1</dim>
					<dim>1</dim>
				</port>
			</output>
		</layer>
		<layer id="517" name="2134213814414" type="Const" version="opset1">
			<data offset="1503628" size="64" shape="16,1,1,1" element_type="f32"/>
			<output>
				<port id="0" precision="FP32">
					<dim>16</dim>
					<dim>1</dim>
					<dim>1</dim>
					<dim>1</dim>
				</port>
			</output>
		</layer>
		<layer id="518" name="onnx::Conv_42757013439" type="Const" version="opset1">
			<data offset="1503692" size="512" shape="16,16,1,1" element_type="f16"/>
			<output>
				<port id="0" precision="FP16">
					<dim>16</dim>
					<dim>16</dim>
					<dim>1</dim>
					<dim>1</dim>
				</port>
			</output>
		</layer>
		<layer id="519" name="onnx::Conv_4275708917/restored_convert" type="Convert" version="opset1">
			<data destination_type="f32"/>
			<rt_info>
				<attribute name="decompression" version="0"/>
			</rt_info>
			<input>
				<port id="0">
					<dim>16</dim>
					<dim>16</dim>
					<dim>1</dim>
					<dim>1</dim>
				</port>
			</input>
			<output>
				<port id="1" precision="FP32" names="onnx::Conv_427">
					<dim>16</dim>
					<dim>16</dim>
					<dim>1</dim>
					<dim>1</dim>
				</port>
			</output>
		</layer>
		<layer id="520" name="/features/features.1/block/block.2/block.2.0/Conv/WithoutBiases/fq_weights_1" type="FakeQuantize" version="opset1">
			<data levels="255" auto_broadcast="numpy"/>
			<input>
				<port id="0">
					<dim>16</dim>
					<dim>16</dim>
					<dim>1</dim>
					<dim>1</dim>
				</port>
				<port id="1">
					<dim>16</dim>
					<dim>1</dim>
					<dim>1</dim>
					<dim>1</dim>
				</port>
				<port id="2">
					<dim>16</dim>
					<dim>1</dim>
					<dim>1</dim>
					<dim>1</dim>
				</port>
				<port id="3">
					<dim>16</dim>
					<dim>1</dim>
					<dim>1</dim>
					<dim>1</dim>
				</port>
				<port id="4">
					<dim>16</dim>
					<dim>1</dim>
					<dim>1</dim>
					<dim>1</dim>
				</port>
			</input>
			<output>
				<port id="5" precision="FP32">
					<dim>16</dim>
					<dim>16</dim>
					<dim>1</dim>
					<dim>1</dim>
				</port>
			</output>
		</layer>
		<layer id="521" name="/features/features.1/block/block.2/block.2.0/Conv/WithoutBiases" type="Convolution" version="opset1">
			<data auto_pad="explicit" strides="1,1" dilations="1,1" pads_begin="0,0" pads_end="0,0"/>
			<input>
				<port id="0">
					<dim>1</dim>
					<dim>16</dim>
					<dim>56</dim>
					<dim>56</dim>
				</port>
				<port id="1">
					<dim>16</dim>
					<dim>16</dim>
					<dim>1</dim>
					<dim>1</dim>
				</port>
			</input>
			<output>
				<port id="2" precision="FP32">
					<dim>1</dim>
					<dim>16</dim>
					<dim>56</dim>
					<dim>56</dim>
				</port>
			</output>
		</layer>
		<layer id="522" name="Reshape_24957313736" type="Const" version="opset1">
			<data offset="1504204" size="32" shape="1,16,1,1" element_type="f16"/>
			<output>
				<port id="0" precision="FP16">
					<dim>1</dim>
					<dim>16</dim>
					<dim>1</dim>
					<dim>1</dim>
				</port>
			</output>
		</layer>
		<layer id="523" name="Reshape_2495738918/restored_convert" type="Convert" version="opset1">
			<data destination_type="f32"/>
			<rt_info>
				<attribute name="decompression" version="0"/>
			</rt_info>
			<input>
				<port id="0">
					<dim>1</dim>
					<dim>16</dim>
					<dim>1</dim>
					<dim>1</dim>
				</port>
			</input>
			<output>
				<port id="1" precision="FP32">
					<dim>1</dim>
					<dim>16</dim>
					<dim>1</dim>
					<dim>1</dim>
				</port>
			</output>
		</layer>
		<layer id="524" name="/features/features.1/block/block.2/block.2.0/Conv" type="Add" version="opset1">
			<data auto_broadcast="numpy"/>
			<input>
				<port id="0">
					<dim>1</dim>
					<dim>16</dim>
					<dim>56</dim>
					<dim>56</dim>
				</port>
				<port id="1">
					<dim>1</dim>
					<dim>16</dim>
					<dim>1</dim>
					<dim>1</dim>
				</port>
			</input>
			<output>
				<port id="2" precision="FP32" names="/features/features.1/block/block.2/block.2.0/Conv_output_0">
					<dim>1</dim>
					<dim>16</dim>
					<dim>56</dim>
					<dim>56</dim>
				</port>
			</output>
		</layer>
		<layer id="525" name="/features/features.2/block/block.0/block.0.0/Conv/WithoutBiases/fq_input_0" type="FakeQuantize" version="opset1">
			<data levels="256" auto_broadcast="numpy"/>
			<input>
				<port id="0">
					<dim>1</dim>
					<dim>16</dim>
					<dim>56</dim>
					<dim>56</dim>
				</port>
				<port id="1"/>
				<port id="2"/>
				<port id="3"/>
				<port id="4"/>
			</input>
			<output>
				<port id="5" precision="FP32">
					<dim>1</dim>
					<dim>16</dim>
					<dim>56</dim>
					<dim>56</dim>
				</port>
			</output>
		</layer>
		<layer id="526" name="1791179514219" type="Const" version="opset1">
			<data offset="1504236" size="288" shape="72,1,1,1" element_type="f32"/>
			<output>
				<port id="0" precision="FP32">
					<dim>72</dim>
					<dim>1</dim>
					<dim>1</dim>
					<dim>1</dim>
				</port>
			</output>
		</layer>
		<layer id="527" name="1792179613133" type="Const" version="opset1">
			<data offset="1504524" size="288" shape="72,1,1,1" element_type="f32"/>
			<output>
				<port id="0" precision="FP32">
					<dim>72</dim>
					<dim>1</dim>
					<dim>1</dim>
					<dim>1</dim>
				</port>
			</output>
		</layer>
		<layer id="528" name="1793179713976" type="Const" version="opset1">
			<data offset="1504812" size="288" shape="72,1,1,1" element_type="f32"/>
			<output>
				<port id="0" precision="FP32">
					<dim>72</dim>
					<dim>1</dim>
					<dim>1</dim>
					<dim>1</dim>
				</port>
			</output>
		</layer>
		<layer id="529" name="1794179812281" type="Const" version="opset1">
			<data offset="1505100" size="288" shape="72,1,1,1" element_type="f32"/>
			<output>
				<port id="0" precision="FP32">
					<dim>72</dim>
					<dim>1</dim>
					<dim>1</dim>
					<dim>1</dim>
				</port>
			</output>
		</layer>
		<layer id="530" name="onnx::Conv_43057614216" type="Const" version="opset1">
			<data offset="1505388" size="2304" shape="72,16,1,1" element_type="f16"/>
			<output>
				<port id="0" precision="FP16">
					<dim>72</dim>
					<dim>16</dim>
					<dim>1</dim>
					<dim>1</dim>
				</port>
			</output>
		</layer>
		<layer id="531" name="onnx::Conv_4305768919/restored_convert" type="Convert" version="opset1">
			<data destination_type="f32"/>
			<rt_info>
				<attribute name="decompression" version="0"/>
			</rt_info>
			<input>
				<port id="0">
					<dim>72</dim>
					<dim>16</dim>
					<dim>1</dim>
					<dim>1</dim>
				</port>
			</input>
			<output>
				<port id="1" precision="FP32" names="onnx::Conv_430">
					<dim>72</dim>
					<dim>16</dim>
					<dim>1</dim>
					<dim>1</dim>
				</port>
			</output>
		</layer>
		<layer id="532" name="/features/features.2/block/block.0/block.0.0/Conv/WithoutBiases/fq_weights_1" type="FakeQuantize" version="opset1">
			<data levels="255" auto_broadcast="numpy"/>
			<input>
				<port id="0">
					<dim>72</dim>
					<dim>16</dim>
					<dim>1</dim>
					<dim>1</dim>
				</port>
				<port id="1">
					<dim>72</dim>
					<dim>1</dim>
					<dim>1</dim>
					<dim>1</dim>
				</port>
				<port id="2">
					<dim>72</dim>
					<dim>1</dim>
					<dim>1</dim>
					<dim>1</dim>
				</port>
				<port id="3">
					<dim>72</dim>
					<dim>1</dim>
					<dim>1</dim>
					<dim>1</dim>
				</port>
				<port id="4">
					<dim>72</dim>
					<dim>1</dim>
					<dim>1</dim>
					<dim>1</dim>
				</port>
			</input>
			<output>
				<port id="5" precision="FP32">
					<dim>72</dim>
					<dim>16</dim>
					<dim>1</dim>
					<dim>1</dim>
				</port>
			</output>
		</layer>
		<layer id="533" name="/features/features.2/block/block.0/block.0.0/Conv/WithoutBiases" type="Convolution" version="opset1">
			<data auto_pad="explicit" strides="1,1" dilations="1,1" pads_begin="0,0" pads_end="0,0"/>
			<input>
				<port id="0">
					<dim>1</dim>
					<dim>16</dim>
					<dim>56</dim>
					<dim>56</dim>
				</port>
				<port id="1">
					<dim>72</dim>
					<dim>16</dim>
					<dim>1</dim>
					<dim>1</dim>
				</port>
			</input>
			<output>
				<port id="2" precision="FP32">
					<dim>1</dim>
					<dim>72</dim>
					<dim>56</dim>
					<dim>56</dim>
				</port>
			</output>
		</layer>
		<layer id="534" name="Reshape_26457914507" type="Const" version="opset1">
			<data offset="1507692" size="144" shape="1,72,1,1" element_type="f16"/>
			<output>
				<port id="0" precision="FP16">
					<dim>1</dim>
					<dim>72</dim>
					<dim>1</dim>
					<dim>1</dim>
				</port>
			</output>
		</layer>
		<layer id="535" name="Reshape_2645798920/restored_convert" type="Convert" version="opset1">
			<data destination_type="f32"/>
			<rt_info>
				<attribute name="decompression" version="0"/>
			</rt_info>
			<input>
				<port id="0">
					<dim>1</dim>
					<dim>72</dim>
					<dim>1</dim>
					<dim>1</dim>
				</port>
			</input>
			<output>
				<port id="1" precision="FP32">
					<dim>1</dim>
					<dim>72</dim>
					<dim>1</dim>
					<dim>1</dim>
				</port>
			</output>
		</layer>
		<layer id="536" name="/features/features.2/block/block.0/block.0.0/Conv" type="Add" version="opset1">
			<data auto_broadcast="numpy"/>
			<input>
				<port id="0">
					<dim>1</dim>
					<dim>72</dim>
					<dim>56</dim>
					<dim>56</dim>
				</port>
				<port id="1">
					<dim>1</dim>
					<dim>72</dim>
					<dim>1</dim>
					<dim>1</dim>
				</port>
			</input>
			<output>
				<port id="2" precision="FP32" names="/features/features.2/block/block.0/block.0.0/Conv_output_0">
					<dim>1</dim>
					<dim>72</dim>
					<dim>56</dim>
					<dim>56</dim>
				</port>
			</output>
		</layer>
		<layer id="537" name="/features/features.2/block/block.0/block.0.2/Relu" type="ReLU" version="opset1">
			<input>
				<port id="0">
					<dim>1</dim>
					<dim>72</dim>
					<dim>56</dim>
					<dim>56</dim>
				</port>
			</input>
			<output>
				<port id="1" precision="FP32" names="/features/features.2/block/block.0/block.0.2/Relu_output_0">
					<dim>1</dim>
					<dim>72</dim>
					<dim>56</dim>
					<dim>56</dim>
				</port>
			</output>
		</layer>
		<layer id="538" name="/features/features.2/block/block.1/block.1.0/Conv/WithoutBiases/fq_input_0" type="FakeQuantize" version="opset1">
			<data levels="256" auto_broadcast="numpy"/>
			<input>
				<port id="0">
					<dim>1</dim>
					<dim>72</dim>
					<dim>56</dim>
					<dim>56</dim>
				</port>
				<port id="1">
					<dim>1</dim>
					<dim>72</dim>
					<dim>1</dim>
					<dim>1</dim>
				</port>
				<port id="2">
					<dim>1</dim>
					<dim>72</dim>
					<dim>1</dim>
					<dim>1</dim>
				</port>
				<port id="3">
					<dim>1</dim>
					<dim>72</dim>
					<dim>1</dim>
					<dim>1</dim>
				</port>
				<port id="4">
					<dim>1</dim>
					<dim>72</dim>
					<dim>1</dim>
					<dim>1</dim>
				</port>
			</input>
			<output>
				<port id="5" precision="FP32">
					<dim>1</dim>
					<dim>72</dim>
					<dim>56</dim>
					<dim>56</dim>
				</port>
			</output>
		</layer>
		<layer id="539" name="/features/features.2/block/block.1/block.1.0/Conv/WithoutBiases/weights_shape1009712506" type="Const" version="opset1">
			<data offset="1507836" size="40" shape="5" element_type="i64"/>
			<output>
				<port id="0" precision="I64">
					<dim>5</dim>
				</port>
			</output>
		</layer>
		<layer id="540" name="3161316514558" type="Const" version="opset1">
			<data offset="1507876" size="288" shape="72,1,1,1" element_type="f32"/>
			<output>
				<port id="0" precision="FP32">
					<dim>72</dim>
					<dim>1</dim>
					<dim>1</dim>
					<dim>1</dim>
				</port>
			</output>
		</layer>
		<layer id="541" name="3162316613574" type="Const" version="opset1">
			<data offset="1508164" size="288" shape="72,1,1,1" element_type="f32"/>
			<output>
				<port id="0" precision="FP32">
					<dim>72</dim>
					<dim>1</dim>
					<dim>1</dim>
					<dim>1</dim>
				</port>
			</output>
		</layer>
		<layer id="542" name="3163316712449" type="Const" version="opset1">
			<data offset="1507876" size="288" shape="72,1,1,1" element_type="f32"/>
			<output>
				<port id="0" precision="FP32">
					<dim>72</dim>
					<dim>1</dim>
					<dim>1</dim>
					<dim>1</dim>
				</port>
			</output>
		</layer>
		<layer id="543" name="3164316813766" type="Const" version="opset1">
			<data offset="1508164" size="288" shape="72,1,1,1" element_type="f32"/>
			<output>
				<port id="0" precision="FP32">
					<dim>72</dim>
					<dim>1</dim>
					<dim>1</dim>
					<dim>1</dim>
				</port>
			</output>
		</layer>
		<layer id="544" name="Reshape_27658313763" type="Const" version="opset1">
			<data offset="1508452" size="1296" shape="72,1,3,3" element_type="f16"/>
			<output>
				<port id="0" precision="FP16">
					<dim>72</dim>
					<dim>1</dim>
					<dim>3</dim>
					<dim>3</dim>
				</port>
			</output>
		</layer>
		<layer id="545" name="Reshape_2765838921/restored_convert" type="Convert" version="opset1">
			<data destination_type="f32"/>
			<rt_info>
				<attribute name="decompression" version="0"/>
			</rt_info>
			<input>
				<port id="0">
					<dim>72</dim>
					<dim>1</dim>
…
		<edge from-layer="956" from-port="3" to-layer="957" to-port="0"/>
		<edge from-layer="218" from-port="0" to-layer="957" to-port="1"/>
		<edge from-layer="219" from-port="0" to-layer="957" to-port="2"/>
		<edge from-layer="220" from-port="0" to-layer="957" to-port="3"/>
		<edge from-layer="221" from-port="0" to-layer="957" to-port="4"/>
		<edge from-layer="957" from-port="5" to-layer="958" to-port="0"/>
		<edge from-layer="925" from-port="5" to-layer="958" to-port="1"/>
		<edge from-layer="958" from-port="2" to-layer="959" to-port="0"/>
		<edge from-layer="214" from-port="0" to-layer="959" to-port="1"/>
		<edge from-layer="215" from-port="0" to-layer="959" to-port="2"/>
		<edge from-layer="216" from-port="0" to-layer="959" to-port="3"/>
		<edge from-layer="217" from-port="0" to-layer="959" to-port="4"/>
		<edge from-layer="964" from-port="0" to-layer="965" to-port="0"/>
		<edge from-layer="965" from-port="1" to-layer="966" to-port="0"/>
		<edge from-layer="960" from-port="0" to-layer="966" to-port="1"/>
		<edge from-layer="961" from-port="0" to-layer="966" to-port="2"/>
		<edge from-layer="962" from-port="0" to-layer="966" to-port="3"/>
		<edge from-layer="963" from-port="0" to-layer="966" to-port="4"/>
		<edge from-layer="959" from-port="5" to-layer="967" to-port="0"/>
		<edge from-layer="966" from-port="5" to-layer="967" to-port="1"/>
		<edge from-layer="968" from-port="0" to-layer="969" to-port="0"/>
		<edge from-layer="967" from-port="2" to-layer="970" to-port="0"/>
		<edge from-layer="969" from-port="1" to-layer="970" to-port="1"/>
		<edge from-layer="970" from-port="2" to-layer="971" to-port="0"/>
		<edge from-layer="210" from-port="0" to-layer="971" to-port="1"/>
		<edge from-layer="211" from-port="0" to-layer="971" to-port="2"/>
		<edge from-layer="212" from-port="0" to-layer="971" to-port="3"/>
		<edge from-layer="213" from-port="0" to-layer="971" to-port="4"/>
		<edge from-layer="971" from-port="5" to-layer="972" to-port="0"/>
		<edge from-layer="209" from-port="5" to-layer="972" to-port="1"/>
		<edge from-layer="973" from-port="0" to-layer="974" to-port="0"/>
		<edge from-layer="972" from-port="2" to-layer="975" to-port="0"/>
		<edge from-layer="974" from-port="1" to-layer="975" to-port="1"/>
		<edge from-layer="975" from-port="2" to-layer="976" to-port="0"/>
		<edge from-layer="199" from-port="0" to-layer="976" to-port="1"/>
		<edge from-layer="200" from-port="0" to-layer="976" to-port="2"/>
		<edge from-layer="201" from-port="0" to-layer="976" to-port="3"/>
		<edge from-layer="202" from-port="0" to-layer="976" to-port="4"/>
		<edge from-layer="981" from-port="0" to-layer="982" to-port="0"/>
		<edge from-layer="983" from-port="0" to-layer="984" to-port="0"/>
		<edge from-layer="975" from-port="2" to-layer="985" to-port="0"/>
		<edge from-layer="982" from-port="1" to-layer="985" to-port="1"/>
		<edge from-layer="984" from-port="1" to-layer="985" to-port="2"/>
		<edge from-layer="985" from-port="3" to-layer="986" to-port="0"/>
		<edge from-layer="977" from-port="0" to-layer="986" to-port="1"/>
		<edge from-layer="978" from-port="0" to-layer="986" to-port="2"/>
		<edge from-layer="979" from-port="0" to-layer="986" to-port="3"/>
		<edge from-layer="980" from-port="0" to-layer="986" to-port="4"/>
		<edge from-layer="976" from-port="5" to-layer="987" to-port="0"/>
		<edge from-layer="986" from-port="5" to-layer="987" to-port="1"/>
		<edge from-layer="987" from-port="2" to-layer="988" to-port="0"/>
		<edge from-layer="195" from-port="0" to-layer="988" to-port="1"/>
		<edge from-layer="196" from-port="0" to-layer="988" to-port="2"/>
		<edge from-layer="197" from-port="0" to-layer="988" to-port="3"/>
		<edge from-layer="198" from-port="0" to-layer="988" to-port="4"/>
		<edge from-layer="994" from-port="0" to-layer="995" to-port="0"/>
		<edge from-layer="995" from-port="1" to-layer="996" to-port="0"/>
		<edge from-layer="990" from-port="0" to-layer="996" to-port="1"/>
		<edge from-layer="991" from-port="0" to-layer="996" to-port="2"/>
		<edge from-layer="992" from-port="0" to-layer="996" to-port="3"/>
		<edge from-layer="993" from-port="0" to-layer="996" to-port="4"/>
		<edge from-layer="996" from-port="5" to-layer="997" to-port="0"/>
		<edge from-layer="989" from-port="0" to-layer="997" to-port="1"/>
		<edge from-layer="988" from-port="5" to-layer="998" to-port="0"/>
		<edge from-layer="997" from-port="2" to-layer="998" to-port="1"/>
		<edge from-layer="999" from-port="0" to-layer="1000" to-port="0"/>
		<edge from-layer="998" from-port="2" to-layer="1001" to-port="0"/>
		<edge from-layer="1000" from-port="1" to-layer="1001" to-port="1"/>
		<edge from-layer="1001" from-port="2" to-layer="1002" to-port="0"/>
		<edge from-layer="191" from-port="0" to-layer="1002" to-port="1"/>
		<edge from-layer="192" from-port="0" to-layer="1002" to-port="2"/>
		<edge from-layer="193" from-port="0" to-layer="1002" to-port="3"/>
		<edge from-layer="194" from-port="0" to-layer="1002" to-port="4"/>
		<edge from-layer="1007" from-port="0" to-layer="1008" to-port="0"/>
		<edge from-layer="1009" from-port="0" to-layer="1010" to-port="0"/>
		<edge from-layer="1001" from-port="2" to-layer="1011" to-port="0"/>
		<edge from-layer="1008" from-port="1" to-layer="1011" to-port="1"/>
		<edge from-layer="1010" from-port="1" to-layer="1011" to-port="2"/>
		<edge from-layer="1011" from-port="3" to-layer="1012" to-port="0"/>
		<edge from-layer="1003" from-port="0" to-layer="1012" to-port="1"/>
		<edge from-layer="1004" from-port="0" to-layer="1012" to-port="2"/>
		<edge from-layer="1005" from-port="0" to-layer="1012" to-port="3"/>
		<edge from-layer="1006" from-port="0" to-layer="1012" to-port="4"/>
		<edge from-layer="1002" from-port="5" to-layer="1013" to-port="0"/>
		<edge from-layer="1012" from-port="5" to-layer="1013" to-port="1"/>
		<edge from-layer="1013" from-port="2" to-layer="1014" to-port="0"/>
		<edge from-layer="187" from-port="0" to-layer="1014" to-port="1"/>
		<edge from-layer="188" from-port="0" to-layer="1014" to-port="2"/>
		<edge from-layer="189" from-port="0" to-layer="1014" to-port="3"/>
		<edge from-layer="190" from-port="0" to-layer="1014" to-port="4"/>
		<edge from-layer="1014" from-port="5" to-layer="1015" to-port="0"/>
		<edge from-layer="186" from-port="0" to-layer="1015" to-port="1"/>
		<edge from-layer="1015" from-port="2" to-layer="1016" to-port="0"/>
		<edge from-layer="182" from-port="0" to-layer="1016" to-port="1"/>
		<edge from-layer="183" from-port="0" to-layer="1016" to-port="2"/>
		<edge from-layer="184" from-port="0" to-layer="1016" to-port="3"/>
		<edge from-layer="185" from-port="0" to-layer="1016" to-port="4"/>
		<edge from-layer="1021" from-port="0" to-layer="1022" to-port="0"/>
		<edge from-layer="1022" from-port="1" to-layer="1023" to-port="0"/>
		<edge from-layer="1017" from-port="0" to-layer="1023" to-port="1"/>
		<edge from-layer="1018" from-port="0" to-layer="1023" to-port="2"/>
		<edge from-layer="1019" from-port="0" to-layer="1023" to-port="3"/>
		<edge from-layer="1020" from-port="0" to-layer="1023" to-port="4"/>
		<edge from-layer="1016" from-port="5" to-layer="1024" to-port="0"/>
		<edge from-layer="1023" from-port="5" to-layer="1024" to-port="1"/>
		<edge from-layer="1025" from-port="0" to-layer="1026" to-port="0"/>
		<edge from-layer="1024" from-port="2" to-layer="1027" to-port="0"/>
		<edge from-layer="1026" from-port="1" to-layer="1027" to-port="1"/>
		<edge from-layer="1027" from-port="2" to-layer="1028" to-port="0"/>
		<edge from-layer="1028" from-port="1" to-layer="1029" to-port="0"/>
		<edge from-layer="178" from-port="0" to-layer="1029" to-port="1"/>
		<edge from-layer="179" from-port="0" to-layer="1029" to-port="2"/>
		<edge from-layer="180" from-port="0" to-layer="1029" to-port="3"/>
		<edge from-layer="181" from-port="0" to-layer="1029" to-port="4"/>
		<edge from-layer="1034" from-port="0" to-layer="1035" to-port="0"/>
		<edge from-layer="1035" from-port="1" to-layer="1036" to-port="0"/>
		<edge from-layer="1030" from-port="0" to-layer="1036" to-port="1"/>
		<edge from-layer="1031" from-port="0" to-layer="1036" to-port="2"/>
		<edge from-layer="1032" from-port="0" to-layer="1036" to-port="3"/>
		<edge from-layer="1033" from-port="0" to-layer="1036" to-port="4"/>
		<edge from-layer="1029" from-port="5" to-layer="1037" to-port="0"/>
		<edge from-layer="1036" from-port="5" to-layer="1037" to-port="1"/>
		<edge from-layer="1038" from-port="0" to-layer="1039" to-port="0"/>
		<edge from-layer="1037" from-port="2" to-layer="1040" to-port="0"/>
		<edge from-layer="1039" from-port="1" to-layer="1040" to-port="1"/>
		<edge from-layer="1041" from-port="0" to-layer="1042" to-port="0"/>
		<edge from-layer="1043" from-port="0" to-layer="1044" to-port="0"/>
		<edge from-layer="1040" from-port="2" to-layer="1045" to-port="0"/>
		<edge from-layer="1042" from-port="1" to-layer="1045" to-port="1"/>
		<edge from-layer="1044" from-port="1" to-layer="1045" to-port="2"/>
		<edge from-layer="1045" from-port="3" to-layer="1046" to-port="0"/>
		<edge from-layer="174" from-port="0" to-layer="1046" to-port="1"/>
		<edge from-layer="175" from-port="0" to-layer="1046" to-port="2"/>
		<edge from-layer="176" from-port="0" to-layer="1046" to-port="3"/>
		<edge from-layer="177" from-port="0" to-layer="1046" to-port="4"/>
		<edge from-layer="1046" from-port="5" to-layer="1047" to-port="0"/>
		<edge from-layer="1014" from-port="5" to-layer="1047" to-port="1"/>
		<edge from-layer="1047" from-port="2" to-layer="1048" to-port="0"/>
		<edge from-layer="170" from-port="0" to-layer="1048" to-port="1"/>
		<edge from-layer="171" from-port="0" to-layer="1048" to-port="2"/>
		<edge from-layer="172" from-port="0" to-layer="1048" to-port="3"/>
		<edge from-layer="173" from-port="0" to-layer="1048" to-port="4"/>
		<edge from-layer="1053" from-port="0" to-layer="1054" to-port="0"/>
		<edge from-layer="1054" from-port="1" to-layer="1055" to-port="0"/>
		<edge from-layer="1049" from-port="0" to-layer="1055" to-port="1"/>
		<edge from-layer="1050" from-port="0" to-layer="1055" to-port="2"/>
		<edge from-layer="1051" from-port="0" to-layer="1055" to-port="3"/>
		<edge from-layer="1052" from-port="0" to-layer="1055" to-port="4"/>
		<edge from-layer="1048" from-port="5" to-layer="1056" to-port="0"/>
		<edge from-layer="1055" from-port="5" to-layer="1056" to-port="1"/>
		<edge from-layer="1057" from-port="0" to-layer="1058" to-port="0"/>
		<edge from-layer="1056" from-port="2" to-layer="1059" to-port="0"/>
		<edge from-layer="1058" from-port="1" to-layer="1059" to-port="1"/>
		<edge from-layer="1059" from-port="2" to-layer="1060" to-port="0"/>
		<edge from-layer="166" from-port="0" to-layer="1060" to-port="1"/>
		<edge from-layer="167" from-port="0" to-layer="1060" to-port="2"/>
		<edge from-layer="168" from-port="0" to-layer="1060" to-port="3"/>
		<edge from-layer="169" from-port="0" to-layer="1060" to-port="4"/>
		<edge from-layer="1060" from-port="5" to-layer="1061" to-port="0"/>
		<edge from-layer="971" from-port="5" to-layer="1061" to-port="1"/>
		<edge from-layer="1061" from-port="2" to-layer="1062" to-port="0"/>
		<edge from-layer="162" from-port="0" to-layer="1062" to-port="1"/>
		<edge from-layer="163" from-port="0" to-layer="1062" to-port="2"/>
		<edge from-layer="164" from-port="0" to-layer="1062" to-port="3"/>
		<edge from-layer="165" from-port="0" to-layer="1062" to-port="4"/>
		<edge from-layer="1067" from-port="0" to-layer="1068" to-port="0"/>
		<edge from-layer="1068" from-port="1" to-layer="1069" to-port="0"/>
		<edge from-layer="1063" from-port="0" to-layer="1069" to-port="1"/>
		<edge from-layer="1064" from-port="0" to-layer="1069" to-port="2"/>
		<edge from-layer="1065" from-port="0" to-layer="1069" to-port="3"/>
		<edge from-layer="1066" from-port="0" to-layer="1069" to-port="4"/>
		<edge from-layer="1062" from-port="5" to-layer="1070" to-port="0"/>
		<edge from-layer="1069" from-port="5" to-layer="1070" to-port="1"/>
		<edge from-layer="1071" from-port="0" to-layer="1072" to-port="0"/>
		<edge from-layer="1070" from-port="2" to-layer="1073" to-port="0"/>
		<edge from-layer="1072" from-port="1" to-layer="1073" to-port="1"/>
		<edge from-layer="1073" from-port="2" to-layer="1074" to-port="0"/>
		<edge from-layer="158" from-port="0" to-layer="1074" to-port="1"/>
		<edge from-layer="159" from-port="0" to-layer="1074" to-port="2"/>
		<edge from-layer="160" from-port="0" to-layer="1074" to-port="3"/>
		<edge from-layer="161" from-port="0" to-layer="1074" to-port="4"/>
		<edge from-layer="1079" from-port="0" to-layer="1080" to-port="0"/>
		<edge from-layer="1081" from-port="0" to-layer="1082" to-port="0"/>
		<edge from-layer="1073" from-port="2" to-layer="1083" to-port="0"/>
		<edge from-layer="1080" from-port="1" to-layer="1083" to-port="1"/>
		<edge from-layer="1082" from-port="1" to-layer="1083" to-port="2"/>
		<edge from-layer="1083" from-port="3" to-layer="1084" to-port="0"/>
		<edge from-layer="1075" from-port="0" to-layer="1084" to-port="1"/>
		<edge from-layer="1076" from-port="0" to-layer="1084" to-port="2"/>
		<edge from-layer="1077" from-port="0" to-layer="1084" to-port="3"/>
		<edge from-layer="1078" from-port="0" to-layer="1084" to-port="4"/>
		<edge from-layer="1074" from-port="5" to-layer="1085" to-port="0"/>
		<edge from-layer="1084" from-port="5" to-layer="1085" to-port="1"/>
		<edge from-layer="1085" from-port="2" to-layer="1086" to-port="0"/>
		<edge from-layer="154" from-port="0" to-layer="1086" to-port="1"/>
		<edge from-layer="155" from-port="0" to-layer="1086" to-port="2"/>
		<edge from-layer="156" from-port="0" to-layer="1086" to-port="3"/>
		<edge from-layer="157" from-port="0" to-layer="1086" to-port="4"/>
		<edge from-layer="1092" from-port="0" to-layer="1093" to-port="0"/>
		<edge from-layer="1093" from-port="1" to-layer="1094" to-port="0"/>
		<edge from-layer="1088" from-port="0" to-layer="1094" to-port="1"/>
		<edge from-layer="1089" from-port="0" to-layer="1094" to-port="2"/>
		<edge from-layer="1090" from-port="0" to-layer="1094" to-port="3"/>
		<edge from-layer="1091" from-port="0" to-layer="1094" to-port="4"/>
		<edge from-layer="1094" from-port="5" to-layer="1095" to-port="0"/>
		<edge from-layer="1087" from-port="0" to-layer="1095" to-port="1"/>
		<edge from-layer="1086" from-port="5" to-layer="1096" to-port="0"/>
		<edge from-layer="1095" from-port="2" to-layer="1096" to-port="1"/>
		<edge from-layer="1097" from-port="0" to-layer="1098" to-port="0"/>
		<edge from-layer="1096" from-port="2" to-layer="1099" to-port="0"/>
		<edge from-layer="1098" from-port="1" to-layer="1099" to-port="1"/>
		<edge from-layer="1099" from-port="2" to-layer="1100" to-port="0"/>
		<edge from-layer="150" from-port="0" to-layer="1100" to-port="1"/>
		<edge from-layer="151" from-port="0" to-layer="1100" to-port="2"/>
		<edge from-layer="152" from-port="0" to-layer="1100" to-port="3"/>
		<edge from-layer="153" from-port="0" to-layer="1100" to-port="4"/>
		<edge from-layer="1105" from-port="0" to-layer="1106" to-port="0"/>
		<edge from-layer="1107" from-port="0" to-layer="1108" to-port="0"/>
		<edge from-layer="1099" from-port="2" to-layer="1109" to-port="0"/>
		<edge from-layer="1106" from-port="1" to-layer="1109" to-port="1"/>
		<edge from-layer="1108" from-port="1" to-layer="1109" to-port="2"/>
		<edge from-layer="1109" from-port="3" to-layer="1110" to-port="0"/>
		<edge from-layer="1101" from-port="0" to-layer="1110" to-port="1"/>
		<edge from-layer="1102" from-port="0" to-layer="1110" to-port="2"/>
		<edge from-layer="1103" from-port="0" to-layer="1110" to-port="3"/>
		<edge from-layer="1104" from-port="0" to-layer="1110" to-port="4"/>
		<edge from-layer="1100" from-port="5" to-layer="1111" to-port="0"/>
		<edge from-layer="1110" from-port="5" to-layer="1111" to-port="1"/>
		<edge from-layer="1111" from-port="2" to-layer="1112" to-port="0"/>
		<edge from-layer="146" from-port="0" to-layer="1112" to-port="1"/>
		<edge from-layer="147" from-port="0" to-layer="1112" to-port="2"/>
		<edge from-layer="148" from-port="0" to-layer="1112" to-port="3"/>
		<edge from-layer="149" from-port="0" to-layer="1112" to-port="4"/>
		<edge from-layer="1112" from-port="5" to-layer="1113" to-port="0"/>
		<edge from-layer="145" from-port="0" to-layer="1113" to-port="1"/>
		<edge from-layer="1113" from-port="2" to-layer="1114" to-port="0"/>
		<edge from-layer="141" from-port="0" to-layer="1114" to-port="1"/>
		<edge from-layer="142" from-port="0" to-layer="1114" to-port="2"/>
		<edge from-layer="143" from-port="0" to-layer="1114" to-port="3"/>
		<edge from-layer="144" from-port="0" to-layer="1114" to-port="4"/>
		<edge from-layer="1119" from-port="0" to-layer="1120" to-port="0"/>
		<edge from-layer="1120" from-port="1" to-layer="1121" to-port="0"/>
		<edge from-layer="1115" from-port="0" to-layer="1121" to-port="1"/>
		<edge from-layer="1116" from-port="0" to-layer="1121" to-port="2"/>
		<edge from-layer="1117" from-port="0" to-layer="1121" to-port="3"/>
		<edge from-layer="1118" from-port="0" to-layer="1121" to-port="4"/>
		<edge from-layer="1114" from-port="5" to-layer="1122" to-port="0"/>
		<edge from-layer="1121" from-port="5" to-layer="1122" to-port="1"/>
		<edge from-layer="1123" from-port="0" to-layer="1124" to-port="0"/>
		<edge from-layer="1122" from-port="2" to-layer="1125" to-port="0"/>
		<edge from-layer="1124" from-port="1" to-layer="1125" to-port="1"/>
		<edge from-layer="1125" from-port="2" to-layer="1126" to-port="0"/>
		<edge from-layer="1126" from-port="1" to-layer="1127" to-port="0"/>
		<edge from-layer="137" from-port="0" to-layer="1127" to-port="1"/>
		<edge from-layer="138" from-port="0" to-layer="1127" to-port="2"/>
		<edge from-layer="139" from-port="0" to-layer="1127" to-port="3"/>
		<edge from-layer="140" from-port="0" to-layer="1127" to-port="4"/>
		<edge from-layer="1132" from-port="0" to-layer="1133" to-port="0"/>
		<edge from-layer="1133" from-port="1" to-layer="1134" to-port="0"/>
		<edge from-layer="1128" from-port="0" to-layer="1134" to-port="1"/>
		<edge from-layer="1129" from-port="0" to-layer="1134" to-port="2"/>
		<edge from-layer="1130" from-port="0" to-layer="1134" to-port="3"/>
		<edge from-layer="1131" from-port="0" to-layer="1134" to-port="4"/>
		<edge from-layer="1127" from-port="5" to-layer="1135" to-port="0"/>
		<edge from-layer="1134" from-port="5" to-layer="1135" to-port="1"/>
		<edge from-layer="1136" from-port="0" to-layer="1137" to-port="0"/>
		<edge from-layer="1135" from-port="2" to-layer="1138" to-port="0"/>
		<edge from-layer="1137" from-port="1" to-layer="1138" to-port="1"/>
		<edge from-layer="1139" from-port="0" to-layer="1140" to-port="0"/>
		<edge from-layer="1141" from-port="0" to-layer="1142" to-port="0"/>
		<edge from-layer="1138" from-port="2" to-layer="1143" to-port="0"/>
		<edge from-layer="1140" from-port="1" to-layer="1143" to-port="1"/>
		<edge from-layer="1142" from-port="1" to-layer="1143" to-port="2"/>
		<edge from-layer="1143" from-port="3" to-layer="1144" to-port="0"/>
		<edge from-layer="133" from-port="0" to-layer="1144" to-port="1"/>
		<edge from-layer="134" from-port="0" to-layer="1144" to-port="2"/>
		<edge from-layer="135" from-port="0" to-layer="1144" to-port="3"/>
		<edge from-layer="136" from-port="0" to-layer="1144" to-port="4"/>
		<edge from-layer="1144" from-port="5" to-layer="1145" to-port="0"/>
		<edge from-layer="1112" from-port="5" to-layer="1145" to-port="1"/>
		<edge from-layer="1145" from-port="2" to-layer="1146" to-port="0"/>
		<edge from-layer="129" from-port="0" to-layer="1146" to-port="1"/>
		<edge from-layer="130" from-port="0" to-layer="1146" to-port="2"/>
		<edge from-layer="131" from-port="0" to-layer="1146" to-port="3"/>
		<edge from-layer="132" from-port="0" to-layer="1146" to-port="4"/>
		<edge from-layer="1151" from-port="0" to-layer="1152" to-port="0"/>
		<edge from-layer="1152" from-port="1" to-layer="1153" to-port="0"/>
		<edge from-layer="1147" from-port="0" to-layer="1153" to-port="1"/>
		<edge from-layer="1148" from-port="0" to-layer="1153" to-port="2"/>
		<edge from-layer="1149" from-port="0" to-layer="1153" to-port="3"/>
		<edge from-layer="1150" from-port="0" to-layer="1153" to-port="4"/>
		<edge from-layer="1146" from-port="5" to-layer="1154" to-port="0"/>
		<edge from-layer="1153" from-port="5" to-layer="1154" to-port="1"/>
		<edge from-layer="1155" from-port="0" to-layer="1156" to-port="0"/>
		<edge from-layer="1154" from-port="2" to-layer="1157" to-port="0"/>
		<edge from-layer="1156" from-port="1" to-layer="1157" to-port="1"/>
		<edge from-layer="1157" from-port="2" to-layer="1158" to-port="0"/>
		<edge from-layer="125" from-port="0" to-layer="1158" to-port="1"/>
		<edge from-layer="126" from-port="0" to-layer="1158" to-port="2"/>
		<edge from-layer="127" from-port="0" to-layer="1158" to-port="3"/>
		<edge from-layer="128" from-port="0" to-layer="1158" to-port="4"/>
		<edge from-layer="1158" from-port="5" to-layer="1159" to-port="0"/>
		<edge from-layer="124" from-port="5" to-layer="1159" to-port="1"/>
		<edge from-layer="1160" from-port="0" to-layer="1161" to-port="0"/>
		<edge from-layer="1159" from-port="2" to-layer="1162" to-port="0"/>
		<edge from-layer="1161" from-port="1" to-layer="1162" to-port="1"/>
		<edge from-layer="1162" from-port="2" to-layer="1163" to-port="0"/>
		<edge from-layer="114" from-port="0" to-layer="1163" to-port="1"/>
		<edge from-layer="115" from-port="0" to-layer="1163" to-port="2"/>
		<edge from-layer="116" from-port="0" to-layer="1163" to-port="3"/>
		<edge from-layer="117" from-port="0" to-layer="1163" to-port="4"/>
		<edge from-layer="1168" from-port="0" to-layer="1169" to-port="0"/>
		<edge from-layer="1170" from-port="0" to-layer="1171" to-port="0"/>
		<edge from-layer="1162" from-port="2" to-layer="1172" to-port="0"/>
		<edge from-layer="1169" from-port="1" to-layer="1172" to-port="1"/>
		<edge from-layer="1171" from-port="1" to-layer="1172" to-port="2"/>
		<edge from-layer="1172" from-port="3" to-layer="1173" to-port="0"/>
		<edge from-layer="1164" from-port="0" to-layer="1173" to-port="1"/>
		<edge from-layer="1165" from-port="0" to-layer="1173" to-port="2"/>
		<edge from-layer="1166" from-port="0" to-layer="1173" to-port="3"/>
		<edge from-layer="1167" from-port="0" to-layer="1173" to-port="4"/>
		<edge from-layer="1163" from-port="5" to-layer="1174" to-port="0"/>
		<edge from-layer="1173" from-port="5" to-layer="1174" to-port="1"/>
		<edge from-layer="1174" from-port="2" to-layer="1175" to-port="0"/>
		<edge from-layer="110" from-port="0" to-layer="1175" to-port="1"/>
		<edge from-layer="111" from-port="0" to-layer="1175" to-port="2"/>
		<edge from-layer="112" from-port="0" to-layer="1175" to-port="3"/>
		<edge from-layer="113" from-port="0" to-layer="1175" to-port="4"/>
		<edge from-layer="1181" from-port="0" to-layer="1182" to-port="0"/>
		<edge from-layer="1182" from-port="1" to-layer="1183" to-port="0"/>
		<edge from-layer="1177" from-port="0" to-layer="1183" to-port="1"/>
		<edge from-layer="1178" from-port="0" to-layer="1183" to-port="2"/>
		<edge from-layer="1179" from-port="0" to-layer="1183" to-port="3"/>
		<edge from-layer="1180" from-port="0" to-layer="1183" to-port="4"/>
		<edge from-layer="1183" from-port="5" to-layer="1184" to-port="0"/>
		<edge from-layer="1176" from-port="0" to-layer="1184" to-port="1"/>
		<edge from-layer="1175" from-port="5" to-layer="1185" to-port="0"/>
		<edge from-layer="1184" from-port="2" to-layer="1185" to-port="1"/>
		<edge from-layer="1186" from-port="0" to-layer="1187" to-port="0"/>
		<edge from-layer="1185" from-port="2" to-layer="1188" to-port="0"/>
		<edge from-layer="1187" from-port="1" to-layer="1188" to-port="1"/>
		<edge from-layer="1188" from-port="2" to-layer="1189" to-port="0"/>
		<edge from-layer="106" from-port="0" to-layer="1189" to-port="1"/>
		<edge from-layer="107" from-port="0" to-layer="1189" to-port="2"/>
		<edge from-layer="108" from-port="0" to-layer="1189" to-port="3"/>
		<edge from-layer="109" from-port="0" to-layer="1189" to-port="4"/>
		<edge from-layer="1194" from-port="0" to-layer="1195" to-port="0"/>
		<edge from-layer="1196" from-port="0" to-layer="1197" to-port="0"/>
		<edge from-layer="1188" from-port="2" to-layer="1198" to-port="0"/>
		<edge from-layer="1195" from-port="1" to-layer="1198" to-port="1"/>
		<edge from-layer="1197" from-port="1" to-layer="1198" to-port="2"/>
		<edge from-layer="1198" from-port="3" to-layer="1199" to-port="0"/>
		<edge from-layer="1190" from-port="0" to-layer="1199" to-port="1"/>
		<edge from-layer="1191" from-port="0" to-layer="1199" to-port="2"/>
		<edge from-layer="1192" from-port="0" to-layer="1199" to-port="3"/>
		<edge from-layer="1193" from-port="0" to-layer="1199" to-port="4"/>
		<edge from-layer="1189" from-port="5" to-layer="1200" to-port="0"/>
		<edge from-layer="1199" from-port="5" to-layer="1200" to-port="1"/>
		<edge from-layer="1200" from-port="2" to-layer="1201" to-port="0"/>
		<edge from-layer="102" from-port="0" to-layer="1201" to-port="1"/>
		<edge from-layer="103" from-port="0" to-layer="1201" to-port="2"/>
		<edge from-layer="104" from-port="0" to-layer="1201" to-port="3"/>
		<edge from-layer="105" from-port="0" to-layer="1201" to-port="4"/>
		<edge from-layer="1201" from-port="5" to-layer="1202" to-port="0"/>
		<edge from-layer="101" from-port="0" to-layer="1202" to-port="1"/>
		<edge from-layer="1202" from-port="2" to-layer="1203" to-port="0"/>
		<edge from-layer="97" from-port="0" to-layer="1203" to-port="1"/>
		<edge from-layer="98" from-port="0" to-layer="1203" to-port="2"/>
		<edge from-layer="99" from-port="0" to-layer="1203" to-port="3"/>
		<edge from-layer="100" from-port="0" to-layer="1203" to-port="4"/>
		<edge from-layer="1208" from-port="0" to-layer="1209" to-port="0"/>
		<edge from-layer="1209" from-port="1" to-layer="1210" to-port="0"/>
		<edge from-layer="1204" from-port="0" to-layer="1210" to-port="1"/>
		<edge from-layer="1205" from-port="0" to-layer="1210" to-port="2"/>
		<edge from-layer="1206" from-port="0" to-layer="1210" to-port="3"/>
		<edge from-layer="1207" from-port="0" to-layer="1210" to-port="4"/>
		<edge from-layer="1203" from-port="5" to-layer="1211" to-port="0"/>
		<edge from-layer="1210" from-port="5" to-layer="1211" to-port="1"/>
		<edge from-layer="1212" from-port="0" to-layer="1213" to-port="0"/>
		<edge from-layer="1211" from-port="2" to-layer="1214" to-port="0"/>
		<edge from-layer="1213" from-port="1" to-layer="1214" to-port="1"/>
		<edge from-layer="1214" from-port="2" to-layer="1215" to-port="0"/>
		<edge from-layer="1215" from-port="1" to-layer="1216" to-port="0"/>
		<edge from-layer="93" from-port="0" to-layer="1216" to-port="1"/>
		<edge from-layer="94" from-port="0" to-layer="1216" to-port="2"/>
		<edge from-layer="95" from-port="0" to-layer="1216" to-port="3"/>
		<edge from-layer="96" from-port="0" to-layer="1216" to-port="4"/>
		<edge from-layer="1221" from-port="0" to-layer="1222" to-port="0"/>
		<edge from-layer="1222" from-port="1" to-layer="1223" to-port="0"/>
		<edge from-layer="1217" from-port="0" to-layer="1223" to-port="1"/>
		<edge from-layer="1218" from-port="0" to-layer="1223" to-port="2"/>
		<edge from-layer="1219" from-port="0" to-layer="1223" to-port="3"/>
		<edge from-layer="1220" from-port="0" to-layer="1223" to-port="4"/>
		<edge from-layer="1216" from-port="5" to-layer="1224" to-port="0"/>
		<edge from-layer="1223" from-port="5" to-layer="1224" to-port="1"/>
		<edge from-layer="1225" from-port="0" to-layer="1226" to-port="0"/>
		<edge from-layer="1224" from-port="2" to-layer="1227" to-port="0"/>
		<edge from-layer="1226" from-port="1" to-layer="1227" to-port="1"/>
		<edge from-layer="1228" from-port="0" to-layer="1229" to-port="0"/>
		<edge from-layer="1230" from-port="0" to-layer="1231" to-port="0"/>
		<edge from-layer="1227" from-port="2" to-layer="1232" to-port="0"/>
		<edge from-layer="1229" from-port="1" to-layer="1232" to-port="1"/>
		<edge from-layer="1231" from-port="1" to-layer="1232" to-port="2"/>
		<edge from-layer="1232" from-port="3" to-layer="1233" to-port="0"/>
		<edge from-layer="89" from-port="0" to-layer="1233" to-port="1"/>
		<edge from-layer="90" from-port="0" to-layer="1233" to-port="2"/>
		<edge from-layer="91" from-port="0" to-layer="1233" to-port="3"/>
		<edge from-layer="92" from-port="0" to-layer="1233" to-port="4"/>
		<edge from-layer="1233" from-port="5" to-layer="1234" to-port="0"/>
		<edge from-layer="1201" from-port="5" to-layer="1234" to-port="1"/>
		<edge from-layer="1234" from-port="2" to-layer="1235" to-port="0"/>
		<edge from-layer="85" from-port="0" to-layer="1235" to-port="1"/>
		<edge from-layer="86" from-port="0" to-layer="1235" to-port="2"/>
		<edge from-layer="87" from-port="0" to-layer="1235" to-port="3"/>
		<edge from-layer="88" from-port="0" to-layer="1235" to-port="4"/>
		<edge from-layer="1240" from-port="0" to-layer="1241" to-port="0"/>
		<edge from-layer="1241" from-port="1" to-layer="1242" to-port="0"/>
		<edge from-layer="1236" from-port="0" to-layer="1242" to-port="1"/>
		<edge from-layer="1237" from-port="0" to-layer="1242" to-port="2"/>
		<edge from-layer="1238" from-port="0" to-layer="1242" to-port="3"/>
		<edge from-layer="1239" from-port="0" to-layer="1242" to-port="4"/>
		<edge from-layer="1235" from-port="5" to-layer="1243" to-port="0"/>
		<edge from-layer="1242" from-port="5" to-layer="1243" to-port="1"/>
		<edge from-layer="1244" from-port="0" to-layer="1245" to-port="0"/>
		<edge from-layer="1243" from-port="2" to-layer="1246" to-port="0"/>
		<edge from-layer="1245" from-port="1" to-layer="1246" to-port="1"/>
		<edge from-layer="1246" from-port="2" to-layer="1247" to-port="0"/>
		<edge from-layer="81" from-port="0" to-layer="1247" to-port="1"/>
		<edge from-layer="82" from-port="0" to-layer="1247" to-port="2"/>
		<edge from-layer="83" from-port="0" to-layer="1247" to-port="3"/>
		<edge from-layer="84" from-port="0" to-layer="1247" to-port="4"/>
		<edge from-layer="1247" from-port="5" to-layer="1248" to-port="0"/>
		<edge from-layer="1158" from-port="5" to-layer="1248" to-port="1"/>
		<edge from-layer="1248" from-port="2" to-layer="1249" to-port="0"/>
		<edge from-layer="77" from-port="0" to-layer="1249" to-port="1"/>
		<edge from-layer="78" from-port="0" to-layer="1249" to-port="2"/>
		<edge from-layer="79" from-port="0" to-layer="1249" to-port="3"/>
		<edge from-layer="80" from-port="0" to-layer="1249" to-port="4"/>
		<edge from-layer="1249" from-port="5" to-layer="1250" to-port="0"/>
		<edge from-layer="76" from-port="5" to-layer="1250" to-port="1"/>
		<edge from-layer="1251" from-port="0" to-layer="1252" to-port="0"/>
		<edge from-layer="1250" from-port="2" to-layer="1253" to-port="0"/>
		<edge from-layer="1252" from-port="1" to-layer="1253" to-port="1"/>
		<edge from-layer="1253" from-port="2" to-layer="1254" to-port="0"/>
		<edge from-layer="66" from-port="0" to-layer="1254" to-port="1"/>
		<edge from-layer="67" from-port="0" to-layer="1254" to-port="2"/>
		<edge from-layer="68" from-port="0" to-layer="1254" to-port="3"/>
		<edge from-layer="69" from-port="0" to-layer="1254" to-port="4"/>
		<edge from-layer="1259" from-port="0" to-layer="1260" to-port="0"/>
		<edge from-layer="1261" from-port="0" to-layer="1262" to-port="0"/>
		<edge from-layer="1253" from-port="2" to-layer="1263" to-port="0"/>
		<edge from-layer="1260" from-port="1" to-layer="1263" to-port="1"/>
		<edge from-layer="1262" from-port="1" to-layer="1263" to-port="2"/>
		<edge from-layer="1263" from-port="3" to-layer="1264" to-port="0"/>
		<edge from-layer="1255" from-port="0" to-layer="1264" to-port="1"/>
		<edge from-layer="1256" from-port="0" to-layer="1264" to-port="2"/>
		<edge from-layer="1257" from-port="0" to-layer="1264" to-port="3"/>
		<edge from-layer="1258" from-port="0" to-layer="1264" to-port="4"/>
		<edge from-layer="1254" from-port="5" to-layer="1265" to-port="0"/>
		<edge from-layer="1264" from-port="5" to-layer="1265" to-port="1"/>
		<edge from-layer="1265" from-port="2" to-layer="1266" to-port="0"/>
		<edge from-layer="62" from-port="0" to-layer="1266" to-port="1"/>
		<edge from-layer="63" from-port="0" to-layer="1266" to-port="2"/>
		<edge from-layer="64" from-port="0" to-layer="1266" to-port="3"/>
		<edge from-layer="65" from-port="0" to-layer="1266" to-port="4"/>
		<edge from-layer="1272" from-port="0" to-layer="1273" to-port="0"/>
		<edge from-layer="1273" from-port="1" to-layer="1274" to-port="0"/>
		<edge from-layer="1268" from-port="0" to-layer="1274" to-port="1"/>
		<edge from-layer="1269" from-port="0" to-layer="1274" to-port="2"/>
		<edge from-layer="1270" from-port="0" to-layer="1274" to-port="3"/>
		<edge from-layer="1271" from-port="0" to-layer="1274" to-port="4"/>
		<edge from-layer="1274" from-port="5" to-layer="1275" to-port="0"/>
		<edge from-layer="1267" from-port="0" to-layer="1275" to-port="1"/>
		<edge from-layer="1266" from-port="5" to-layer="1276" to-port="0"/>
		<edge from-layer="1275" from-port="2" to-layer="1276" to-port="1"/>
		<edge from-layer="1277" from-port="0" to-layer="1278" to-port="0"/>
		<edge from-layer="1276" from-port="2" to-layer="1279" to-port="0"/>
		<edge from-layer="1278" from-port="1" to-layer="1279" to-port="1"/>
		<edge from-layer="1279" from-port="2" to-layer="1280" to-port="0"/>
		<edge from-layer="58" from-port="0" to-layer="1280" to-port="1"/>
		<edge from-layer="59" from-port="0" to-layer="1280" to-port="2"/>
		<edge from-layer="60" from-port="0" to-layer="1280" to-port="3"/>
		<edge from-layer="61" from-port="0" to-layer="1280" to-port="4"/>
		<edge from-layer="1285" from-port="0" to-layer="1286" to-port="0"/>
		<edge from-layer="1287" from-port="0" to-layer="1288" to-port="0"/>
		<edge from-layer="1279" from-port="2" to-layer="1289" to-port="0"/>
		<edge from-layer="1286" from-port="1" to-layer="1289" to-port="1"/>
		<edge from-layer="1288" from-port="1" to-layer="1289" to-port="2"/>
		<edge from-layer="1289" from-port="3" to-layer="1290" to-port="0"/>
		<edge from-layer="1281" from-port="0" to-layer="1290" to-port="1"/>
		<edge from-layer="1282" from-port="0" to-layer="1290" to-port="2"/>
		<edge from-layer="1283" from-port="0" to-layer="1290" to-port="3"/>
		<edge from-layer="1284" from-port="0" to-layer="1290" to-port="4"/>
		<edge from-layer="1280" from-port="5" to-layer="1291" to-port="0"/>
		<edge from-layer="1290" from-port="5" to-layer="1291" to-port="1"/>
		<edge from-layer="1291" from-port="2" to-layer="1292" to-port="0"/>
		<edge from-layer="54" from-port="0" to-layer="1292" to-port="1"/>
		<edge from-layer="55" from-port="0" to-layer="1292" to-port="2"/>
		<edge from-layer="56" from-port="0" to-layer="1292" to-port="3"/>
		<edge from-layer="57" from-port="0" to-layer="1292" to-port="4"/>
		<edge from-layer="1292" from-port="5" to-layer="1293" to-port="0"/>
		<edge from-layer="53" from-port="0" to-layer="1293" to-port="1"/>
		<edge from-layer="1293" from-port="2" to-layer="1294" to-port="0"/>
		<edge from-layer="49" from-port="0" to-layer="1294" to-port="1"/>
		<edge from-layer="50" from-port="0" to-layer="1294" to-port="2"/>
		<edge from-layer="51" from-port="0" to-layer="1294" to-port="3"/>
		<edge from-layer="52" from-port="0" to-layer="1294" to-port="4"/>
		<edge from-layer="1299" from-port="0" to-layer="1300" to-port="0"/>
		<edge from-layer="1300" from-port="1" to-layer="1301" to-port="0"/>
		<edge from-layer="1295" from-port="0" to-layer="1301" to-port="1"/>
		<edge from-layer="1296" from-port="0" to-layer="1301" to-port="2"/>
		<edge from-layer="1297" from-port="0" to-layer="1301" to-port="3"/>
		<edge from-layer="1298" from-port="0" to-layer="1301" to-port="4"/>
		<edge from-layer="1294" from-port="5" to-layer="1302" to-port="0"/>
		<edge from-layer="1301" from-port="5" to-layer="1302" to-port="1"/>
		<edge from-layer="1303" from-port="0" to-layer="1304" to-port="0"/>
		<edge from-layer="1302" from-port="2" to-layer="1305" to-port="0"/>
		<edge from-layer="1304" from-port="1" to-layer="1305" to-port="1"/>
		<edge from-layer="1305" from-port="2" to-layer="1306" to-port="0"/>
		<edge from-layer="1306" from-port="1" to-layer="1307" to-port="0"/>
		<edge from-layer="45" from-port="0" to-layer="1307" to-port="1"/>
		<edge from-layer="46" from-port="0" to-layer="1307" to-port="2"/>
		<edge from-layer="47" from-port="0" to-layer="1307" to-port="3"/>
		<edge from-layer="48" from-port="0" to-layer="1307" to-port="4"/>
		<edge from-layer="1312" from-port="0" to-layer="1313" to-port="0"/>
		<edge from-layer="1313" from-port="1" to-layer="1314" to-port="0"/>
		<edge from-layer="1308" from-port="0" to-layer="1314" to-port="1"/>
		<edge from-layer="1309" from-port="0" to-layer="1314" to-port="2"/>
		<edge from-layer="1310" from-port="0" to-layer="1314" to-port="3"/>
		<edge from-layer="1311" from-port="0" to-layer="1314" to-port="4"/>
		<edge from-layer="1307" from-port="5" to-layer="1315" to-port="0"/>
		<edge from-layer="1314" from-port="5" to-layer="1315" to-port="1"/>
		<edge from-layer="1316" from-port="0" to-layer="1317" to-port="0"/>
		<edge from-layer="1315" from-port="2" to-layer="1318" to-port="0"/>
		<edge from-layer="1317" from-port="1" to-layer="1318" to-port="1"/>
		<edge from-layer="1319" from-port="0" to-layer="1320" to-port="0"/>
		<edge from-layer="1321" from-port="0" to-layer="1322" to-port="0"/>
		<edge from-layer="1318" from-port="2" to-layer="1323" to-port="0"/>
		<edge from-layer="1320" from-port="1" to-layer="1323" to-port="1"/>
		<edge from-layer="1322" from-port="1" to-layer="1323" to-port="2"/>
		<edge from-layer="1323" from-port="3" to-layer="1324" to-port="0"/>
		<edge from-layer="41" from-port="0" to-layer="1324" to-port="1"/>
		<edge from-layer="42" from-port="0" to-layer="1324" to-port="2"/>
		<edge from-layer="43" from-port="0" to-layer="1324" to-port="3"/>
		<edge from-layer="44" from-port="0" to-layer="1324" to-port="4"/>
		<edge from-layer="1324" from-port="5" to-layer="1325" to-port="0"/>
		<edge from-layer="1292" from-port="5" to-layer="1325" to-port="1"/>
		<edge from-layer="1325" from-port="2" to-layer="1326" to-port="0"/>
		<edge from-layer="37" from-port="0" to-layer="1326" to-port="1"/>
		<edge from-layer="38" from-port="0" to-layer="1326" to-port="2"/>
		<edge from-layer="39" from-port="0" to-layer="1326" to-port="3"/>
		<edge from-layer="40" from-port="0" to-layer="1326" to-port="4"/>
		<edge from-layer="1331" from-port="0" to-layer="1332" to-port="0"/>
		<edge from-layer="1332" from-port="1" to-layer="1333" to-port="0"/>
		<edge from-layer="1327" from-port="0" to-layer="1333" to-port="1"/>
		<edge from-layer="1328" from-port="0" to-layer="1333" to-port="2"/>
		<edge from-layer="1329" from-port="0" to-layer="1333" to-port="3"/>
		<edge from-layer="1330" from-port="0" to-layer="1333" to-port="4"/>
		<edge from-layer="1326" from-port="5" to-layer="1334" to-port="0"/>
		<edge from-layer="1333" from-port="5" to-layer="1334" to-port="1"/>
		<edge from-layer="1335" from-port="0" to-layer="1336" to-port="0"/>
		<edge from-layer="1334" from-port="2" to-layer="1337" to-port="0"/>
		<edge from-layer="1336" from-port="1" to-layer="1337" to-port="1"/>
		<edge from-layer="1337" from-port="2" to-layer="1338" to-port="0"/>
		<edge from-layer="33" from-port="0" to-layer="1338" to-port="1"/>
		<edge from-layer="34" from-port="0" to-layer="1338" to-port="2"/>
		<edge from-layer="35" from-port="0" to-layer="1338" to-port="3"/>
		<edge from-layer="36" from-port="0" to-layer="1338" to-port="4"/>
		<edge from-layer="1338" from-port="5" to-layer="1339" to-port="0"/>
		<edge from-layer="1249" from-port="5" to-layer="1339" to-port="1"/>
		<edge from-layer="1339" from-port="2" to-layer="1340" to-port="0"/>
		<edge from-layer="29" from-port="0" to-layer="1340" to-port="1"/>
		<edge from-layer="30" from-port="0" to-layer="1340" to-port="2"/>
		<edge from-layer="31" from-port="0" to-layer="1340" to-port="3"/>
		<edge from-layer="32" from-port="0" to-layer="1340" to-port="4"/>
		<edge from-layer="1345" from-port="0" to-layer="1346" to-port="0"/>
		<edge from-layer="1346" from-port="1" to-layer="1347" to-port="0"/>
		<edge from-layer="1341" from-port="0" to-layer="1347" to-port="1"/>
		<edge from-layer="1342" from-port="0" to-layer="1347" to-port="2"/>
		<edge from-layer="1343" from-port="0" to-layer="1347" to-port="3"/>
		<edge from-layer="1344" from-port="0" to-layer="1347" to-port="4"/>
		<edge from-layer="1340" from-port="5" to-layer="1348" to-port="0"/>
		<edge from-layer="1347" from-port="5" to-layer="1348" to-port="1"/>
		<edge from-layer="1349" from-port="0" to-layer="1350" to-port="0"/>
		<edge from-layer="1348" from-port="2" to-layer="1351" to-port="0"/>
		<edge from-layer="1350" from-port="1" to-layer="1351" to-port="1"/>
		<edge from-layer="1351" from-port="2" to-layer="1352" to-port="0"/>
		<edge from-layer="25" from-port="0" to-layer="1352" to-port="1"/>
		<edge from-layer="26" from-port="0" to-layer="1352" to-port="2"/>
		<edge from-layer="27" from-port="0" to-layer="1352" to-port="3"/>
		<edge from-layer="28" from-port="0" to-layer="1352" to-port="4"/>
		<edge from-layer="1357" from-port="0" to-layer="1358" to-port="0"/>
		<edge from-layer="1359" from-port="0" to-layer="1360" to-port="0"/>
		<edge from-layer="1351" from-port="2" to-layer="1361" to-port="0"/>
		<edge from-layer="1358" from-port="1" to-layer="1361" to-port="1"/>
		<edge from-layer="1360" from-port="1" to-layer="1361" to-port="2"/>
		<edge from-layer="1361" from-port="3" to-layer="1362" to-port="0"/>
		<edge from-layer="1353" from-port="0" to-layer="1362" to-port="1"/>
		<edge from-layer="1354" from-port="0" to-layer="1362" to-port="2"/>
		<edge from-layer="1355" from-port="0" to-layer="1362" to-port="3"/>
		<edge from-layer="1356" from-port="0" to-layer="1362" to-port="4"/>
		<edge from-layer="1352" from-port="5" to-layer="1363" to-port="0"/>
		<edge from-layer="1362" from-port="5" to-layer="1363" to-port="1"/>
		<edge from-layer="1363" from-port="2" to-layer="1364" to-port="0"/>
		<edge from-layer="21" from-port="0" to-layer="1364" to-port="1"/>
		<edge from-layer="22" from-port="0" to-layer="1364" to-port="2"/>
		<edge from-layer="23" from-port="0" to-layer="1364" to-port="3"/>
		<edge from-layer="24" from-port="0" to-layer="1364" to-port="4"/>
		<edge from-layer="1364" from-port="5" to-layer="1365" to-port="0"/>
		<edge from-layer="20" from-port="0" to-layer="1365" to-port="1"/>
		<edge from-layer="1365" from-port="2" to-layer="1366" to-port="0"/>
		<edge from-layer="16" from-port="0" to-layer="1366" to-port="1"/>
		<edge from-layer="17" from-port="0" to-layer="1366" to-port="2"/>
		<edge from-layer="18" from-port="0" to-layer="1366" to-port="3"/>
		<edge from-layer="19" from-port="0" to-layer="1366" to-port="4"/>
		<edge from-layer="1366" from-port="5" to-layer="1367" to-port="0"/>
		<edge from-layer="15" from-port="0" to-layer="1367" to-port="1"/>
		<edge from-layer="1367" from-port="2" to-layer="1368" to-port="0"/>
		<edge from-layer="14" from-port="5" to-layer="1368" to-port="1"/>
		<edge from-layer="1369" from-port="0" to-layer="1370" to-port="0"/>
		<edge from-layer="1368" from-port="2" to-layer="1371" to-port="0"/>
		<edge from-layer="1370" from-port="1" to-layer="1371" to-port="1"/>
		<edge from-layer="1371" from-port="2" to-layer="1372" to-port="0"/>
		<edge from-layer="4" from-port="0" to-layer="1372" to-port="1"/>
		<edge from-layer="5" from-port="0" to-layer="1372" to-port="2"/>
		<edge from-layer="6" from-port="0" to-layer="1372" to-port="3"/>
		<edge from-layer="7" from-port="0" to-layer="1372" to-port="4"/>
		<edge from-layer="1377" from-port="0" to-layer="1378" to-port="0"/>
		<edge from-layer="1379" from-port="0" to-layer="1380" to-port="0"/>
		<edge from-layer="1371" from-port="2" to-layer="1381" to-port="0"/>
		<edge from-layer="1378" from-port="1" to-layer="1381" to-port="1"/>
		<edge from-layer="1380" from-port="1" to-layer="1381" to-port="2"/>
		<edge from-layer="1381" from-port="3" to-layer="1382" to-port="0"/>
		<edge from-layer="1373" from-port="0" to-layer="1382" to-port="1"/>
		<edge from-layer="1374" from-port="0" to-layer="1382" to-port="2"/>
		<edge from-layer="1375" from-port="0" to-layer="1382" to-port="3"/>
		<edge from-layer="1376" from-port="0" to-layer="1382" to-port="4"/>
		<edge from-layer="1372" from-port="5" to-layer="1383" to-port="0"/>
		<edge from-layer="1382" from-port="5" to-layer="1383" to-port="1"/>
		<edge from-layer="1383" from-port="2" to-layer="1384" to-port="0"/>
		<edge from-layer="0" from-port="0" to-layer="1384" to-port="1"/>
		<edge from-layer="1" from-port="0" to-layer="1384" to-port="2"/>
		<edge from-layer="2" from-port="0" to-layer="1384" to-port="3"/>
		<edge from-layer="3" from-port="0" to-layer="1384" to-port="4"/>
		<edge from-layer="1389" from-port="0" to-layer="1390" to-port="0"/>
		<edge from-layer="1390" from-port="1" to-layer="1391" to-port="0"/>
		<edge from-layer="1385" from-port="0" to-layer="1391" to-port="1"/>
		<edge from-layer="1386" from-port="0" to-layer="1391" to-port="2"/>
		<edge from-layer="1387" from-port="0" to-layer="1391" to-port="3"/>
		<edge from-layer="1388" from-port="0" to-layer="1391" to-port="4"/>
		<edge from-layer="1384" from-port="5" to-layer="1392" to-port="0"/>
		<edge from-layer="1391" from-port="5" to-layer="1392" to-port="1"/>
		<edge from-layer="1393" from-port="0" to-layer="1394" to-port="0"/>
		<edge from-layer="1392" from-port="2" to-layer="1395" to-port="0"/>
		<edge from-layer="1394" from-port="1" to-layer="1395" to-port="1"/>
		<edge from-layer="1395" from-port="2" to-layer="1396" to-port="0"/>
	</edges>
	<rt_info>
		<MO_version value="2023.0.1-11005-fa1c41994f3-releases/2023/0"/>
		<Runtime_version value="2023.0.1-11005-fa1c41994f3-releases/2023/0"/>
		<conversion_parameters>
			<compress_to_fp16 value="True"/>
			<input_model value="DIR/best.onnx"/>
			<is_python_api_used value="False"/>
			<model_name value="bestfp16"/>
			<output_dir value="DIR"/>
		</conversion_parameters>
		<legacy_frontend value="False"/>
		<quantization_parameters>
			<cli_params>
				<ac_config value="None"/>
				<data_source value="None"/>
				<direct_dump value="False"/>
				<engine value="None"/>
				<evaluate value="False"/>
				<keep_uncompressed_weights value="False"/>
				<log_level value="INFO"/>
				<max_drop value="None"/>
				<model value="None"/>
				<name value="None"/>
				<output_dir value="PATH"/>
				<pbar value="False"/>
				<preset value="None"/>
				<quantize value="None"/>
				<stream_output value="False"/>
				<weights value="None"/>
			</cli_params>
			<config value="{
		'compression': {
			'target_device': 'CPU',
			'algorithms': [
				{
					'name': 'AccuracyAwareQuantization',
					'params': {
						'preset': 'performance',
						'stat_subset_size': 300,
						'maximal_drop': 0.01
					}
				}
			]
		},
		'engine': {
			'models': [
				{
					'name': 'mobileNetV3',
					'launchers': [
						{
							'framework': 'openvino',
							'device': 'CPU',
							'adapter': 'classification'
						}
					],
					'datasets': [
						{
							'name': 'classification_dataset',
							'data_source': 'PATH',
							'annotation_conversion': {
								'converter': 'imagenet',
								'annotation_file': '/home/yuesang/Pythonproject/MobileNetV3/onnxinference/int8inference/my_annotation.txt'
							},
							'reader': 'opencv_imread',
							'preprocessing': [
								{
									'type': 'resize',
									'size': 256,
									'aspect_ratio_scale': 'greater'
								},
								{
									'type': 'crop',
									'size': 224
								},
								{
									'type': 'bgr_to_rgb'
								},
								{
									'type': 'normalization',
									'mean': '(123.675, 116.28, 103.53)',
									'std': '(58.395, 57.12, 57.375)'
								}
							],
							'metrics': [
								{
									'name': 'accuracy @ top1',
									'type': 'accuracy',
									'top_k': 1
								}
							],
							'_command_line_mapping': {}
						}
					]
				}
			],
			'stat_requests_number': null,
			'eval_requests_number': null,
			'type': 'accuracy_checker'
		}
	}"/>
			<version value="2023.0.1-11005-fa1c41994f3-releases/2023/0"/>
		</quantization_parameters>
	</rt_info>
	<quantization_parameters>
		<config>{
		'compression': {
			'target_device': 'CPU',
			'algorithms': [
				{
					'name': 'AccuracyAwareQuantization',
					'params': {
						'preset': 'performance',
						'stat_subset_size': 300,
						'maximal_drop': 0.01
					}
				}
			]
		},
		'engine': {
			'models': [
				{
					'name': 'mobileNetV3',
					'launchers': [
						{
							'framework': 'openvino',
							'device': 'CPU',
							'adapter': 'classification'
						}
					],
					'datasets': [
						{
							'name': 'classification_dataset',
							'data_source': 'PATH',
							'annotation_conversion': {
								'converter': 'imagenet',
								'annotation_file': '/home/yuesang/Pythonproject/MobileNetV3/onnxinference/int8inference/my_annotation.txt'
							},
							'reader': 'opencv_imread',
							'preprocessing': [
								{
									'type': 'resize',
									'size': 256,
									'aspect_ratio_scale': 'greater'
								},
								{
									'type': 'crop',
									'size': 224
								},
								{
									'type': 'bgr_to_rgb'
								},
								{
									'type': 'normalization',
									'mean': '(123.675, 116.28, 103.53)',
									'std': '(58.395, 57.12, 57.375)'
								}
							],
							'metrics': [
								{
									'name': 'accuracy @ top1',
									'type': 'accuracy',
									'top_k': 1
								}
							],
							'_command_line_mapping': {}
						}
					]
				}
			],
			'stat_requests_number': null,
			'eval_requests_number': null,
			'type': 'accuracy_checker'
		}
	}</config>
		<version value="2023.0.1-11005-fa1c41994f3-releases/2023/0"/>
		<cli_params value="{'quantize': None, 'preset': None, 'model': None, 'weights': None, 'name': None, 'engine': None, 'ac_config': None, 'max_drop': None, 'evaluate': False, 'output_dir': 'PATH', 'direct_dump': False, 'log_level': 'INFO', 'pbar': False, 'stream_output': False, 'keep_uncompressed_weights': False, 'data_source': None}"/>
	</quantization_parameters>
</net>
