<?xml version="1.0" ?>
<net name="torch_jit" version="11">
	<layers>
		<layer id="393" name="input" type="Parameter" version="opset1">
			<data shape="1,3,224,224" element_type="f32"/>
			<rt_info>
				<attribute name="old_api_map_element_type" version="0" value="f16"/>
			</rt_info>
			<output>
				<port id="0" precision="FP32" names="input">
					<dim>1</dim>
					<dim>3</dim>
					<dim>224</dim>
					<dim>224</dim>
					<rt_info/>
				</port>
			</output>
		</layer>
		<layer id="0" name="2051205515798" type="Const" version="opset1">
			<data offset="0" size="4" shape="" element_type="f32"/>
			<output>
				<port id="0" precision="FP32"/>
			</output>
		</layer>
		<layer id="1" name="2052205615552" type="Const" version="opset1">
			<data offset="4" size="4" shape="" element_type="f32"/>
			<output>
				<port id="0" precision="FP32"/>
			</output>
		</layer>
		<layer id="2" name="2053205716008" type="Const" version="opset1">
			<data offset="0" size="4" shape="" element_type="f32"/>
			<output>
				<port id="0" precision="FP32"/>
			</output>
		</layer>
		<layer id="3" name="2054205815159" type="Const" version="opset1">
			<data offset="4" size="4" shape="" element_type="f32"/>
			<output>
				<port id="0" precision="FP32"/>
			</output>
		</layer>
		<layer id="4" name="1851185516173" type="Const" version="opset1">
			<data offset="8" size="4" shape="" element_type="f32"/>
			<output>
				<port id="0" precision="FP32"/>
			</output>
		</layer>
		<layer id="5" name="1852185616413" type="Const" version="opset1">
			<data offset="12" size="4" shape="" element_type="f32"/>
			<output>
				<port id="0" precision="FP32"/>
			</output>
		</layer>
		<layer id="6" name="1853185714934" type="Const" version="opset1">
			<data offset="8" size="4" shape="" element_type="f32"/>
			<output>
				<port id="0" precision="FP32"/>
			</output>
		</layer>
		<layer id="7" name="1854185816014" type="Const" version="opset1">
			<data offset="12" size="4" shape="" element_type="f32"/>
			<output>
				<port id="0" precision="FP32"/>
			</output>
		</layer>
		<layer id="8" name="Constant_1646104015003" type="Const" version="opset1">
			<data offset="16" size="16" shape="2" element_type="i64"/>
			<output>
				<port id="0" precision="I64">
					<dim>2</dim>
				</port>
			</output>
		</layer>
		<layer id="9" name="4540454415456" type="Const" version="opset1">
			<data offset="32" size="4" shape="" element_type="f32"/>
			<output>
				<port id="0" precision="FP32"/>
			</output>
		</layer>
		<layer id="10" name="4541454514685" type="Const" version="opset1">
			<data offset="36" size="4" shape="" element_type="f32"/>
			<output>
				<port id="0" precision="FP32"/>
			</output>
		</layer>
		<layer id="11" name="4542454614883" type="Const" version="opset1">
			<data offset="32" size="4" shape="" element_type="f32"/>
			<output>
				<port id="0" precision="FP32"/>
			</output>
		</layer>
		<layer id="12" name="4543454715357" type="Const" version="opset1">
			<data offset="36" size="4" shape="" element_type="f32"/>
			<output>
				<port id="0" precision="FP32"/>
			</output>
		</layer>
		<layer id="13" name="2991299516737" type="Const" version="opset1">
			<data offset="40" size="4" shape="" element_type="f32"/>
			<output>
				<port id="0" precision="FP32"/>
			</output>
		</layer>
		<layer id="14" name="2992299615981" type="Const" version="opset1">
			<data offset="44" size="4" shape="" element_type="f32"/>
			<output>
				<port id="0" precision="FP32"/>
			</output>
		</layer>
		<layer id="15" name="2993299715720" type="Const" version="opset1">
			<data offset="40" size="4" shape="" element_type="f32"/>
			<output>
				<port id="0" precision="FP32"/>
			</output>
		</layer>
		<layer id="16" name="2994299816188" type="Const" version="opset1">
			<data offset="44" size="4" shape="" element_type="f32"/>
			<output>
				<port id="0" precision="FP32"/>
			</output>
		</layer>
		<layer id="17" name="2651265516653" type="Const" version="opset1">
			<data offset="48" size="4" shape="" element_type="f32"/>
			<output>
				<port id="0" precision="FP32"/>
			</output>
		</layer>
		<layer id="18" name="2652265614667" type="Const" version="opset1">
			<data offset="52" size="4" shape="" element_type="f32"/>
			<output>
				<port id="0" precision="FP32"/>
			</output>
		</layer>
		<layer id="19" name="2653265714892" type="Const" version="opset1">
			<data offset="48" size="4" shape="" element_type="f32"/>
			<output>
				<port id="0" precision="FP32"/>
			</output>
		</layer>
		<layer id="20" name="2654265814955" type="Const" version="opset1">
			<data offset="52" size="4" shape="" element_type="f32"/>
			<output>
				<port id="0" precision="FP32"/>
			</output>
		</layer>
		<layer id="21" name="1891189514946" type="Const" version="opset1">
			<data offset="56" size="4" shape="" element_type="f32"/>
			<output>
				<port id="0" precision="FP32"/>
			</output>
		</layer>
		<layer id="22" name="1892189615237" type="Const" version="opset1">
			<data offset="60" size="4" shape="" element_type="f32"/>
			<output>
				<port id="0" precision="FP32"/>
			</output>
		</layer>
		<layer id="23" name="1893189715243" type="Const" version="opset1">
			<data offset="56" size="4" shape="" element_type="f32"/>
			<output>
				<port id="0" precision="FP32"/>
			</output>
		</layer>
		<layer id="24" name="1894189815468" type="Const" version="opset1">
			<data offset="60" size="4" shape="" element_type="f32"/>
			<output>
				<port id="0" precision="FP32"/>
			</output>
		</layer>
		<layer id="25" name="2151215516116" type="Const" version="opset1">
			<data offset="64" size="4" shape="" element_type="f32"/>
			<output>
				<port id="0" precision="FP32"/>
			</output>
		</layer>
		<layer id="26" name="2152215615924" type="Const" version="opset1">
			<data offset="68" size="4" shape="" element_type="f32"/>
			<output>
				<port id="0" precision="FP32"/>
			</output>
		</layer>
		<layer id="27" name="2153215715705" type="Const" version="opset1">
			<data offset="64" size="4" shape="" element_type="f32"/>
			<output>
				<port id="0" precision="FP32"/>
			</output>
		</layer>
		<layer id="28" name="2154215816317" type="Const" version="opset1">
			<data offset="68" size="4" shape="" element_type="f32"/>
			<output>
				<port id="0" precision="FP32"/>
			</output>
		</layer>
		<layer id="29" name="2721272516518" type="Const" version="opset1">
			<data offset="72" size="4" shape="" element_type="f32"/>
			<output>
				<port id="0" precision="FP32"/>
			</output>
		</layer>
		<layer id="30" name="2722272614727" type="Const" version="opset1">
			<data offset="76" size="4" shape="" element_type="f32"/>
			<output>
				<port id="0" precision="FP32"/>
			</output>
		</layer>
		<layer id="31" name="2723272715801" type="Const" version="opset1">
			<data offset="72" size="4" shape="" element_type="f32"/>
			<output>
				<port id="0" precision="FP32"/>
			</output>
		</layer>
		<layer id="32" name="2724272815138" type="Const" version="opset1">
			<data offset="76" size="4" shape="" element_type="f32"/>
			<output>
				<port id="0" precision="FP32"/>
			</output>
		</layer>
		<layer id="33" name="2781278515783" type="Const" version="opset1">
			<data offset="80" size="4" shape="" element_type="f32"/>
			<output>
				<port id="0" precision="FP32"/>
			</output>
		</layer>
		<layer id="34" name="2782278614814" type="Const" version="opset1">
			<data offset="84" size="4" shape="" element_type="f32"/>
			<output>
				<port id="0" precision="FP32"/>
			</output>
		</layer>
		<layer id="35" name="2783278714658" type="Const" version="opset1">
			<data offset="80" size="4" shape="" element_type="f32"/>
			<output>
				<port id="0" precision="FP32"/>
			</output>
		</layer>
		<layer id="36" name="2784278816017" type="Const" version="opset1">
			<data offset="84" size="4" shape="" element_type="f32"/>
			<output>
				<port id="0" precision="FP32"/>
			</output>
		</layer>
		<layer id="37" name="3441344516701" type="Const" version="opset1">
			<data offset="80" size="4" shape="" element_type="f32"/>
			<output>
				<port id="0" precision="FP32"/>
			</output>
		</layer>
		<layer id="38" name="3442344615000" type="Const" version="opset1">
			<data offset="88" size="4" shape="" element_type="f32"/>
			<output>
				<port id="0" precision="FP32"/>
			</output>
		</layer>
		<layer id="39" name="3443344715108" type="Const" version="opset1">
			<data offset="80" size="4" shape="" element_type="f32"/>
			<output>
				<port id="0" precision="FP32"/>
			</output>
		</layer>
		<layer id="40" name="3444344816311" type="Const" version="opset1">
			<data offset="88" size="4" shape="" element_type="f32"/>
			<output>
				<port id="0" precision="FP32"/>
			</output>
		</layer>
		<layer id="41" name="2071207516035" type="Const" version="opset1">
			<data offset="92" size="4" shape="" element_type="f32"/>
			<output>
				<port id="0" precision="FP32"/>
			</output>
		</layer>
		<layer id="42" name="2072207616044" type="Const" version="opset1">
			<data offset="96" size="4" shape="" element_type="f32"/>
			<output>
				<port id="0" precision="FP32"/>
			</output>
		</layer>
		<layer id="43" name="2073207714700" type="Const" version="opset1">
			<data offset="92" size="4" shape="" element_type="f32"/>
			<output>
				<port id="0" precision="FP32"/>
			</output>
		</layer>
		<layer id="44" name="2074207815531" type="Const" version="opset1">
			<data offset="96" size="4" shape="" element_type="f32"/>
			<output>
				<port id="0" precision="FP32"/>
			</output>
		</layer>
		<layer id="45" name="2671267514811" type="Const" version="opset1">
			<data offset="100" size="4" shape="" element_type="f32"/>
			<output>
				<port id="0" precision="FP32"/>
			</output>
		</layer>
		<layer id="46" name="2672267615954" type="Const" version="opset1">
			<data offset="104" size="4" shape="" element_type="f32"/>
			<output>
				<port id="0" precision="FP32"/>
			</output>
		</layer>
		<layer id="47" name="2673267715288" type="Const" version="opset1">
			<data offset="100" size="4" shape="" element_type="f32"/>
			<output>
				<port id="0" precision="FP32"/>
			</output>
		</layer>
		<layer id="48" name="2674267814970" type="Const" version="opset1">
			<data offset="104" size="4" shape="" element_type="f32"/>
			<output>
				<port id="0" precision="FP32"/>
			</output>
		</layer>
		<layer id="49" name="3021302515840" type="Const" version="opset1">
			<data offset="108" size="4" shape="" element_type="f32"/>
			<output>
				<port id="0" precision="FP32"/>
			</output>
		</layer>
		<layer id="50" name="3022302615411" type="Const" version="opset1">
			<data offset="112" size="4" shape="" element_type="f32"/>
			<output>
				<port id="0" precision="FP32"/>
			</output>
		</layer>
		<layer id="51" name="3023302715006" type="Const" version="opset1">
			<data offset="108" size="4" shape="" element_type="f32"/>
			<output>
				<port id="0" precision="FP32"/>
			</output>
		</layer>
		<layer id="52" name="3024302815501" type="Const" version="opset1">
			<data offset="112" size="4" shape="" element_type="f32"/>
			<output>
				<port id="0" precision="FP32"/>
			</output>
		</layer>
		<layer id="53" name="3281328515021" type="Const" version="opset1">
			<data offset="116" size="2304" shape="1,576,1,1" element_type="f32"/>
			<output>
				<port id="0" precision="FP32">
					<dim>1</dim>
					<dim>576</dim>
					<dim>1</dim>
					<dim>1</dim>
				</port>
			</output>
		</layer>
		<layer id="54" name="3282328616347" type="Const" version="opset1">
			<data offset="2420" size="2304" shape="1,576,1,1" element_type="f32"/>
			<output>
				<port id="0" precision="FP32">
					<dim>1</dim>
					<dim>576</dim>
					<dim>1</dim>
					<dim>1</dim>
				</port>
			</output>
		</layer>
		<layer id="55" name="3283328716026" type="Const" version="opset1">
			<data offset="116" size="2304" shape="1,576,1,1" element_type="f32"/>
			<output>
				<port id="0" precision="FP32">
					<dim>1</dim>
					<dim>576</dim>
					<dim>1</dim>
					<dim>1</dim>
				</port>
			</output>
		</layer>
		<layer id="56" name="3284328815279" type="Const" version="opset1">
			<data offset="2420" size="2304" shape="1,576,1,1" element_type="f32"/>
			<output>
				<port id="0" precision="FP32">
					<dim>1</dim>
					<dim>576</dim>
					<dim>1</dim>
					<dim>1</dim>
				</port>
			</output>
		</layer>
		<layer id="57" name="2861286515240" type="Const" version="opset1">
			<data offset="4724" size="4" shape="" element_type="f32"/>
			<output>
				<port id="0" precision="FP32"/>
			</output>
		</layer>
		<layer id="58" name="2862286615432" type="Const" version="opset1">
			<data offset="4728" size="4" shape="" element_type="f32"/>
			<output>
				<port id="0" precision="FP32"/>
			</output>
		</layer>
		<layer id="59" name="2863286715327" type="Const" version="opset1">
			<data offset="4724" size="4" shape="" element_type="f32"/>
			<output>
				<port id="0" precision="FP32"/>
			</output>
		</layer>
		<layer id="60" name="2864286815645" type="Const" version="opset1">
			<data offset="4728" size="4" shape="" element_type="f32"/>
			<output>
				<port id="0" precision="FP32"/>
			</output>
		</layer>
		<layer id="61" name="2161216514820" type="Const" version="opset1">
			<data offset="4732" size="4" shape="" element_type="f32"/>
			<output>
				<port id="0" precision="FP32"/>
			</output>
		</layer>
		<layer id="62" name="2162216616449" type="Const" version="opset1">
			<data offset="4736" size="4" shape="" element_type="f32"/>
			<output>
				<port id="0" precision="FP32"/>
			</output>
		</layer>
		<layer id="63" name="2163216716563" type="Const" version="opset1">
			<data offset="4732" size="4" shape="" element_type="f32"/>
			<output>
				<port id="0" precision="FP32"/>
			</output>
		</layer>
		<layer id="64" name="2164216816593" type="Const" version="opset1">
			<data offset="4736" size="4" shape="" element_type="f32"/>
			<output>
				<port id="0" precision="FP32"/>
			</output>
		</layer>
		<layer id="65" name="3221322516389" type="Const" version="opset1">
			<data offset="4740" size="4" shape="" element_type="f32"/>
			<output>
				<port id="0" precision="FP32"/>
			</output>
		</layer>
		<layer id="66" name="3222322615111" type="Const" version="opset1">
			<data offset="4744" size="4" shape="" element_type="f32"/>
			<output>
				<port id="0" precision="FP32"/>
			</output>
		</layer>
		<layer id="67" name="3223322714733" type="Const" version="opset1">
			<data offset="4740" size="4" shape="" element_type="f32"/>
			<output>
				<port id="0" precision="FP32"/>
			</output>
		</layer>
		<layer id="68" name="3224322816719" type="Const" version="opset1">
			<data offset="4744" size="4" shape="" element_type="f32"/>
			<output>
				<port id="0" precision="FP32"/>
			</output>
		</layer>
		<layer id="69" name="2011201515426" type="Const" version="opset1">
			<data offset="4748" size="4" shape="" element_type="f32"/>
			<output>
				<port id="0" precision="FP32"/>
			</output>
		</layer>
		<layer id="70" name="2012201614817" type="Const" version="opset1">
			<data offset="4752" size="4" shape="" element_type="f32"/>
			<output>
				<port id="0" precision="FP32"/>
			</output>
		</layer>
		<layer id="71" name="2013201715513" type="Const" version="opset1">
			<data offset="4748" size="4" shape="" element_type="f32"/>
			<output>
				<port id="0" precision="FP32"/>
			</output>
		</layer>
		<layer id="72" name="2014201814793" type="Const" version="opset1">
			<data offset="4752" size="4" shape="" element_type="f32"/>
			<output>
				<port id="0" precision="FP32"/>
			</output>
		</layer>
		<layer id="73" name="3101310516479" type="Const" version="opset1">
			<data offset="80" size="4" shape="" element_type="f32"/>
			<output>
				<port id="0" precision="FP32"/>
			</output>
		</layer>
		<layer id="74" name="3102310614703" type="Const" version="opset1">
			<data offset="84" size="4" shape="" element_type="f32"/>
			<output>
				<port id="0" precision="FP32"/>
			</output>
		</layer>
		<layer id="75" name="3103310716002" type="Const" version="opset1">
			<data offset="80" size="4" shape="" element_type="f32"/>
			<output>
				<port id="0" precision="FP32"/>
			</output>
		</layer>
		<layer id="76" name="3104310816728" type="Const" version="opset1">
			<data offset="84" size="4" shape="" element_type="f32"/>
			<output>
				<port id="0" precision="FP32"/>
			</output>
		</layer>
		<layer id="77" name="3121312516578" type="Const" version="opset1">
			<data offset="80" size="4" shape="" element_type="f32"/>
			<output>
				<port id="0" precision="FP32"/>
			</output>
		</layer>
		<layer id="78" name="3122312615078" type="Const" version="opset1">
			<data offset="4756" size="4" shape="" element_type="f32"/>
			<output>
				<port id="0" precision="FP32"/>
			</output>
		</layer>
		<layer id="79" name="3123312716605" type="Const" version="opset1">
			<data offset="80" size="4" shape="" element_type="f32"/>
			<output>
				<port id="0" precision="FP32"/>
			</output>
		</layer>
		<layer id="80" name="3124312814652" type="Const" version="opset1">
			<data offset="4756" size="4" shape="" element_type="f32"/>
			<output>
				<port id="0" precision="FP32"/>
			</output>
		</layer>
		<layer id="81" name="2941294516401" type="Const" version="opset1">
			<data offset="4760" size="4" shape="" element_type="f32"/>
			<output>
				<port id="0" precision="FP32"/>
			</output>
		</layer>
		<layer id="82" name="2942294615837" type="Const" version="opset1">
			<data offset="4764" size="4" shape="" element_type="f32"/>
			<output>
				<port id="0" precision="FP32"/>
			</output>
		</layer>
		<layer id="83" name="2943294715582" type="Const" version="opset1">
			<data offset="4760" size="4" shape="" element_type="f32"/>
			<output>
				<port id="0" precision="FP32"/>
			</output>
		</layer>
		<layer id="84" name="2944294814625" type="Const" version="opset1">
			<data offset="4764" size="4" shape="" element_type="f32"/>
			<output>
				<port id="0" precision="FP32"/>
			</output>
		</layer>
		<layer id="85" name="1841184516341" type="Const" version="opset1">
			<data offset="4768" size="4" shape="" element_type="f32"/>
			<output>
				<port id="0" precision="FP32"/>
			</output>
		</layer>
		<layer id="86" name="1842184616536" type="Const" version="opset1">
			<data offset="4772" size="4" shape="" element_type="f32"/>
			<output>
				<port id="0" precision="FP32"/>
			</output>
		</layer>
		<layer id="87" name="1843184715639" type="Const" version="opset1">
			<data offset="4768" size="4" shape="" element_type="f32"/>
			<output>
				<port id="0" precision="FP32"/>
			</output>
		</layer>
		<layer id="88" name="1844184816227" type="Const" version="opset1">
			<data offset="4772" size="4" shape="" element_type="f32"/>
			<output>
				<port id="0" precision="FP32"/>
			</output>
		</layer>
		<layer id="89" name="3461346514640" type="Const" version="opset1">
			<data offset="4776" size="4" shape="" element_type="f32"/>
			<output>
				<port id="0" precision="FP32"/>
			</output>
		</layer>
		<layer id="90" name="3462346615558" type="Const" version="opset1">
			<data offset="4780" size="4" shape="" element_type="f32"/>
			<output>
				<port id="0" precision="FP32"/>
			</output>
		</layer>
		<layer id="91" name="3463346716485" type="Const" version="opset1">
			<data offset="4776" size="4" shape="" element_type="f32"/>
			<output>
				<port id="0" precision="FP32"/>
			</output>
		</layer>
		<layer id="92" name="3464346814916" type="Const" version="opset1">
			<data offset="4780" size="4" shape="" element_type="f32"/>
			<output>
				<port id="0" precision="FP32"/>
			</output>
		</layer>
		<layer id="93" name="2921292514841" type="Const" version="opset1">
			<data offset="4784" size="2304" shape="1,576,1,1" element_type="f32"/>
			<output>
				<port id="0" precision="FP32">
					<dim>1</dim>
					<dim>576</dim>
					<dim>1</dim>
					<dim>1</dim>
				</port>
			</output>
		</layer>
		<layer id="94" name="2922292615474" type="Const" version="opset1">
			<data offset="7088" size="2304" shape="1,576,1,1" element_type="f32"/>
			<output>
				<port id="0" precision="FP32">
					<dim>1</dim>
					<dim>576</dim>
					<dim>1</dim>
					<dim>1</dim>
				</port>
			</output>
		</layer>
		<layer id="95" name="2923292716581" type="Const" version="opset1">
			<data offset="4784" size="2304" shape="1,576,1,1" element_type="f32"/>
			<output>
				<port id="0" precision="FP32">
					<dim>1</dim>
					<dim>576</dim>
					<dim>1</dim>
					<dim>1</dim>
				</port>
			</output>
		</layer>
		<layer id="96" name="2924292816677" type="Const" version="opset1">
			<data offset="7088" size="2304" shape="1,576,1,1" element_type="f32"/>
			<output>
				<port id="0" precision="FP32">
					<dim>1</dim>
					<dim>576</dim>
					<dim>1</dim>
					<dim>1</dim>
				</port>
			</output>
		</layer>
		<layer id="97" name="2551255516362" type="Const" version="opset1">
			<data offset="9392" size="4" shape="" element_type="f32"/>
			<output>
				<port id="0" precision="FP32"/>
			</output>
		</layer>
		<layer id="98" name="2552255616350" type="Const" version="opset1">
			<data offset="9396" size="4" shape="" element_type="f32"/>
			<output>
				<port id="0" precision="FP32"/>
			</output>
		</layer>
		<layer id="99" name="2553255714766" type="Const" version="opset1">
			<data offset="9392" size="4" shape="" element_type="f32"/>
			<output>
				<port id="0" precision="FP32"/>
			</output>
		</layer>
		<layer id="100" name="2554255816005" type="Const" version="opset1">
			<data offset="9396" size="4" shape="" element_type="f32"/>
			<output>
				<port id="0" precision="FP32"/>
			</output>
		</layer>
		<layer id="101" name="3231323516461" type="Const" version="opset1">
			<data offset="9400" size="4" shape="" element_type="f32"/>
			<output>
				<port id="0" precision="FP32"/>
			</output>
		</layer>
		<layer id="102" name="3232323614682" type="Const" version="opset1">
			<data offset="9404" size="4" shape="" element_type="f32"/>
			<output>
				<port id="0" precision="FP32"/>
			</output>
		</layer>
		<layer id="103" name="3233323715633" type="Const" version="opset1">
			<data offset="9400" size="4" shape="" element_type="f32"/>
			<output>
				<port id="0" precision="FP32"/>
			</output>
		</layer>
		<layer id="104" name="3234323815036" type="Const" version="opset1">
			<data offset="9404" size="4" shape="" element_type="f32"/>
			<output>
				<port id="0" precision="FP32"/>
			</output>
		</layer>
		<layer id="105" name="3561356514973" type="Const" version="opset1">
			<data offset="9408" size="4" shape="" element_type="f32"/>
			<output>
				<port id="0" precision="FP32"/>
			</output>
		</layer>
		<layer id="106" name="3562356615378" type="Const" version="opset1">
			<data offset="9412" size="4" shape="" element_type="f32"/>
			<output>
				<port id="0" precision="FP32"/>
			</output>
		</layer>
		<layer id="107" name="3563356715609" type="Const" version="opset1">
			<data offset="9408" size="4" shape="" element_type="f32"/>
			<output>
				<port id="0" precision="FP32"/>
			</output>
		</layer>
		<layer id="108" name="3564356815186" type="Const" version="opset1">
			<data offset="9412" size="4" shape="" element_type="f32"/>
			<output>
				<port id="0" precision="FP32"/>
			</output>
		</layer>
		<layer id="109" name="3001300515732" type="Const" version="opset1">
			<data offset="80" size="4" shape="" element_type="f32"/>
			<output>
				<port id="0" precision="FP32"/>
			</output>
		</layer>
		<layer id="110" name="3002300616458" type="Const" version="opset1">
			<data offset="84" size="4" shape="" element_type="f32"/>
			<output>
				<port id="0" precision="FP32"/>
			</output>
		</layer>
		<layer id="111" name="3003300715180" type="Const" version="opset1">
			<data offset="80" size="4" shape="" element_type="f32"/>
			<output>
				<port id="0" precision="FP32"/>
			</output>
		</layer>
		<layer id="112" name="3004300816146" type="Const" version="opset1">
			<data offset="84" size="4" shape="" element_type="f32"/>
			<output>
				<port id="0" precision="FP32"/>
			</output>
		</layer>
		<layer id="113" name="3401340515027" type="Const" version="opset1">
			<data offset="80" size="4" shape="" element_type="f32"/>
			<output>
				<port id="0" precision="FP32"/>
			</output>
		</layer>
		<layer id="114" name="3402340615018" type="Const" version="opset1">
			<data offset="9416" size="4" shape="" element_type="f32"/>
			<output>
				<port id="0" precision="FP32"/>
			</output>
		</layer>
		<layer id="115" name="3403340716722" type="Const" version="opset1">
			<data offset="80" size="4" shape="" element_type="f32"/>
			<output>
				<port id="0" precision="FP32"/>
			</output>
		</layer>
		<layer id="116" name="3404340816110" type="Const" version="opset1">
			<data offset="9416" size="4" shape="" element_type="f32"/>
			<output>
				<port id="0" precision="FP32"/>
			</output>
		</layer>
		<layer id="117" name="2471247515768" type="Const" version="opset1">
			<data offset="9420" size="4" shape="" element_type="f32"/>
			<output>
				<port id="0" precision="FP32"/>
			</output>
		</layer>
		<layer id="118" name="2472247616053" type="Const" version="opset1">
			<data offset="9424" size="4" shape="" element_type="f32"/>
			<output>
				<port id="0" precision="FP32"/>
			</output>
		</layer>
		<layer id="119" name="2473247716590" type="Const" version="opset1">
			<data offset="9420" size="4" shape="" element_type="f32"/>
			<output>
				<port id="0" precision="FP32"/>
			</output>
		</layer>
		<layer id="120" name="2474247816356" type="Const" version="opset1">
			<data offset="9424" size="4" shape="" element_type="f32"/>
			<output>
				<port id="0" precision="FP32"/>
			</output>
		</layer>
		<layer id="121" name="2211221514928" type="Const" version="opset1">
			<data offset="9428" size="4" shape="" element_type="f32"/>
			<output>
				<port id="0" precision="FP32"/>
			</output>
		</layer>
		<layer id="122" name="2212221616611" type="Const" version="opset1">
			<data offset="9432" size="4" shape="" element_type="f32"/>
			<output>
				<port id="0" precision="FP32"/>
			</output>
		</layer>
		<layer id="123" name="2213221716308" type="Const" version="opset1">
			<data offset="9428" size="4" shape="" element_type="f32"/>
			<output>
				<port id="0" precision="FP32"/>
			</output>
		</layer>
		<layer id="124" name="2214221815390" type="Const" version="opset1">
			<data offset="9432" size="4" shape="" element_type="f32"/>
			<output>
				<port id="0" precision="FP32"/>
			</output>
		</layer>
		<layer id="125" name="2341234515525" type="Const" version="opset1">
			<data offset="9436" size="4" shape="" element_type="f32"/>
			<output>
				<port id="0" precision="FP32"/>
			</output>
		</layer>
		<layer id="126" name="2342234616680" type="Const" version="opset1">
			<data offset="9440" size="4" shape="" element_type="f32"/>
			<output>
				<port id="0" precision="FP32"/>
			</output>
		</layer>
		<layer id="127" name="2343234715153" type="Const" version="opset1">
			<data offset="9436" size="4" shape="" element_type="f32"/>
			<output>
				<port id="0" precision="FP32"/>
			</output>
		</layer>
		<layer id="128" name="2344234815258" type="Const" version="opset1">
			<data offset="9440" size="4" shape="" element_type="f32"/>
			<output>
				<port id="0" precision="FP32"/>
			</output>
		</layer>
		<layer id="129" name="2901290516119" type="Const" version="opset1">
			<data offset="9444" size="1152" shape="1,288,1,1" element_type="f32"/>
			<output>
				<port id="0" precision="FP32">
					<dim>1</dim>
					<dim>288</dim>
					<dim>1</dim>
					<dim>1</dim>
				</port>
			</output>
		</layer>
		<layer id="130" name="2902290616548" type="Const" version="opset1">
			<data offset="10596" size="1152" shape="1,288,1,1" element_type="f32"/>
			<output>
				<port id="0" precision="FP32">
					<dim>1</dim>
					<dim>288</dim>
					<dim>1</dim>
					<dim>1</dim>
				</port>
			</output>
		</layer>
		<layer id="131" name="2903290715315" type="Const" version="opset1">
			<data offset="9444" size="1152" shape="1,288,1,1" element_type="f32"/>
			<output>
				<port id="0" precision="FP32">
					<dim>1</dim>
					<dim>288</dim>
					<dim>1</dim>
					<dim>1</dim>
				</port>
			</output>
		</layer>
		<layer id="132" name="2904290815669" type="Const" version="opset1">
			<data offset="10596" size="1152" shape="1,288,1,1" element_type="f32"/>
			<output>
				<port id="0" precision="FP32">
					<dim>1</dim>
					<dim>288</dim>
					<dim>1</dim>
					<dim>1</dim>
				</port>
			</output>
		</layer>
		<layer id="133" name="2741274515735" type="Const" version="opset1">
			<data offset="11748" size="4" shape="" element_type="f32"/>
			<output>
				<port id="0" precision="FP32"/>
			</output>
		</layer>
		<layer id="134" name="2742274615996" type="Const" version="opset1">
			<data offset="11752" size="4" shape="" element_type="f32"/>
			<output>
				<port id="0" precision="FP32"/>
			</output>
		</layer>
		<layer id="135" name="2743274714664" type="Const" version="opset1">
			<data offset="11748" size="4" shape="" element_type="f32"/>
			<output>
				<port id="0" precision="FP32"/>
			</output>
		</layer>
		<layer id="136" name="2744274815960" type="Const" version="opset1">
			<data offset="11752" size="4" shape="" element_type="f32"/>
			<output>
				<port id="0" precision="FP32"/>
			</output>
		</layer>
		<layer id="137" name="2841284515462" type="Const" version="opset1">
			<data offset="11756" size="4" shape="" element_type="f32"/>
			<output>
				<port id="0" precision="FP32"/>
			</output>
		</layer>
		<layer id="138" name="2842284616497" type="Const" version="opset1">
			<data offset="11760" size="4" shape="" element_type="f32"/>
			<output>
				<port id="0" precision="FP32"/>
			</output>
		</layer>
		<layer id="139" name="2843284715771" type="Const" version="opset1">
			<data offset="11756" size="4" shape="" element_type="f32"/>
			<output>
				<port id="0" precision="FP32"/>
			</output>
		</layer>
		<layer id="140" name="2844284816257" type="Const" version="opset1">
			<data offset="11760" size="4" shape="" element_type="f32"/>
			<output>
				<port id="0" precision="FP32"/>
			</output>
		</layer>
		<layer id="141" name="3481348516293" type="Const" version="opset1">
			<data offset="11764" size="4" shape="" element_type="f32"/>
			<output>
				<port id="0" precision="FP32"/>
			</output>
		</layer>
		<layer id="142" name="3482348615213" type="Const" version="opset1">
			<data offset="11768" size="4" shape="" element_type="f32"/>
			<output>
				<port id="0" precision="FP32"/>
			</output>
		</layer>
		<layer id="143" name="3483348715528" type="Const" version="opset1">
			<data offset="11764" size="4" shape="" element_type="f32"/>
			<output>
				<port id="0" precision="FP32"/>
			</output>
		</layer>
		<layer id="144" name="3484348815807" type="Const" version="opset1">
			<data offset="11768" size="4" shape="" element_type="f32"/>
			<output>
				<port id="0" precision="FP32"/>
			</output>
		</layer>
		<layer id="145" name="2241224516170" type="Const" version="opset1">
			<data offset="11772" size="4" shape="" element_type="f32"/>
			<output>
				<port id="0" precision="FP32"/>
			</output>
		</layer>
		<layer id="146" name="2242224616491" type="Const" version="opset1">
			<data offset="11776" size="4" shape="" element_type="f32"/>
			<output>
				<port id="0" precision="FP32"/>
			</output>
		</layer>
		<layer id="147" name="2243224714688" type="Const" version="opset1">
			<data offset="11772" size="4" shape="" element_type="f32"/>
			<output>
				<port id="0" precision="FP32"/>
			</output>
		</layer>
		<layer id="148" name="2244224815114" type="Const" version="opset1">
			<data offset="11776" size="4" shape="" element_type="f32"/>
			<output>
				<port id="0" precision="FP32"/>
			</output>
		</layer>
		<layer id="149" name="2581258515747" type="Const" version="opset1">
			<data offset="80" size="4" shape="" element_type="f32"/>
			<output>
				<port id="0" precision="FP32"/>
			</output>
		</layer>
		<layer id="150" name="2582258616131" type="Const" version="opset1">
			<data offset="84" size="4" shape="" element_type="f32"/>
			<output>
				<port id="0" precision="FP32"/>
			</output>
		</layer>
		<layer id="151" name="2583258714622" type="Const" version="opset1">
			<data offset="80" size="4" shape="" element_type="f32"/>
			<output>
				<port id="0" precision="FP32"/>
			</output>
		</layer>
		<layer id="152" name="2584258815687" type="Const" version="opset1">
			<data offset="84" size="4" shape="" element_type="f32"/>
			<output>
				<port id="0" precision="FP32"/>
			</output>
		</layer>
		<layer id="153" name="1801180514724" type="Const" version="opset1">
			<data offset="80" size="4" shape="" element_type="f32"/>
			<output>
				<port id="0" precision="FP32"/>
			</output>
		</layer>
		<layer id="154" name="1802180616398" type="Const" version="opset1">
			<data offset="11780" size="4" shape="" element_type="f32"/>
			<output>
				<port id="0" precision="FP32"/>
			</output>
		</layer>
		<layer id="155" name="1803180716734" type="Const" version="opset1">
			<data offset="80" size="4" shape="" element_type="f32"/>
			<output>
				<port id="0" precision="FP32"/>
			</output>
		</layer>
		<layer id="156" name="1804180815993" type="Const" version="opset1">
			<data offset="11780" size="4" shape="" element_type="f32"/>
			<output>
				<port id="0" precision="FP32"/>
			</output>
		</layer>
		<layer id="157" name="2281228515603" type="Const" version="opset1">
			<data offset="11784" size="4" shape="" element_type="f32"/>
			<output>
				<port id="0" precision="FP32"/>
			</output>
		</layer>
		<layer id="158" name="2282228614838" type="Const" version="opset1">
			<data offset="11788" size="4" shape="" element_type="f32"/>
			<output>
				<port id="0" precision="FP32"/>
			</output>
		</layer>
		<layer id="159" name="2283228716482" type="Const" version="opset1">
			<data offset="11784" size="4" shape="" element_type="f32"/>
			<output>
				<port id="0" precision="FP32"/>
			</output>
		</layer>
		<layer id="160" name="2284228815156" type="Const" version="opset1">
			<data offset="11788" size="4" shape="" element_type="f32"/>
			<output>
				<port id="0" precision="FP32"/>
			</output>
		</layer>
		<layer id="161" name="2361236515084" type="Const" version="opset1">
			<data offset="11792" size="4" shape="" element_type="f32"/>
			<output>
				<port id="0" precision="FP32"/>
			</output>
		</layer>
		<layer id="162" name="2362236615519" type="Const" version="opset1">
			<data offset="11796" size="4" shape="" element_type="f32"/>
			<output>
				<port id="0" precision="FP32"/>
			</output>
		</layer>
		<layer id="163" name="2363236716137" type="Const" version="opset1">
			<data offset="11792" size="4" shape="" element_type="f32"/>
			<output>
				<port id="0" precision="FP32"/>
			</output>
		</layer>
		<layer id="164" name="2364236815693" type="Const" version="opset1">
			<data offset="11796" size="4" shape="" element_type="f32"/>
			<output>
				<port id="0" precision="FP32"/>
			</output>
		</layer>
		<layer id="165" name="1821182516404" type="Const" version="opset1">
			<data offset="11800" size="4" shape="" element_type="f32"/>
			<output>
				<port id="0" precision="FP32"/>
			</output>
		</layer>
		<layer id="166" name="1822182615618" type="Const" version="opset1">
			<data offset="11804" size="4" shape="" element_type="f32"/>
			<output>
				<port id="0" precision="FP32"/>
			</output>
		</layer>
		<layer id="167" name="1823182716554" type="Const" version="opset1">
			<data offset="11800" size="4" shape="" element_type="f32"/>
			<output>
				<port id="0" precision="FP32"/>
			</output>
		</layer>
		<layer id="168" name="1824182815831" type="Const" version="opset1">
			<data offset="11804" size="4" shape="" element_type="f32"/>
			<output>
				<port id="0" precision="FP32"/>
			</output>
		</layer>
		<layer id="169" name="2221222516185" type="Const" version="opset1">
			<data offset="11808" size="576" shape="1,144,1,1" element_type="f32"/>
			<output>
				<port id="0" precision="FP32">
					<dim>1</dim>
					<dim>144</dim>
					<dim>1</dim>
					<dim>1</dim>
				</port>
			</output>
		</layer>
		<layer id="170" name="2222222615249" type="Const" version="opset1">
			<data offset="12384" size="576" shape="1,144,1,1" element_type="f32"/>
			<output>
				<port id="0" precision="FP32">
					<dim>1</dim>
					<dim>144</dim>
					<dim>1</dim>
					<dim>1</dim>
				</port>
			</output>
		</layer>
		<layer id="171" name="2223222715402" type="Const" version="opset1">
			<data offset="11808" size="576" shape="1,144,1,1" element_type="f32"/>
			<output>
				<port id="0" precision="FP32">
					<dim>1</dim>
					<dim>144</dim>
					<dim>1</dim>
					<dim>1</dim>
				</port>
			</output>
		</layer>
		<layer id="172" name="2224222815855" type="Const" version="opset1">
			<data offset="12384" size="576" shape="1,144,1,1" element_type="f32"/>
			<output>
				<port id="0" precision="FP32">
					<dim>1</dim>
					<dim>144</dim>
					<dim>1</dim>
					<dim>1</dim>
				</port>
			</output>
		</layer>
		<layer id="173" name="2431243516386" type="Const" version="opset1">
			<data offset="12960" size="4" shape="" element_type="f32"/>
			<output>
				<port id="0" precision="FP32"/>
			</output>
		</layer>
		<layer id="174" name="2432243615282" type="Const" version="opset1">
			<data offset="12964" size="4" shape="" element_type="f32"/>
			<output>
				<port id="0" precision="FP32"/>
			</output>
		</layer>
		<layer id="175" name="2433243716281" type="Const" version="opset1">
			<data offset="12960" size="4" shape="" element_type="f32"/>
			<output>
				<port id="0" precision="FP32"/>
			</output>
		</layer>
		<layer id="176" name="2434243816446" type="Const" version="opset1">
			<data offset="12964" size="4" shape="" element_type="f32"/>
			<output>
				<port id="0" precision="FP32"/>
			</output>
		</layer>
		<layer id="177" name="3491349516314" type="Const" version="opset1">
			<data offset="12968" size="4" shape="" element_type="f32"/>
			<output>
				<port id="0" precision="FP32"/>
			</output>
		</layer>
		<layer id="178" name="3492349614847" type="Const" version="opset1">
			<data offset="12972" size="4" shape="" element_type="f32"/>
			<output>
				<port id="0" precision="FP32"/>
			</output>
		</layer>
		<layer id="179" name="3493349714832" type="Const" version="opset1">
			<data offset="12968" size="4" shape="" element_type="f32"/>
			<output>
				<port id="0" precision="FP32"/>
			</output>
		</layer>
		<layer id="180" name="3494349815738" type="Const" version="opset1">
			<data offset="12972" size="4" shape="" element_type="f32"/>
			<output>
				<port id="0" precision="FP32"/>
			</output>
		</layer>
		<layer id="181" name="2171217515711" type="Const" version="opset1">
			<data offset="12976" size="4" shape="" element_type="f32"/>
			<output>
				<port id="0" precision="FP32"/>
			</output>
		</layer>
		<layer id="182" name="2172217615333" type="Const" version="opset1">
			<data offset="12980" size="4" shape="" element_type="f32"/>
			<output>
				<port id="0" precision="FP32"/>
			</output>
		</layer>
		<layer id="183" name="2173217716410" type="Const" version="opset1">
			<data offset="12976" size="4" shape="" element_type="f32"/>
			<output>
				<port id="0" precision="FP32"/>
			</output>
		</layer>
		<layer id="184" name="2174217815033" type="Const" version="opset1">
			<data offset="12980" size="4" shape="" element_type="f32"/>
			<output>
				<port id="0" precision="FP32"/>
			</output>
		</layer>
		<layer id="185" name="2401240515231" type="Const" version="opset1">
			<data offset="80" size="4" shape="" element_type="f32"/>
			<output>
				<port id="0" precision="FP32"/>
			</output>
		</layer>
		<layer id="186" name="2402240616290" type="Const" version="opset1">
			<data offset="12984" size="4" shape="" element_type="f32"/>
			<output>
				<port id="0" precision="FP32"/>
			</output>
		</layer>
		<layer id="187" name="2403240715171" type="Const" version="opset1">
			<data offset="80" size="4" shape="" element_type="f32"/>
			<output>
				<port id="0" precision="FP32"/>
			</output>
		</layer>
		<layer id="188" name="2404240816302" type="Const" version="opset1">
			<data offset="12984" size="4" shape="" element_type="f32"/>
			<output>
				<port id="0" precision="FP32"/>
			</output>
		</layer>
		<layer id="189" name="1871187515675" type="Const" version="opset1">
			<data offset="80" size="4" shape="" element_type="f32"/>
			<output>
				<port id="0" precision="FP32"/>
			</output>
		</layer>
		<layer id="190" name="1872187616716" type="Const" version="opset1">
			<data offset="12988" size="4" shape="" element_type="f32"/>
			<output>
				<port id="0" precision="FP32"/>
			</output>
		</layer>
		<layer id="191" name="1873187714751" type="Const" version="opset1">
			<data offset="80" size="4" shape="" element_type="f32"/>
			<output>
				<port id="0" precision="FP32"/>
			</output>
		</layer>
		<layer id="192" name="1874187815417" type="Const" version="opset1">
			<data offset="12988" size="4" shape="" element_type="f32"/>
			<output>
				<port id="0" precision="FP32"/>
			</output>
		</layer>
		<layer id="193" name="3521352515492" type="Const" version="opset1">
			<data offset="12992" size="4" shape="" element_type="f32"/>
			<output>
				<port id="0" precision="FP32"/>
			</output>
		</layer>
		<layer id="194" name="3522352615843" type="Const" version="opset1">
			<data offset="12996" size="4" shape="" element_type="f32"/>
			<output>
				<port id="0" precision="FP32"/>
			</output>
		</layer>
		<layer id="195" name="3523352715969" type="Const" version="opset1">
			<data offset="12992" size="4" shape="" element_type="f32"/>
			<output>
				<port id="0" precision="FP32"/>
			</output>
		</layer>
		<layer id="196" name="3524352816275" type="Const" version="opset1">
			<data offset="12996" size="4" shape="" element_type="f32"/>
			<output>
				<port id="0" precision="FP32"/>
			</output>
		</layer>
		<layer id="197" name="2601260515291" type="Const" version="opset1">
			<data offset="13000" size="4" shape="" element_type="f32"/>
			<output>
				<port id="0" precision="FP32"/>
			</output>
		</layer>
		<layer id="198" name="2602260614655" type="Const" version="opset1">
			<data offset="13004" size="4" shape="" element_type="f32"/>
			<output>
				<port id="0" precision="FP32"/>
			</output>
		</layer>
		<layer id="199" name="2603260716098" type="Const" version="opset1">
			<data offset="13000" size="4" shape="" element_type="f32"/>
			<output>
				<port id="0" precision="FP32"/>
			</output>
		</layer>
		<layer id="200" name="2604260816050" type="Const" version="opset1">
			<data offset="13004" size="4" shape="" element_type="f32"/>
			<output>
				<port id="0" precision="FP32"/>
			</output>
		</layer>
		<layer id="201" name="2321232515201" type="Const" version="opset1">
			<data offset="13008" size="4" shape="" element_type="f32"/>
			<output>
				<port id="0" precision="FP32"/>
			</output>
		</layer>
		<layer id="202" name="2322232615897" type="Const" version="opset1">
			<data offset="13012" size="4" shape="" element_type="f32"/>
			<output>
				<port id="0" precision="FP32"/>
			</output>
		</layer>
		<layer id="203" name="2323232715990" type="Const" version="opset1">
			<data offset="13008" size="4" shape="" element_type="f32"/>
			<output>
				<port id="0" precision="FP32"/>
			</output>
		</layer>
		<layer id="204" name="2324232815600" type="Const" version="opset1">
			<data offset="13012" size="4" shape="" element_type="f32"/>
			<output>
				<port id="0" precision="FP32"/>
			</output>
		</layer>
		<layer id="205" name="2701270515210" type="Const" version="opset1">
			<data offset="13016" size="480" shape="1,120,1,1" element_type="f32"/>
			<output>
				<port id="0" precision="FP32">
					<dim>1</dim>
					<dim>120</dim>
					<dim>1</dim>
					<dim>1</dim>
				</port>
			</output>
		</layer>
		<layer id="206" name="2702270615351" type="Const" version="opset1">
			<data offset="13496" size="480" shape="1,120,1,1" element_type="f32"/>
			<output>
				<port id="0" precision="FP32">
					<dim>1</dim>
					<dim>120</dim>
					<dim>1</dim>
					<dim>1</dim>
				</port>
			</output>
		</layer>
		<layer id="207" name="2703270716566" type="Const" version="opset1">
			<data offset="13016" size="480" shape="1,120,1,1" element_type="f32"/>
			<output>
				<port id="0" precision="FP32">
					<dim>1</dim>
					<dim>120</dim>
					<dim>1</dim>
					<dim>1</dim>
				</port>
			</output>
		</layer>
		<layer id="208" name="2704270814889" type="Const" version="opset1">
			<data offset="13496" size="480" shape="1,120,1,1" element_type="f32"/>
			<output>
				<port id="0" precision="FP32">
					<dim>1</dim>
					<dim>120</dim>
					<dim>1</dim>
					<dim>1</dim>
				</port>
			</output>
		</layer>
		<layer id="209" name="2261226515651" type="Const" version="opset1">
			<data offset="13976" size="4" shape="" element_type="f32"/>
			<output>
				<port id="0" precision="FP32"/>
			</output>
		</layer>
		<layer id="210" name="2262226614796" type="Const" version="opset1">
			<data offset="13980" size="4" shape="" element_type="f32"/>
			<output>
				<port id="0" precision="FP32"/>
			</output>
		</layer>
		<layer id="211" name="2263226715420" type="Const" version="opset1">
			<data offset="13976" size="4" shape="" element_type="f32"/>
			<output>
				<port id="0" precision="FP32"/>
			</output>
		</layer>
		<layer id="212" name="2264226815480" type="Const" version="opset1">
			<data offset="13980" size="4" shape="" element_type="f32"/>
			<output>
				<port id="0" precision="FP32"/>
			</output>
		</layer>
		<layer id="213" name="2111211516071" type="Const" version="opset1">
			<data offset="13984" size="4" shape="" element_type="f32"/>
			<output>
				<port id="0" precision="FP32"/>
			</output>
		</layer>
		<layer id="214" name="2112211616194" type="Const" version="opset1">
			<data offset="13988" size="4" shape="" element_type="f32"/>
			<output>
				<port id="0" precision="FP32"/>
			</output>
		</layer>
		<layer id="215" name="2113211714637" type="Const" version="opset1">
			<data offset="13984" size="4" shape="" element_type="f32"/>
			<output>
				<port id="0" precision="FP32"/>
			</output>
		</layer>
		<layer id="216" name="2114211815678" type="Const" version="opset1">
			<data offset="13988" size="4" shape="" element_type="f32"/>
			<output>
				<port id="0" precision="FP32"/>
			</output>
		</layer>
		<layer id="217" name="2681268515405" type="Const" version="opset1">
			<data offset="13992" size="4" shape="" element_type="f32"/>
			<output>
				<port id="0" precision="FP32"/>
			</output>
		</layer>
		<layer id="218" name="2682268615225" type="Const" version="opset1">
			<data offset="13996" size="4" shape="" element_type="f32"/>
			<output>
				<port id="0" precision="FP32"/>
			</output>
		</layer>
		<layer id="219" name="2683268714853" type="Const" version="opset1">
			<data offset="13992" size="4" shape="" element_type="f32"/>
			<output>
				<port id="0" precision="FP32"/>
			</output>
		</layer>
		<layer id="220" name="2684268815936" type="Const" version="opset1">
			<data offset="13996" size="4" shape="" element_type="f32"/>
			<output>
				<port id="0" precision="FP32"/>
			</output>
		</layer>
		<layer id="221" name="1931193515870" type="Const" version="opset1">
			<data offset="14000" size="4" shape="" element_type="f32"/>
			<output>
				<port id="0" precision="FP32"/>
			</output>
		</layer>
		<layer id="222" name="1932193615570" type="Const" version="opset1">
			<data offset="14004" size="4" shape="" element_type="f32"/>
			<output>
				<port id="0" precision="FP32"/>
			</output>
		</layer>
		<layer id="223" name="1933193715081" type="Const" version="opset1">
			<data offset="14000" size="4" shape="" element_type="f32"/>
			<output>
				<port id="0" precision="FP32"/>
			</output>
		</layer>
		<layer id="224" name="1934193815555" type="Const" version="opset1">
			<data offset="14004" size="4" shape="" element_type="f32"/>
			<output>
				<port id="0" precision="FP32"/>
			</output>
		</layer>
		<layer id="225" name="2801280514964" type="Const" version="opset1">
			<data offset="80" size="4" shape="" element_type="f32"/>
			<output>
				<port id="0" precision="FP32"/>
			</output>
		</layer>
		<layer id="226" name="2802280616662" type="Const" version="opset1">
			<data offset="84" size="4" shape="" element_type="f32"/>
			<output>
				<port id="0" precision="FP32"/>
			</output>
		</layer>
		<layer id="227" name="2803280715294" type="Const" version="opset1">
			<data offset="80" size="4" shape="" element_type="f32"/>
			<output>
				<port id="0" precision="FP32"/>
			</output>
		</layer>
		<layer id="228" name="2804280815285" type="Const" version="opset1">
			<data offset="84" size="4" shape="" element_type="f32"/>
			<output>
				<port id="0" precision="FP32"/>
			</output>
		</layer>
		<layer id="229" name="3421342516467" type="Const" version="opset1">
			<data offset="80" size="4" shape="" element_type="f32"/>
			<output>
				<port id="0" precision="FP32"/>
			</output>
		</layer>
		<layer id="230" name="3422342615780" type="Const" version="opset1">
			<data offset="14008" size="4" shape="" element_type="f32"/>
			<output>
				<port id="0" precision="FP32"/>
			</output>
		</layer>
		<layer id="231" name="3423342714691" type="Const" version="opset1">
			<data offset="80" size="4" shape="" element_type="f32"/>
			<output>
				<port id="0" precision="FP32"/>
			</output>
		</layer>
		<layer id="232" name="3424342816323" type="Const" version="opset1">
			<data offset="14008" size="4" shape="" element_type="f32"/>
			<output>
				<port id="0" precision="FP32"/>
			</output>
		</layer>
		<layer id="233" name="2531253515297" type="Const" version="opset1">
			<data offset="14012" size="4" shape="" element_type="f32"/>
			<output>
				<port id="0" precision="FP32"/>
			</output>
		</layer>
		<layer id="234" name="2532253616167" type="Const" version="opset1">
			<data offset="14016" size="4" shape="" element_type="f32"/>
			<output>
				<port id="0" precision="FP32"/>
			</output>
		</layer>
		<layer id="235" name="2533253716431" type="Const" version="opset1">
			<data offset="14012" size="4" shape="" element_type="f32"/>
			<output>
				<port id="0" precision="FP32"/>
			</output>
		</layer>
		<layer id="236" name="2534253816032" type="Const" version="opset1">
			<data offset="14016" size="4" shape="" element_type="f32"/>
			<output>
				<port id="0" precision="FP32"/>
			</output>
		</layer>
		<layer id="237" name="2981298515654" type="Const" version="opset1">
			<data offset="14020" size="4" shape="" element_type="f32"/>
			<output>
				<port id="0" precision="FP32"/>
			</output>
		</layer>
		<layer id="238" name="2982298616299" type="Const" version="opset1">
			<data offset="14024" size="4" shape="" element_type="f32"/>
			<output>
				<port id="0" precision="FP32"/>
			</output>
		</layer>
		<layer id="239" name="2983298716215" type="Const" version="opset1">
			<data offset="14020" size="4" shape="" element_type="f32"/>
			<output>
				<port id="0" precision="FP32"/>
			</output>
		</layer>
		<layer id="240" name="2984298815384" type="Const" version="opset1">
			<data offset="14024" size="4" shape="" element_type="f32"/>
			<output>
				<port id="0" precision="FP32"/>
			</output>
		</layer>
		<layer id="241" name="2631263515630" type="Const" version="opset1">
			<data offset="14028" size="4" shape="" element_type="f32"/>
			<output>
				<port id="0" precision="FP32"/>
			</output>
		</layer>
		<layer id="242" name="2632263615267" type="Const" version="opset1">
			<data offset="14032" size="4" shape="" element_type="f32"/>
			<output>
				<port id="0" precision="FP32"/>
			</output>
		</layer>
		<layer id="243" name="2633263714679" type="Const" version="opset1">
			<data offset="14028" size="4" shape="" element_type="f32"/>
			<output>
				<port id="0" precision="FP32"/>
			</output>
		</layer>
		<layer id="244" name="2634263814799" type="Const" version="opset1">
			<data offset="14032" size="4" shape="" element_type="f32"/>
			<output>
				<port id="0" precision="FP32"/>
			</output>
		</layer>
		<layer id="245" name="3041304516161" type="Const" version="opset1">
			<data offset="14036" size="960" shape="1,240,1,1" element_type="f32"/>
			<output>
				<port id="0" precision="FP32">
					<dim>1</dim>
					<dim>240</dim>
					<dim>1</dim>
					<dim>1</dim>
				</port>
			</output>
		</layer>
		<layer id="246" name="3042304615339" type="Const" version="opset1">
			<data offset="14996" size="960" shape="1,240,1,1" element_type="f32"/>
			<output>
				<port id="0" precision="FP32">
					<dim>1</dim>
					<dim>240</dim>
					<dim>1</dim>
					<dim>1</dim>
				</port>
			</output>
		</layer>
		<layer id="247" name="3043304716626" type="Const" version="opset1">
			<data offset="14036" size="960" shape="1,240,1,1" element_type="f32"/>
			<output>
				<port id="0" precision="FP32">
					<dim>1</dim>
					<dim>240</dim>
					<dim>1</dim>
					<dim>1</dim>
				</port>
			</output>
		</layer>
		<layer id="248" name="3044304815819" type="Const" version="opset1">
			<data offset="14996" size="960" shape="1,240,1,1" element_type="f32"/>
			<output>
				<port id="0" precision="FP32">
					<dim>1</dim>
					<dim>240</dim>
					<dim>1</dim>
					<dim>1</dim>
				</port>
			</output>
		</layer>
		<layer id="249" name="2491249514904" type="Const" version="opset1">
			<data offset="15956" size="4" shape="" element_type="f32"/>
			<output>
				<port id="0" precision="FP32"/>
			</output>
		</layer>
		<layer id="250" name="2492249615729" type="Const" version="opset1">
			<data offset="15960" size="4" shape="" element_type="f32"/>
			<output>
				<port id="0" precision="FP32"/>
			</output>
		</layer>
		<layer id="251" name="2493249716245" type="Const" version="opset1">
			<data offset="15956" size="4" shape="" element_type="f32"/>
			<output>
				<port id="0" precision="FP32"/>
			</output>
		</layer>
		<layer id="252" name="2494249815393" type="Const" version="opset1">
			<data offset="15960" size="4" shape="" element_type="f32"/>
			<output>
				<port id="0" precision="FP32"/>
			</output>
		</layer>
		<layer id="253" name="2691269516278" type="Const" version="opset1">
			<data offset="15964" size="4" shape="" element_type="f32"/>
			<output>
				<port id="0" precision="FP32"/>
			</output>
		</layer>
		<layer id="254" name="2692269616656" type="Const" version="opset1">
			<data offset="15968" size="4" shape="" element_type="f32"/>
			<output>
				<port id="0" precision="FP32"/>
			</output>
		</layer>
		<layer id="255" name="2693269716059" type="Const" version="opset1">
			<data offset="15964" size="4" shape="" element_type="f32"/>
			<output>
				<port id="0" precision="FP32"/>
			</output>
		</layer>
		<layer id="256" name="2694269816038" type="Const" version="opset1">
			<data offset="15968" size="4" shape="" element_type="f32"/>
			<output>
				<port id="0" precision="FP32"/>
			</output>
		</layer>
		<layer id="257" name="1761176516524" type="Const" version="opset1">
			<data offset="15972" size="4" shape="" element_type="f32"/>
			<output>
				<port id="0" precision="FP32"/>
			</output>
		</layer>
		<layer id="258" name="1762176615507" type="Const" version="opset1">
			<data offset="15976" size="4" shape="" element_type="f32"/>
			<output>
				<port id="0" precision="FP32"/>
			</output>
		</layer>
		<layer id="259" name="1763176714865" type="Const" version="opset1">
			<data offset="15972" size="4" shape="" element_type="f32"/>
			<output>
				<port id="0" precision="FP32"/>
			</output>
		</layer>
		<layer id="260" name="1764176814619" type="Const" version="opset1">
			<data offset="15976" size="4" shape="" element_type="f32"/>
			<output>
				<port id="0" precision="FP32"/>
			</output>
		</layer>
		<layer id="261" name="3381338516476" type="Const" version="opset1">
			<data offset="15980" size="4" shape="" element_type="f32"/>
			<output>
				<port id="0" precision="FP32"/>
			</output>
		</layer>
		<layer id="262" name="3382338616674" type="Const" version="opset1">
			<data offset="15984" size="4" shape="" element_type="f32"/>
			<output>
				<port id="0" precision="FP32"/>
			</output>
		</layer>
		<layer id="263" name="3383338716263" type="Const" version="opset1">
			<data offset="15980" size="4" shape="" element_type="f32"/>
			<output>
				<port id="0" precision="FP32"/>
			</output>
		</layer>
		<layer id="264" name="3384338815090" type="Const" version="opset1">
			<data offset="15984" size="4" shape="" element_type="f32"/>
			<output>
				<port id="0" precision="FP32"/>
			</output>
		</layer>
		<layer id="265" name="3581358515972" type="Const" version="opset1">
			<data offset="80" size="4" shape="" element_type="f32"/>
			<output>
				<port id="0" precision="FP32"/>
			</output>
		</layer>
		<layer id="266" name="3582358616560" type="Const" version="opset1">
			<data offset="84" size="4" shape="" element_type="f32"/>
			<output>
				<port id="0" precision="FP32"/>
			</output>
		</layer>
		<layer id="267" name="3583358715684" type="Const" version="opset1">
			<data offset="80" size="4" shape="" element_type="f32"/>
			<output>
				<port id="0" precision="FP32"/>
			</output>
		</layer>
		<layer id="268" name="3584358814985" type="Const" version="opset1">
			<data offset="84" size="4" shape="" element_type="f32"/>
			<output>
				<port id="0" precision="FP32"/>
			</output>
		</layer>
		<layer id="269" name="2511251515690" type="Const" version="opset1">
			<data offset="80" size="4" shape="" element_type="f32"/>
			<output>
				<port id="0" precision="FP32"/>
			</output>
		</layer>
		<layer id="270" name="2512251615072" type="Const" version="opset1">
			<data offset="15988" size="4" shape="" element_type="f32"/>
			<output>
				<port id="0" precision="FP32"/>
			</output>
		</layer>
		<layer id="271" name="2513251715744" type="Const" version="opset1">
			<data offset="80" size="4" shape="" element_type="f32"/>
			<output>
				<port id="0" precision="FP32"/>
			</output>
		</layer>
		<layer id="272" name="2514251815348" type="Const" version="opset1">
			<data offset="15988" size="4" shape="" element_type="f32"/>
			<output>
				<port id="0" precision="FP32"/>
			</output>
		</layer>
		<layer id="273" name="2131213516464" type="Const" version="opset1">
			<data offset="15992" size="4" shape="" element_type="f32"/>
			<output>
				<port id="0" precision="FP32"/>
			</output>
		</layer>
		<layer id="274" name="2132213615594" type="Const" version="opset1">
			<data offset="15996" size="4" shape="" element_type="f32"/>
			<output>
				<port id="0" precision="FP32"/>
			</output>
		</layer>
		<layer id="275" name="2133213715873" type="Const" version="opset1">
			<data offset="15992" size="4" shape="" element_type="f32"/>
			<output>
				<port id="0" precision="FP32"/>
			</output>
		</layer>
		<layer id="276" name="2134213815117" type="Const" version="opset1">
			<data offset="15996" size="4" shape="" element_type="f32"/>
			<output>
				<port id="0" precision="FP32"/>
			</output>
		</layer>
		<layer id="277" name="2391239515048" type="Const" version="opset1">
			<data offset="16000" size="4" shape="" element_type="f32"/>
			<output>
				<port id="0" precision="FP32"/>
			</output>
		</layer>
		<layer id="278" name="2392239615939" type="Const" version="opset1">
			<data offset="16004" size="4" shape="" element_type="f32"/>
			<output>
				<port id="0" precision="FP32"/>
			</output>
		</layer>
		<layer id="279" name="2393239715423" type="Const" version="opset1">
			<data offset="16000" size="4" shape="" element_type="f32"/>
			<output>
				<port id="0" precision="FP32"/>
			</output>
		</layer>
		<layer id="280" name="2394239814661" type="Const" version="opset1">
			<data offset="16004" size="4" shape="" element_type="f32"/>
			<output>
				<port id="0" precision="FP32"/>
			</output>
		</layer>
		<layer id="281" name="1991199514709" type="Const" version="opset1">
			<data offset="16008" size="4" shape="" element_type="f32"/>
			<output>
				<port id="0" precision="FP32"/>
			</output>
		</layer>
		<layer id="282" name="1992199615276" type="Const" version="opset1">
			<data offset="16012" size="4" shape="" element_type="f32"/>
			<output>
				<port id="0" precision="FP32"/>
			</output>
		</layer>
		<layer id="283" name="1993199715120" type="Const" version="opset1">
			<data offset="16008" size="4" shape="" element_type="f32"/>
			<output>
				<port id="0" precision="FP32"/>
			</output>
		</layer>
		<layer id="284" name="1994199814958" type="Const" version="opset1">
			<data offset="16012" size="4" shape="" element_type="f32"/>
			<output>
				<port id="0" precision="FP32"/>
			</output>
		</layer>
		<layer id="285" name="1781178515789" type="Const" version="opset1">
			<data offset="16016" size="960" shape="1,240,1,1" element_type="f32"/>
			<output>
				<port id="0" precision="FP32">
					<dim>1</dim>
					<dim>240</dim>
					<dim>1</dim>
					<dim>1</dim>
				</port>
			</output>
		</layer>
		<layer id="286" name="1782178615324" type="Const" version="opset1">
			<data offset="16976" size="960" shape="1,240,1,1" element_type="f32"/>
			<output>
				<port id="0" precision="FP32">
					<dim>1</dim>
					<dim>240</dim>
					<dim>1</dim>
					<dim>1</dim>
				</port>
			</output>
		</layer>
		<layer id="287" name="1783178715945" type="Const" version="opset1">
			<data offset="16016" size="960" shape="1,240,1,1" element_type="f32"/>
			<output>
				<port id="0" precision="FP32">
					<dim>1</dim>
					<dim>240</dim>
					<dim>1</dim>
					<dim>1</dim>
				</port>
			</output>
		</layer>
		<layer id="288" name="1784178816233" type="Const" version="opset1">
			<data offset="16976" size="960" shape="1,240,1,1" element_type="f32"/>
			<output>
				<port id="0" precision="FP32">
					<dim>1</dim>
					<dim>240</dim>
					<dim>1</dim>
					<dim>1</dim>
				</port>
			</output>
		</layer>
		<layer id="289" name="3361336515927" type="Const" version="opset1">
			<data offset="17936" size="4" shape="" element_type="f32"/>
			<output>
				<port id="0" precision="FP32"/>
			</output>
		</layer>
		<layer id="290" name="3362336614943" type="Const" version="opset1">
			<data offset="17940" size="4" shape="" element_type="f32"/>
			<output>
				<port id="0" precision="FP32"/>
			</output>
		</layer>
		<layer id="291" name="3363336714760" type="Const" version="opset1">
			<data offset="17936" size="4" shape="" element_type="f32"/>
			<output>
				<port id="0" precision="FP32"/>
			</output>
		</layer>
		<layer id="292" name="3364336815273" type="Const" version="opset1">
			<data offset="17940" size="4" shape="" element_type="f32"/>
			<output>
				<port id="0" precision="FP32"/>
			</output>
		</layer>
		<layer id="293" name="1771177516488" type="Const" version="opset1">
			<data offset="17944" size="4" shape="" element_type="f32"/>
			<output>
				<port id="0" precision="FP32"/>
			</output>
		</layer>
		<layer id="294" name="1772177615900" type="Const" version="opset1">
			<data offset="17948" size="4" shape="" element_type="f32"/>
			<output>
				<port id="0" precision="FP32"/>
			</output>
		</layer>
		<layer id="295" name="1773177716437" type="Const" version="opset1">
			<data offset="17944" size="4" shape="" element_type="f32"/>
			<output>
				<port id="0" precision="FP32"/>
			</output>
		</layer>
		<layer id="296" name="1774177816704" type="Const" version="opset1">
			<data offset="17948" size="4" shape="" element_type="f32"/>
			<output>
				<port id="0" precision="FP32"/>
			</output>
		</layer>
		<layer id="297" name="2611261515198" type="Const" version="opset1">
			<data offset="17952" size="4" shape="" element_type="f32"/>
			<output>
				<port id="0" precision="FP32"/>
			</output>
		</layer>
		<layer id="298" name="2612261615756" type="Const" version="opset1">
			<data offset="17956" size="4" shape="" element_type="f32"/>
			<output>
				<port id="0" precision="FP32"/>
			</output>
		</layer>
		<layer id="299" name="2613261714877" type="Const" version="opset1">
			<data offset="17952" size="4" shape="" element_type="f32"/>
			<output>
				<port id="0" precision="FP32"/>
			</output>
		</layer>
		<layer id="300" name="2614261814844" type="Const" version="opset1">
			<data offset="17956" size="4" shape="" element_type="f32"/>
			<output>
				<port id="0" precision="FP32"/>
			</output>
		</layer>
		<layer id="301" name="2191219516686" type="Const" version="opset1">
			<data offset="80" size="4" shape="" element_type="f32"/>
			<output>
				<port id="0" precision="FP32"/>
			</output>
		</layer>
		<layer id="302" name="2192219616179" type="Const" version="opset1">
			<data offset="17960" size="4" shape="" element_type="f32"/>
			<output>
				<port id="0" precision="FP32"/>
			</output>
		</layer>
		<layer id="303" name="2193219714745" type="Const" version="opset1">
			<data offset="80" size="4" shape="" element_type="f32"/>
			<output>
				<port id="0" precision="FP32"/>
			</output>
		</layer>
		<layer id="304" name="2194219816221" type="Const" version="opset1">
			<data offset="17960" size="4" shape="" element_type="f32"/>
			<output>
				<port id="0" precision="FP32"/>
			</output>
		</layer>
		<layer id="305" name="2091209515045" type="Const" version="opset1">
			<data offset="80" size="4" shape="" element_type="f32"/>
			<output>
				<port id="0" precision="FP32"/>
			</output>
		</layer>
		<layer id="306" name="2092209616203" type="Const" version="opset1">
			<data offset="17964" size="4" shape="" element_type="f32"/>
			<output>
				<port id="0" precision="FP32"/>
			</output>
		</layer>
		<layer id="307" name="2093209716452" type="Const" version="opset1">
			<data offset="80" size="4" shape="" element_type="f32"/>
			<output>
				<port id="0" precision="FP32"/>
			</output>
		</layer>
		<layer id="308" name="2094209816074" type="Const" version="opset1">
			<data offset="17964" size="4" shape="" element_type="f32"/>
			<output>
				<port id="0" precision="FP32"/>
			</output>
		</layer>
		<layer id="309" name="3141314515930" type="Const" version="opset1">
			<data offset="17968" size="4" shape="" element_type="f32"/>
			<output>
				<port id="0" precision="FP32"/>
			</output>
		</layer>
		<layer id="310" name="3142314615657" type="Const" version="opset1">
			<data offset="17972" size="4" shape="" element_type="f32"/>
			<output>
				<port id="0" precision="FP32"/>
			</output>
		</layer>
		<layer id="311" name="3143314715951" type="Const" version="opset1">
			<data offset="17968" size="4" shape="" element_type="f32"/>
			<output>
				<port id="0" precision="FP32"/>
			</output>
		</layer>
		<layer id="312" name="3144314814868" type="Const" version="opset1">
			<data offset="17972" size="4" shape="" element_type="f32"/>
			<output>
				<port id="0" precision="FP32"/>
			</output>
		</layer>
		<layer id="313" name="2421242515438" type="Const" version="opset1">
			<data offset="17976" size="4" shape="" element_type="f32"/>
			<output>
				<port id="0" precision="FP32"/>
			</output>
		</layer>
		<layer id="314" name="2422242616329" type="Const" version="opset1">
			<data offset="17980" size="4" shape="" element_type="f32"/>
			<output>
				<port id="0" precision="FP32"/>
			</output>
		</layer>
		<layer id="315" name="2423242716725" type="Const" version="opset1">
			<data offset="17976" size="4" shape="" element_type="f32"/>
			<output>
				<port id="0" precision="FP32"/>
			</output>
		</layer>
		<layer id="316" name="2424242816473" type="Const" version="opset1">
			<data offset="17980" size="4" shape="" element_type="f32"/>
			<output>
				<port id="0" precision="FP32"/>
			</output>
		</layer>
		<layer id="317" name="2761276515621" type="Const" version="opset1">
			<data offset="17984" size="4" shape="" element_type="f32"/>
			<output>
				<port id="0" precision="FP32"/>
			</output>
		</layer>
		<layer id="318" name="2762276616533" type="Const" version="opset1">
			<data offset="17988" size="4" shape="" element_type="f32"/>
			<output>
				<port id="0" precision="FP32"/>
			</output>
		</layer>
		<layer id="319" name="2763276716080" type="Const" version="opset1">
			<data offset="17984" size="4" shape="" element_type="f32"/>
			<output>
				<port id="0" precision="FP32"/>
			</output>
		</layer>
		<layer id="320" name="2764276816284" type="Const" version="opset1">
			<data offset="17988" size="4" shape="" element_type="f32"/>
			<output>
				<port id="0" precision="FP32"/>
			</output>
		</layer>
		<layer id="321" name="2821282514805" type="Const" version="opset1">
			<data offset="17992" size="384" shape="1,96,1,1" element_type="f32"/>
			<output>
				<port id="0" precision="FP32">
					<dim>1</dim>
					<dim>96</dim>
					<dim>1</dim>
					<dim>1</dim>
				</port>
			</output>
		</layer>
		<layer id="322" name="2822282615624" type="Const" version="opset1">
			<data offset="18376" size="384" shape="1,96,1,1" element_type="f32"/>
			<output>
				<port id="0" precision="FP32">
					<dim>1</dim>
					<dim>96</dim>
					<dim>1</dim>
					<dim>1</dim>
				</port>
			</output>
		</layer>
		<layer id="323" name="2823282715942" type="Const" version="opset1">
			<data offset="17992" size="384" shape="1,96,1,1" element_type="f32"/>
			<output>
				<port id="0" precision="FP32">
					<dim>1</dim>
					<dim>96</dim>
					<dim>1</dim>
					<dim>1</dim>
				</port>
			</output>
		</layer>
		<layer id="324" name="2824282816359" type="Const" version="opset1">
			<data offset="18376" size="384" shape="1,96,1,1" element_type="f32"/>
			<output>
				<port id="0" precision="FP32">
					<dim>1</dim>
					<dim>96</dim>
					<dim>1</dim>
					<dim>1</dim>
				</port>
			</output>
		</layer>
		<layer id="325" name="2371237515708" type="Const" version="opset1">
			<data offset="18760" size="4" shape="" element_type="f32"/>
			<output>
				<port id="0" precision="FP32"/>
			</output>
		</layer>
		<layer id="326" name="2372237614697" type="Const" version="opset1">
			<data offset="18764" size="4" shape="" element_type="f32"/>
			<output>
				<port id="0" precision="FP32"/>
			</output>
		</layer>
		<layer id="327" name="2373237716659" type="Const" version="opset1">
			<data offset="18760" size="4" shape="" element_type="f32"/>
			<output>
				<port id="0" precision="FP32"/>
			</output>
		</layer>
		<layer id="328" name="2374237816713" type="Const" version="opset1">
			<data offset="18764" size="4" shape="" element_type="f32"/>
			<output>
				<port id="0" precision="FP32"/>
			</output>
		</layer>
		<layer id="329" name="3341334515396" type="Const" version="opset1">
			<data offset="18768" size="4" shape="" element_type="f32"/>
			<output>
				<port id="0" precision="FP32"/>
			</output>
		</layer>
		<layer id="330" name="3342334616707" type="Const" version="opset1">
			<data offset="18772" size="4" shape="" element_type="f32"/>
			<output>
				<port id="0" precision="FP32"/>
			</output>
		</layer>
		<layer id="331" name="3343334716506" type="Const" version="opset1">
			<data offset="18768" size="4" shape="" element_type="f32"/>
			<output>
				<port id="0" precision="FP32"/>
			</output>
		</layer>
		<layer id="332" name="3344334815051" type="Const" version="opset1">
			<data offset="18772" size="4" shape="" element_type="f32"/>
			<output>
				<port id="0" precision="FP32"/>
			</output>
		</layer>
		<layer id="333" name="3181318515387" type="Const" version="opset1">
			<data offset="18776" size="4" shape="" element_type="f32"/>
			<output>
				<port id="0" precision="FP32"/>
			</output>
		</layer>
		<layer id="334" name="3182318616527" type="Const" version="opset1">
			<data offset="18780" size="4" shape="" element_type="f32"/>
			<output>
				<port id="0" precision="FP32"/>
			</output>
		</layer>
		<layer id="335" name="3183318715660" type="Const" version="opset1">
			<data offset="18776" size="4" shape="" element_type="f32"/>
			<output>
				<port id="0" precision="FP32"/>
			</output>
		</layer>
		<layer id="336" name="3184318814931" type="Const" version="opset1">
			<data offset="18780" size="4" shape="" element_type="f32"/>
			<output>
				<port id="0" precision="FP32"/>
			</output>
		</layer>
		<layer id="337" name="3261326514634" type="Const" version="opset1">
			<data offset="80" size="4" shape="" element_type="f32"/>
			<output>
				<port id="0" precision="FP32"/>
			</output>
		</layer>
		<layer id="338" name="3262326615192" type="Const" version="opset1">
			<data offset="18784" size="4" shape="" element_type="f32"/>
			<output>
				<port id="0" precision="FP32"/>
			</output>
		</layer>
		<layer id="339" name="3263326715177" type="Const" version="opset1">
			<data offset="80" size="4" shape="" element_type="f32"/>
			<output>
				<port id="0" precision="FP32"/>
			</output>
		</layer>
		<layer id="340" name="3264326815879" type="Const" version="opset1">
			<data offset="18784" size="4" shape="" element_type="f32"/>
			<output>
				<port id="0" precision="FP32"/>
			</output>
		</layer>
		<layer id="341" name="3081308514988" type="Const" version="opset1">
			<data offset="18788" size="352" shape="1,88,1,1" element_type="f32"/>
			<output>
				<port id="0" precision="FP32">
					<dim>1</dim>
					<dim>88</dim>
					<dim>1</dim>
					<dim>1</dim>
				</port>
			</output>
		</layer>
		<layer id="342" name="3082308614802" type="Const" version="opset1">
			<data offset="19140" size="352" shape="1,88,1,1" element_type="f32"/>
			<output>
				<port id="0" precision="FP32">
					<dim>1</dim>
					<dim>88</dim>
					<dim>1</dim>
					<dim>1</dim>
				</port>
			</output>
		</layer>
		<layer id="343" name="3083308716077" type="Const" version="opset1">
			<data offset="18788" size="352" shape="1,88,1,1" element_type="f32"/>
			<output>
				<port id="0" precision="FP32">
					<dim>1</dim>
					<dim>88</dim>
					<dim>1</dim>
					<dim>1</dim>
				</port>
			</output>
		</layer>
		<layer id="344" name="3084308816287" type="Const" version="opset1">
			<data offset="19140" size="352" shape="1,88,1,1" element_type="f32"/>
			<output>
				<port id="0" precision="FP32">
					<dim>1</dim>
					<dim>88</dim>
					<dim>1</dim>
					<dim>1</dim>
				</port>
			</output>
		</layer>
		<layer id="345" name="3191319515765" type="Const" version="opset1">
			<data offset="19492" size="4" shape="" element_type="f32"/>
			<output>
				<port id="0" precision="FP32"/>
			</output>
		</layer>
		<layer id="346" name="3192319616023" type="Const" version="opset1">
			<data offset="19496" size="4" shape="" element_type="f32"/>
			<output>
				<port id="0" precision="FP32"/>
			</output>
		</layer>
		<layer id="347" name="3193319716029" type="Const" version="opset1">
			<data offset="19492" size="4" shape="" element_type="f32"/>
			<output>
				<port id="0" precision="FP32"/>
			</output>
		</layer>
		<layer id="348" name="3194319815444" type="Const" version="opset1">
			<data offset="19496" size="4" shape="" element_type="f32"/>
			<output>
				<port id="0" precision="FP32"/>
			</output>
		</layer>
		<layer id="349" name="3241324516047" type="Const" version="opset1">
			<data offset="80" size="4" shape="" element_type="f32"/>
			<output>
				<port id="0" precision="FP32"/>
			</output>
		</layer>
		<layer id="350" name="3242324615933" type="Const" version="opset1">
			<data offset="19500" size="4" shape="" element_type="f32"/>
			<output>
				<port id="0" precision="FP32"/>
			</output>
		</layer>
		<layer id="351" name="3243324716122" type="Const" version="opset1">
			<data offset="80" size="4" shape="" element_type="f32"/>
			<output>
				<port id="0" precision="FP32"/>
			</output>
		</layer>
		<layer id="352" name="3244324816374" type="Const" version="opset1">
			<data offset="19500" size="4" shape="" element_type="f32"/>
			<output>
				<port id="0" precision="FP32"/>
			</output>
		</layer>
		<layer id="353" name="2881288515597" type="Const" version="opset1">
			<data offset="19504" size="288" shape="1,72,1,1" element_type="f32"/>
			<output>
				<port id="0" precision="FP32">
					<dim>1</dim>
					<dim>72</dim>
					<dim>1</dim>
					<dim>1</dim>
				</port>
			</output>
		</layer>
		<layer id="354" name="2882288615537" type="Const" version="opset1">
			<data offset="19792" size="288" shape="1,72,1,1" element_type="f32"/>
			<output>
				<port id="0" precision="FP32">
					<dim>1</dim>
					<dim>72</dim>
					<dim>1</dim>
					<dim>1</dim>
				</port>
			</output>
		</layer>
		<layer id="355" name="2883288715948" type="Const" version="opset1">
			<data offset="19504" size="288" shape="1,72,1,1" element_type="f32"/>
			<output>
				<port id="0" precision="FP32">
					<dim>1</dim>
					<dim>72</dim>
					<dim>1</dim>
					<dim>1</dim>
				</port>
			</output>
		</layer>
		<layer id="356" name="2884288815354" type="Const" version="opset1">
			<data offset="19792" size="288" shape="1,72,1,1" element_type="f32"/>
			<output>
				<port id="0" precision="FP32">
					<dim>1</dim>
					<dim>72</dim>
					<dim>1</dim>
					<dim>1</dim>
				</port>
			</output>
		</layer>
		<layer id="357" name="1951195515876" type="Const" version="opset1">
			<data offset="20080" size="4" shape="" element_type="f32"/>
			<output>
				<port id="0" precision="FP32"/>
			</output>
		</layer>
		<layer id="358" name="1952195615666" type="Const" version="opset1">
			<data offset="20084" size="4" shape="" element_type="f32"/>
			<output>
				<port id="0" precision="FP32"/>
			</output>
		</layer>
		<layer id="359" name="1953195714874" type="Const" version="opset1">
			<data offset="20080" size="4" shape="" element_type="f32"/>
			<output>
				<port id="0" precision="FP32"/>
			</output>
		</layer>
		<layer id="360" name="1954195815504" type="Const" version="opset1">
			<data offset="20084" size="4" shape="" element_type="f32"/>
			<output>
				<port id="0" precision="FP32"/>
			</output>
		</layer>
		<layer id="361" name="3321332514910" type="Const" version="opset1">
			<data offset="80" size="4" shape="" element_type="f32"/>
			<output>
				<port id="0" precision="FP32"/>
			</output>
		</layer>
		<layer id="362" name="3322332615885" type="Const" version="opset1">
			<data offset="20088" size="4" shape="" element_type="f32"/>
			<output>
				<port id="0" precision="FP32"/>
			</output>
		</layer>
		<layer id="363" name="3323332715144" type="Const" version="opset1">
			<data offset="80" size="4" shape="" element_type="f32"/>
			<output>
				<port id="0" precision="FP32"/>
			</output>
		</layer>
		<layer id="364" name="3324332814790" type="Const" version="opset1">
			<data offset="20088" size="4" shape="" element_type="f32"/>
			<output>
				<port id="0" precision="FP32"/>
			</output>
		</layer>
		<layer id="365" name="3301330515252" type="Const" version="opset1">
			<data offset="80" size="4" shape="" element_type="f32"/>
			<output>
				<port id="0" precision="FP32"/>
			</output>
		</layer>
		<layer id="366" name="3302330614715" type="Const" version="opset1">
			<data offset="20092" size="4" shape="" element_type="f32"/>
			<output>
				<port id="0" precision="FP32"/>
			</output>
		</layer>
		<layer id="367" name="3303330716269" type="Const" version="opset1">
			<data offset="80" size="4" shape="" element_type="f32"/>
			<output>
				<port id="0" precision="FP32"/>
			</output>
		</layer>
		<layer id="368" name="3304330816272" type="Const" version="opset1">
			<data offset="20092" size="4" shape="" element_type="f32"/>
			<output>
				<port id="0" precision="FP32"/>
			</output>
		</layer>
		<layer id="369" name="3601360515753" type="Const" version="opset1">
			<data offset="80" size="4" shape="" element_type="f32"/>
			<output>
				<port id="0" precision="FP32"/>
			</output>
		</layer>
		<layer id="370" name="3602360615219" type="Const" version="opset1">
			<data offset="17964" size="4" shape="" element_type="f32"/>
			<output>
				<port id="0" precision="FP32"/>
			</output>
		</layer>
		<layer id="371" name="3603360716428" type="Const" version="opset1">
			<data offset="80" size="4" shape="" element_type="f32"/>
			<output>
				<port id="0" precision="FP32"/>
			</output>
		</layer>
		<layer id="372" name="3604360815306" type="Const" version="opset1">
			<data offset="17964" size="4" shape="" element_type="f32"/>
			<output>
				<port id="0" precision="FP32"/>
			</output>
		</layer>
		<layer id="373" name="2301230515699" type="Const" version="opset1">
			<data offset="80" size="4" shape="" element_type="f32"/>
			<output>
				<port id="0" precision="FP32"/>
			</output>
		</layer>
		<layer id="374" name="2302230614781" type="Const" version="opset1">
			<data offset="20096" size="4" shape="" element_type="f32"/>
			<output>
				<port id="0" precision="FP32"/>
			</output>
		</layer>
		<layer id="375" name="2303230715858" type="Const" version="opset1">
			<data offset="80" size="4" shape="" element_type="f32"/>
			<output>
				<port id="0" precision="FP32"/>
			</output>
		</layer>
		<layer id="376" name="2304230814880" type="Const" version="opset1">
			<data offset="20096" size="4" shape="" element_type="f32"/>
			<output>
				<port id="0" precision="FP32"/>
			</output>
		</layer>
		<layer id="377" name="2571257514925" type="Const" version="opset1">
			<data offset="80" size="4" shape="" element_type="f32"/>
			<output>
				<port id="0" precision="FP32"/>
			</output>
		</layer>
		<layer id="378" name="2572257615834" type="Const" version="opset1">
			<data offset="20100" size="4" shape="" element_type="f32"/>
			<output>
				<port id="0" precision="FP32"/>
			</output>
		</layer>
		<layer id="379" name="2573257715453" type="Const" version="opset1">
			<data offset="80" size="4" shape="" element_type="f32"/>
			<output>
				<port id="0" precision="FP32"/>
			</output>
		</layer>
		<layer id="380" name="2574257816542" type="Const" version="opset1">
			<data offset="20100" size="4" shape="" element_type="f32"/>
			<output>
				<port id="0" precision="FP32"/>
			</output>
		</layer>
		<layer id="381" name="3061306516443" type="Const" version="opset1">
			<data offset="20104" size="64" shape="1,16,1,1" element_type="f32"/>
			<output>
				<port id="0" precision="FP32">
					<dim>1</dim>
					<dim>16</dim>
					<dim>1</dim>
					<dim>1</dim>
				</port>
			</output>
		</layer>
		<layer id="382" name="3062306615222" type="Const" version="opset1">
			<data offset="20168" size="64" shape="1,16,1,1" element_type="f32"/>
			<output>
				<port id="0" precision="FP32">
					<dim>1</dim>
					<dim>16</dim>
					<dim>1</dim>
					<dim>1</dim>
				</port>
			</output>
		</layer>
		<layer id="383" name="3063306714739" type="Const" version="opset1">
			<data offset="20104" size="64" shape="1,16,1,1" element_type="f32"/>
			<output>
				<port id="0" precision="FP32">
					<dim>1</dim>
					<dim>16</dim>
					<dim>1</dim>
					<dim>1</dim>
				</port>
			</output>
		</layer>
		<layer id="384" name="3064306816326" type="Const" version="opset1">
			<data offset="20168" size="64" shape="1,16,1,1" element_type="f32"/>
			<output>
				<port id="0" precision="FP32">
					<dim>1</dim>
					<dim>16</dim>
					<dim>1</dim>
					<dim>1</dim>
				</port>
			</output>
		</layer>
		<layer id="385" name="2451245515216" type="Const" version="opset1">
			<data offset="20232" size="4" shape="" element_type="f32"/>
			<output>
				<port id="0" precision="FP32"/>
			</output>
		</layer>
		<layer id="386" name="2452245615135" type="Const" version="opset1">
			<data offset="20236" size="4" shape="" element_type="f32"/>
			<output>
				<port id="0" precision="FP32"/>
			</output>
		</layer>
		<layer id="387" name="2453245716377" type="Const" version="opset1">
			<data offset="20232" size="4" shape="" element_type="f32"/>
			<output>
				<port id="0" precision="FP32"/>
			</output>
		</layer>
		<layer id="388" name="2454245816086" type="Const" version="opset1">
			<data offset="20236" size="4" shape="" element_type="f32"/>
			<output>
				<port id="0" precision="FP32"/>
			</output>
		</layer>
		<layer id="389" name="2031203516164" type="Const" version="opset1">
			<data offset="20240" size="4" shape="" element_type="f32"/>
			<output>
				<port id="0" precision="FP32"/>
			</output>
		</layer>
		<layer id="390" name="2032203615576" type="Const" version="opset1">
			<data offset="20244" size="4" shape="" element_type="f32"/>
			<output>
				<port id="0" precision="FP32"/>
			</output>
		</layer>
		<layer id="391" name="2033203715816" type="Const" version="opset1">
			<data offset="20240" size="4" shape="" element_type="f32"/>
			<output>
				<port id="0" precision="FP32"/>
			</output>
		</layer>
		<layer id="392" name="2034203816335" type="Const" version="opset1">
			<data offset="20244" size="4" shape="" element_type="f32"/>
			<output>
				<port id="0" precision="FP32"/>
			</output>
		</layer>
		<layer id="394" name="/features/features.0/features.0.0/Conv/WithoutBiases/fq_input_0" type="FakeQuantize" version="opset1">
			<data levels="256" auto_broadcast="numpy"/>
			<input>
				<port id="0">
					<dim>1</dim>
					<dim>3</dim>
					<dim>224</dim>
					<dim>224</dim>
				</port>
				<port id="1"/>
				<port id="2"/>
				<port id="3"/>
				<port id="4"/>
			</input>
			<output>
				<port id="5" precision="FP32">
					<dim>1</dim>
					<dim>3</dim>
					<dim>224</dim>
					<dim>224</dim>
				</port>
			</output>
		</layer>
		<layer id="395" name="/features/features.0/features.0.0/Conv/WithoutBiases/fq_weights_1/scale980516665" type="Const" version="opset1">
			<data offset="20248" size="64" shape="16,1,1,1" element_type="f32"/>
			<output>
				<port id="0" precision="FP32">
					<dim>16</dim>
					<dim>1</dim>
					<dim>1</dim>
					<dim>1</dim>
				</port>
			</output>
		</layer>
		<layer id="396" name="onnx::Conv_4215338045/restored_convert/quantized979715864" type="Const" version="opset1">
			<data offset="20312" size="432" shape="16,3,3,3" element_type="i8"/>
			<output>
				<port id="0" precision="I8">
					<dim>16</dim>
					<dim>3</dim>
					<dim>3</dim>
					<dim>3</dim>
				</port>
			</output>
		</layer>
		<layer id="397" name="onnx::Conv_4215338045/restored_convert/quantized/to_f32" type="Convert" version="opset1">
			<data destination_type="f32"/>
			<input>
				<port id="0">
					<dim>16</dim>
					<dim>3</dim>
					<dim>3</dim>
					<dim>3</dim>
				</port>
			</input>
			<output>
				<port id="1" precision="FP32">
					<dim>16</dim>
					<dim>3</dim>
					<dim>3</dim>
					<dim>3</dim>
				</port>
			</output>
		</layer>
		<layer id="398" name="/features/features.0/features.0.0/Conv/WithoutBiases/fq_weights_1/mulpiply_by_scale" type="Multiply" version="opset1">
			<data auto_broadcast="numpy"/>
			<input>
				<port id="0">
					<dim>16</dim>
					<dim>3</dim>
					<dim>3</dim>
					<dim>3</dim>
				</port>
				<port id="1">
					<dim>16</dim>
					<dim>1</dim>
					<dim>1</dim>
					<dim>1</dim>
				</port>
			</input>
			<output>
				<port id="2" precision="FP32">
					<dim>16</dim>
					<dim>3</dim>
					<dim>3</dim>
					<dim>3</dim>
				</port>
			</output>
		</layer>
		<layer id="399" name="/features/features.0/features.0.0/Conv/WithoutBiases" type="Convolution" version="opset1">
			<data auto_pad="explicit" strides="2,2" dilations="1,1" pads_begin="1,1" pads_end="1,1"/>
			<input>
				<port id="0">
					<dim>1</dim>
					<dim>3</dim>
					<dim>224</dim>
					<dim>224</dim>
				</port>
				<port id="1">
					<dim>16</dim>
					<dim>3</dim>
					<dim>3</dim>
					<dim>3</dim>
				</port>
			</input>
			<output>
				<port id="2" precision="FP32">
					<dim>1</dim>
					<dim>16</dim>
					<dim>112</dim>
					<dim>112</dim>
				</port>
			</output>
		</layer>
		<layer id="400" name="Reshape_12153616407" type="Const" version="opset1">
			<data offset="20744" size="32" shape="1,16,1,1" element_type="f16"/>
			<output>
				<port id="0" precision="FP16">
					<dim>1</dim>
					<dim>16</dim>
					<dim>1</dim>
					<dim>1</dim>
				</port>
			</output>
		</layer>
		<layer id="401" name="Reshape_1215368046/restored_convert" type="Convert" version="opset1">
			<data destination_type="f32"/>
			<rt_info>
				<attribute name="decompression" version="0"/>
			</rt_info>
			<input>
				<port id="0">
					<dim>1</dim>
					<dim>16</dim>
					<dim>1</dim>
					<dim>1</dim>
				</port>
			</input>
			<output>
				<port id="1" precision="FP32">
					<dim>1</dim>
					<dim>16</dim>
					<dim>1</dim>
					<dim>1</dim>
				</port>
			</output>
		</layer>
		<layer id="402" name="/features/features.0/features.0.0/Conv" type="Add" version="opset1">
			<data auto_broadcast="numpy"/>
			<input>
				<port id="0">
					<dim>1</dim>
					<dim>16</dim>
					<dim>112</dim>
					<dim>112</dim>
				</port>
				<port id="1">
					<dim>1</dim>
					<dim>16</dim>
					<dim>1</dim>
					<dim>1</dim>
				</port>
			</input>
			<output>
				<port id="2" precision="FP32" names="/features/features.0/features.0.0/Conv_output_0">
					<dim>1</dim>
					<dim>16</dim>
					<dim>112</dim>
					<dim>112</dim>
				</port>
			</output>
		</layer>
		<layer id="403" name="/features/features.0/features.0.2/Mul/fq_input_0" type="FakeQuantize" version="opset1">
			<data levels="256" auto_broadcast="numpy"/>
			<input>
				<port id="0">
					<dim>1</dim>
					<dim>16</dim>
					<dim>112</dim>
					<dim>112</dim>
				</port>
				<port id="1"/>
				<port id="2"/>
				<port id="3"/>
				<port id="4"/>
			</input>
			<output>
				<port id="5" precision="FP32">
					<dim>1</dim>
					<dim>16</dim>
					<dim>112</dim>
					<dim>112</dim>
				</port>
			</output>
		</layer>
		<layer id="404" name="2461246515813" type="Const" version="opset1">
			<data offset="80" size="4" shape="" element_type="f32"/>
			<output>
				<port id="0" precision="FP32"/>
			</output>
		</layer>
		<layer id="405" name="2462246614730" type="Const" version="opset1">
			<data offset="84" size="4" shape="" element_type="f32"/>
			<output>
				<port id="0" precision="FP32"/>
			</output>
		</layer>
		<layer id="406" name="2463246715486" type="Const" version="opset1">
			<data offset="80" size="4" shape="" element_type="f32"/>
			<output>
				<port id="0" precision="FP32"/>
			</output>
		</layer>
		<layer id="407" name="2464246815534" type="Const" version="opset1">
			<data offset="84" size="4" shape="" element_type="f32"/>
			<output>
				<port id="0" precision="FP32"/>
			</output>
		</layer>
		<layer id="408" name="Constant_12553914676" type="Const" version="opset1">
			<data offset="20776" size="2" shape="" element_type="f16"/>
			<output>
				<port id="0" precision="FP16"/>
			</output>
		</layer>
		<layer id="409" name="Constant_1255398047/restored_convert" type="Convert" version="opset1">
			<data destination_type="f32"/>
			<rt_info>
				<attribute name="decompression" version="0"/>
			</rt_info>
			<input>
				<port id="0"/>
			</input>
			<output>
				<port id="1" precision="FP32"/>
			</output>
		</layer>
		<layer id="410" name="Constant_12654116092" type="Const" version="opset1">
			<data offset="20778" size="2" shape="" element_type="f16"/>
			<output>
				<port id="0" precision="FP16"/>
			</output>
		</layer>
		<layer id="411" name="Constant_1265418048/restored_convert" type="Convert" version="opset1">
			<data destination_type="f32"/>
			<rt_info>
				<attribute name="decompression" version="0"/>
			</rt_info>
			<input>
				<port id="0"/>
			</input>
			<output>
				<port id="1" precision="FP32"/>
			</output>
		</layer>
		<layer id="412" name="/features/features.0/features.0.2/HardSigmoid" type="HardSigmoid" version="opset1">
			<input>
				<port id="0">
					<dim>1</dim>
					<dim>16</dim>
					<dim>112</dim>
					<dim>112</dim>
				</port>
				<port id="1"/>
				<port id="2"/>
			</input>
			<output>
				<port id="3" precision="FP32" names="/features/features.0/features.0.2/HardSigmoid_output_0">
					<dim>1</dim>
					<dim>16</dim>
					<dim>112</dim>
					<dim>112</dim>
				</port>
			</output>
		</layer>
		<layer id="413" name="/features/features.0/features.0.2/Mul/fq_input_1" type="FakeQuantize" version="opset1">
			<data levels="256" auto_broadcast="numpy"/>
			<input>
				<port id="0">
					<dim>1</dim>
					<dim>16</dim>
					<dim>112</dim>
					<dim>112</dim>
				</port>
				<port id="1"/>
				<port id="2"/>
				<port id="3"/>
				<port id="4"/>
			</input>
			<output>
				<port id="5" precision="FP32">
					<dim>1</dim>
					<dim>16</dim>
					<dim>112</dim>
					<dim>112</dim>
				</port>
			</output>
		</layer>
		<layer id="414" name="/features/features.0/features.0.2/Mul" type="Multiply" version="opset1">
			<data auto_broadcast="numpy"/>
			<input>
				<port id="0">
					<dim>1</dim>
					<dim>16</dim>
					<dim>112</dim>
					<dim>112</dim>
				</port>
				<port id="1">
					<dim>1</dim>
					<dim>16</dim>
					<dim>112</dim>
					<dim>112</dim>
				</port>
			</input>
			<output>
				<port id="2" precision="FP32" names="/features/features.0/features.0.2/Mul_output_0">
					<dim>1</dim>
					<dim>16</dim>
					<dim>112</dim>
					<dim>112</dim>
				</port>
			</output>
		</layer>
		<layer id="415" name="/features/features.1/block/block.0/block.0.0/Conv/WithoutBiases/fq_input_0" type="FakeQuantize" version="opset1">
			<data levels="256" auto_broadcast="numpy"/>
			<input>
				<port id="0">
					<dim>1</dim>
					<dim>16</dim>
					<dim>112</dim>
					<dim>112</dim>
				</port>
				<port id="1">
					<dim>1</dim>
					<dim>16</dim>
					<dim>1</dim>
					<dim>1</dim>
				</port>
				<port id="2">
					<dim>1</dim>
					<dim>16</dim>
					<dim>1</dim>
					<dim>1</dim>
				</port>
				<port id="3">
					<dim>1</dim>
					<dim>16</dim>
					<dim>1</dim>
					<dim>1</dim>
				</port>
				<port id="4">
					<dim>1</dim>
					<dim>16</dim>
					<dim>1</dim>
					<dim>1</dim>
				</port>
			</input>
			<output>
				<port id="5" precision="FP32">
					<dim>1</dim>
					<dim>16</dim>
					<dim>112</dim>
					<dim>112</dim>
				</port>
			</output>
		</layer>
		<layer id="416" name="/features/features.1/block/block.0/block.0.0/Conv/WithoutBiases/weights_shape1301714886" type="Const" version="opset1">
			<data offset="20780" size="40" shape="5" element_type="i64"/>
			<output>
				<port id="0" precision="I64">
					<dim>5</dim>
				</port>
			</output>
		</layer>
		<layer id="417" name="/features/features.1/block/block.0/block.0.0/Conv/WithoutBiases/fq_weights_1/scale1058514913" type="Const" version="opset1">
			<data offset="20820" size="64" shape="16,1,1,1" element_type="f32"/>
			<output>
				<port id="0" precision="FP32">
					<dim>16</dim>
					<dim>1</dim>
					<dim>1</dim>
					<dim>1</dim>
				</port>
			</output>
		</layer>
		<layer id="418" name="Reshape_1365458049/restored_convert/quantized1057716731" type="Const" version="opset1">
			<data offset="20884" size="144" shape="16,1,3,3" element_type="i8"/>
			<output>
				<port id="0" precision="I8">
					<dim>16</dim>
					<dim>1</dim>
					<dim>3</dim>
					<dim>3</dim>
				</port>
			</output>
		</layer>
		<layer id="419" name="Reshape_1365458049/restored_convert/quantized/to_f32" type="Convert" version="opset1">
			<data destination_type="f32"/>
			<input>
				<port id="0">
					<dim>16</dim>
					<dim>1</dim>
					<dim>3</dim>
					<dim>3</dim>
				</port>
			</input>
			<output>
				<port id="1" precision="FP32">
					<dim>16</dim>
					<dim>1</dim>
					<dim>3</dim>
					<dim>3</dim>
				</port>
			</output>
		</layer>
		<layer id="420" name="/features/features.1/block/block.0/block.0.0/Conv/WithoutBiases/fq_weights_1/mulpiply_by_scale" type="Multiply" version="opset1">
			<data auto_broadcast="numpy"/>
			<input>
				<port id="0">
					<dim>16</dim>
					<dim>1</dim>
					<dim>3</dim>
					<dim>3</dim>
				</port>
				<port id="1">
					<dim>16</dim>
					<dim>1</dim>
					<dim>1</dim>
					<dim>1</dim>
				</port>
			</input>
			<output>
				<port id="2" precision="FP32">
					<dim>16</dim>
					<dim>1</dim>
					<dim>3</dim>
					<dim>3</dim>
				</port>
			</output>
		</layer>
		<layer id="421" name="13016" type="Reshape" version="opset1">
			<data special_zero="true"/>
			<input>
				<port id="0">
					<dim>16</dim>
					<dim>1</dim>
					<dim>3</dim>
					<dim>3</dim>
				</port>
				<port id="1">
					<dim>5</dim>
				</port>
			</input>
			<output>
				<port id="2" precision="FP32">
					<dim>16</dim>
					<dim>1</dim>
					<dim>1</dim>
					<dim>3</dim>
					<dim>3</dim>
				</port>
			</output>
		</layer>
		<layer id="422" name="/features/features.1/block/block.0/block.0.0/Conv/WithoutBiases" type="GroupConvolution" version="opset1">
			<data auto_pad="explicit" strides="2,2" dilations="1,1" pads_begin="1,1" pads_end="1,1"/>
			<input>
				<port id="0">
					<dim>1</dim>
					<dim>16</dim>
					<dim>112</dim>
					<dim>112</dim>
				</port>
				<port id="1">
					<dim>16</dim>
					<dim>1</dim>
					<dim>1</dim>
					<dim>3</dim>
					<dim>3</dim>
				</port>
			</input>
			<output>
				<port id="2" precision="FP32">
					<dim>1</dim>
					<dim>16</dim>
					<dim>56</dim>
					<dim>56</dim>
				</port>
			</output>
		</layer>
		<layer id="423" name="Reshape_18854816191" type="Const" version="opset1">
			<data offset="21028" size="32" shape="1,16,1,1" element_type="f16"/>
			<output>
				<port id="0" precision="FP16">
					<dim>1</dim>
					<dim>16</dim>
					<dim>1</dim>
					<dim>1</dim>
				</port>
			</output>
		</layer>
		<layer id="424" name="Reshape_1885488050/restored_convert" type="Convert" version="opset1">
			<data destination_type="f32"/>
			<rt_info>
				<attribute name="decompression" version="0"/>
			</rt_info>
			<input>
				<port id="0">
					<dim>1</dim>
					<dim>16</dim>
					<dim>1</dim>
					<dim>1</dim>
				</port>
			</input>
			<output>
				<port id="1" precision="FP32">
					<dim>1</dim>
					<dim>16</dim>
					<dim>1</dim>
					<dim>1</dim>
				</port>
			</output>
		</layer>
		<layer id="425" name="/features/features.1/block/block.0/block.0.0/Conv" type="Add" version="opset1">
			<data auto_broadcast="numpy"/>
			<input>
				<port id="0">
					<dim>1</dim>
					<dim>16</dim>
					<dim>56</dim>
					<dim>56</dim>
				</port>
				<port id="1">
					<dim>1</dim>
					<dim>16</dim>
					<dim>1</dim>
					<dim>1</dim>
				</port>
			</input>
			<output>
				<port id="2" precision="FP32" names="/features/features.1/block/block.0/block.0.0/Conv_output_0">
					<dim>1</dim>
					<dim>16</dim>
					<dim>56</dim>
					<dim>56</dim>
				</port>
			</output>
		</layer>
		<layer id="426" name="/features/features.1/block/block.0/block.0.2/Relu" type="ReLU" version="opset1">
			<input>
				<port id="0">
					<dim>1</dim>
					<dim>16</dim>
					<dim>56</dim>
					<dim>56</dim>
				</port>
			</input>
			<output>
				<port id="1" precision="FP32" names="/features/features.1/block/block.0/block.0.2/Relu_output_0">
					<dim>1</dim>
					<dim>16</dim>
					<dim>56</dim>
					<dim>56</dim>
				</port>
			</output>
		</layer>
		<layer id="427" name="/features/features.1/block/block.1/GlobalAveragePool/fq_input_0" type="FakeQuantize" version="opset1">
			<data levels="256" auto_broadcast="numpy"/>
			<input>
				<port id="0">
					<dim>1</dim>
					<dim>16</dim>
					<dim>56</dim>
					<dim>56</dim>
				</port>
				<port id="1"/>
				<port id="2"/>
				<port id="3"/>
				<port id="4"/>
			</input>
			<output>
				<port id="5" precision="FP32">
					<dim>1</dim>
					<dim>16</dim>
					<dim>56</dim>
					<dim>56</dim>
				</port>
			</output>
		</layer>
		<layer id="428" name="Range_199551" type="Const" version="opset1">
			<data offset="21060" size="16" shape="2" element_type="i64"/>
			<output>
				<port id="0" precision="I64">
					<dim>2</dim>
				</port>
			</output>
		</layer>
		<layer id="429" name="/features/features.1/block/block.1/GlobalAveragePool" type="ReduceMean" version="opset1">
			<data keep_dims="true"/>
			<input>
				<port id="0">
					<dim>1</dim>
					<dim>16</dim>
					<dim>56</dim>
					<dim>56</dim>
				</port>
				<port id="1">
					<dim>2</dim>
				</port>
			</input>
			<output>
				<port id="2" precision="FP32" names="/features/features.1/block/block.1/GlobalAveragePool_output_0">
					<dim>1</dim>
					<dim>16</dim>
					<dim>1</dim>
					<dim>1</dim>
				</port>
			</output>
		</layer>
		<layer id="430" name="/features/features.1/block/block.1/fc1/Conv/WithoutBiases/fq_input_0" type="FakeQuantize" version="opset1">
			<data levels="256" auto_broadcast="numpy"/>
			<input>
				<port id="0">
					<dim>1</dim>
					<dim>16</dim>
					<dim>1</dim>
					<dim>1</dim>
				</port>
				<port id="1"/>
				<port id="2"/>
				<port id="3"/>
				<port id="4"/>
			</input>
			<output>
				<port id="5" precision="FP32">
					<dim>1</dim>
					<dim>16</dim>
					<dim>1</dim>
					<dim>1</dim>
				</port>
			</output>
		</layer>
		<layer id="431" name="/features/features.1/block/block.1/fc1/Conv/WithoutBiases/fq_weights_1/scale923515303" type="Const" version="opset1">
			<data offset="21076" size="32" shape="8,1,1,1" element_type="f32"/>
			<output>
				<port id="0" precision="FP32">
					<dim>8</dim>
					<dim>1</dim>
					<dim>1</dim>
					<dim>1</dim>
				</port>
			</output>
		</layer>
		<layer id="432" name="features.1.block.1.fc1.weight5538052/quantized922715543" type="Const" version="opset1">
			<data offset="21108" size="128" shape="8,16,1,1" element_type="i8"/>
			<output>
				<port id="0" precision="I8">
					<dim>8</dim>
					<dim>16</dim>
					<dim>1</dim>
					<dim>1</dim>
				</port>
			</output>
		</layer>
		<layer id="433" name="features.1.block.1.fc1.weight5538052/quantized/to_f32" type="Convert" version="opset1">
			<data destination_type="f32"/>
			<input>
				<port id="0">
					<dim>8</dim>
					<dim>16</dim>
					<dim>1</dim>
					<dim>1</dim>
				</port>
			</input>
			<output>
				<port id="1" precision="FP32">
					<dim>8</dim>
					<dim>16</dim>
					<dim>1</dim>
					<dim>1</dim>
				</port>
			</output>
		</layer>
		<layer id="434" name="/features/features.1/block/block.1/fc1/Conv/WithoutBiases/fq_weights_1/mulpiply_by_scale" type="Multiply" version="opset1">
			<data auto_broadcast="numpy"/>
			<input>
				<port id="0">
					<dim>8</dim>
					<dim>16</dim>
					<dim>1</dim>
					<dim>1</dim>
				</port>
				<port id="1">
					<dim>8</dim>
					<dim>1</dim>
					<dim>1</dim>
					<dim>1</dim>
				</port>
			</input>
			<output>
				<port id="2" precision="FP32">
					<dim>8</dim>
					<dim>16</dim>
					<dim>1</dim>
					<dim>1</dim>
				</port>
			</output>
		</layer>
		<layer id="435" name="/features/features.1/block/block.1/fc1/Conv/WithoutBiases" type="Convolution" version="opset1">
			<data auto_pad="explicit" strides="1,1" dilations="1,1" pads_begin="0,0" pads_end="0,0"/>
			<input>
				<port id="0">
					<dim>1</dim>
					<dim>16</dim>
					<dim>1</dim>
					<dim>1</dim>
				</port>
				<port id="1">
					<dim>8</dim>
					<dim>16</dim>
					<dim>1</dim>
					<dim>1</dim>
				</port>
			</input>
			<output>
				<port id="2" precision="FP32">
					<dim>1</dim>
					<dim>8</dim>
					<dim>1</dim>
					<dim>1</dim>
				</port>
			</output>
		</layer>
		<layer id="436" name="Reshape_21455516521" type="Const" version="opset1">
			<data offset="21236" size="32" shape="1,8,1,1" element_type="f32"/>
			<output>
				<port id="0" precision="FP32">
					<dim>1</dim>
					<dim>8</dim>
					<dim>1</dim>
					<dim>1</dim>
				</port>
			</output>
		</layer>
		<layer id="437" name="/features/features.1/block/block.1/fc1/Conv" type="Add" version="opset1">
			<data auto_broadcast="numpy"/>
			<input>
				<port id="0">
					<dim>1</dim>
					<dim>8</dim>
					<dim>1</dim>
					<dim>1</dim>
				</port>
				<port id="1">
					<dim>1</dim>
					<dim>8</dim>
					<dim>1</dim>
					<dim>1</dim>
				</port>
			</input>
			<output>
				<port id="2" precision="FP32" names="/features/features.1/block/block.1/fc1/Conv_output_0">
					<dim>1</dim>
					<dim>8</dim>
					<dim>1</dim>
					<dim>1</dim>
				</port>
			</output>
		</layer>
		<layer id="438" name="/features/features.1/block/block.1/Relu" type="ReLU" version="opset1">
			<input>
				<port id="0">
					<dim>1</dim>
					<dim>8</dim>
					<dim>1</dim>
					<dim>1</dim>
				</port>
			</input>
			<output>
				<port id="1" precision="FP32" names="/features/features.1/block/block.1/Relu_output_0">
					<dim>1</dim>
					<dim>8</dim>
					<dim>1</dim>
					<dim>1</dim>
				</port>
			</output>
		</layer>
		<layer id="439" name="/features/features.1/block/block.1/fc2/Conv/WithoutBiases/fq_input_0" type="FakeQuantize" version="opset1">
			<data levels="256" auto_broadcast="numpy"/>
			<input>
				<port id="0">
					<dim>1</dim>
					<dim>8</dim>
					<dim>1</dim>
					<dim>1</dim>
				</port>
				<port id="1"/>
				<port id="2"/>
				<port id="3"/>
				<port id="4"/>
			</input>
			<output>
				<port id="5" precision="FP32">
					<dim>1</dim>
					<dim>8</dim>
					<dim>1</dim>
					<dim>1</dim>
				</port>
			</output>
		</layer>
		<layer id="440" name="/features/features.1/block/block.1/fc2/Conv/WithoutBiases/fq_weights_1/scale932514991" type="Const" version="opset1">
			<data offset="21268" size="64" shape="16,1,1,1" element_type="f32"/>
			<output>
				<port id="0" precision="FP32">
					<dim>16</dim>
					<dim>1</dim>
					<dim>1</dim>
					<dim>1</dim>
				</port>
			</output>
		</layer>
		<layer id="441" name="features.1.block.1.fc2.weight5588054/quantized931715726" type="Const" version="opset1">
			<data offset="21332" size="128" shape="16,8,1,1" element_type="i8"/>
			<output>
				<port id="0" precision="I8">
					<dim>16</dim>
					<dim>8</dim>
					<dim>1</dim>
					<dim>1</dim>
				</port>
			</output>
		</layer>
		<layer id="442" name="features.1.block.1.fc2.weight5588054/quantized/to_f32" type="Convert" version="opset1">
			<data destination_type="f32"/>
			<input>
				<port id="0">
					<dim>16</dim>
					<dim>8</dim>
					<dim>1</dim>
					<dim>1</dim>
				</port>
			</input>
			<output>
				<port id="1" precision="FP32">
					<dim>16</dim>
					<dim>8</dim>
					<dim>1</dim>
					<dim>1</dim>
				</port>
			</output>
		</layer>
		<layer id="443" name="/features/features.1/block/block.1/fc2/Conv/WithoutBiases/fq_weights_1/mulpiply_by_scale" type="Multiply" version="opset1">
			<data auto_broadcast="numpy"/>
			<input>
				<port id="0">
					<dim>16</dim>
					<dim>8</dim>
					<dim>1</dim>
					<dim>1</dim>
				</port>
				<port id="1">
					<dim>16</dim>
					<dim>1</dim>
					<dim>1</dim>
					<dim>1</dim>
				</port>
			</input>
			<output>
				<port id="2" precision="FP32">
					<dim>16</dim>
					<dim>8</dim>
					<dim>1</dim>
					<dim>1</dim>
				</port>
			</output>
		</layer>
		<layer id="444" name="/features/features.1/block/block.1/fc2/Conv/WithoutBiases" type="Convolution" version="opset1">
			<data auto_pad="explicit" strides="1,1" dilations="1,1" pads_begin="0,0" pads_end="0,0"/>
			<input>
				<port id="0">
					<dim>1</dim>
					<dim>8</dim>
					<dim>1</dim>
					<dim>1</dim>
				</port>
				<port id="1">
					<dim>16</dim>
					<dim>8</dim>
					<dim>1</dim>
					<dim>1</dim>
				</port>
			</input>
			<output>
				<port id="2" precision="FP32">
					<dim>1</dim>
					<dim>16</dim>
					<dim>1</dim>
					<dim>1</dim>
				</port>
			</output>
		</layer>
		<layer id="445" name="Reshape_23056115204" type="Const" version="opset1">
			<data offset="21460" size="32" shape="1,16,1,1" element_type="f16"/>
			<output>
				<port id="0" precision="FP16">
					<dim>1</dim>
					<dim>16</dim>
					<dim>1</dim>
					<dim>1</dim>
				</port>
			</output>
		</layer>
		<layer id="446" name="Reshape_2305618055/restored_convert" type="Convert" version="opset1">
			<data destination_type="f32"/>
			<rt_info>
				<attribute name="decompression" version="0"/>
			</rt_info>
			<input>
				<port id="0">
					<dim>1</dim>
					<dim>16</dim>
					<dim>1</dim>
					<dim>1</dim>
				</port>
			</input>
			<output>
				<port id="1" precision="FP32">
					<dim>1</dim>
					<dim>16</dim>
					<dim>1</dim>
					<dim>1</dim>
				</port>
			</output>
		</layer>
		<layer id="447" name="/features/features.1/block/block.1/fc2/Conv" type="Add" version="opset1">
			<data auto_broadcast="numpy"/>
			<input>
				<port id="0">
					<dim>1</dim>
					<dim>16</dim>
					<dim>1</dim>
					<dim>1</dim>
				</port>
				<port id="1">
					<dim>1</dim>
					<dim>16</dim>
					<dim>1</dim>
					<dim>1</dim>
				</port>
			</input>
			<output>
				<port id="2" precision="FP32" names="/features/features.1/block/block.1/fc2/Conv_output_0">
					<dim>1</dim>
					<dim>16</dim>
					<dim>1</dim>
					<dim>1</dim>
				</port>
			</output>
		</layer>
		<layer id="448" name="Constant_23456416101" type="Const" version="opset1">
			<data offset="20776" size="2" shape="" element_type="f16"/>
			<output>
				<port id="0" precision="FP16"/>
			</output>
		</layer>
		<layer id="449" name="Constant_2345648056/restored_convert" type="Convert" version="opset1">
			<data destination_type="f32"/>
			<rt_info>
				<attribute name="decompression" version="0"/>
			</rt_info>
			<input>
				<port id="0"/>
			</input>
			<output>
				<port id="1" precision="FP32"/>
			</output>
		</layer>
		<layer id="450" name="Constant_23556614631" type="Const" version="opset1">
			<data offset="20778" size="2" shape="" element_type="f16"/>
			<output>
				<port id="0" precision="FP16"/>
			</output>
		</layer>
		<layer id="451" name="Constant_2355668057/restored_convert" type="Convert" version="opset1">
			<data destination_type="f32"/>
			<rt_info>
				<attribute name="decompression" version="0"/>
			</rt_info>
			<input>
				<port id="0"/>
			</input>
			<output>
				<port id="1" precision="FP32"/>
			</output>
		</layer>
		<layer id="452" name="/features/features.1/block/block.1/HardSigmoid" type="HardSigmoid" version="opset1">
			<input>
				<port id="0">
					<dim>1</dim>
					<dim>16</dim>
					<dim>1</dim>
					<dim>1</dim>
				</port>
				<port id="1"/>
				<port id="2"/>
			</input>
			<output>
				<port id="3" precision="FP32" names="/features/features.1/block/block.1/HardSigmoid_output_0">
					<dim>1</dim>
					<dim>16</dim>
					<dim>1</dim>
					<dim>1</dim>
				</port>
			</output>
		</layer>
		<layer id="453" name="/features/features.1/block/block.1/Mul/fq_input_0" type="FakeQuantize" version="opset1">
			<data levels="256" auto_broadcast="numpy"/>
			<input>
				<port id="0">
					<dim>1</dim>
					<dim>16</dim>
					<dim>1</dim>
					<dim>1</dim>
				</port>
				<port id="1"/>
				<port id="2"/>
				<port id="3"/>
				<port id="4"/>
			</input>
			<output>
				<port id="5" precision="FP32">
					<dim>1</dim>
					<dim>16</dim>
					<dim>1</dim>
					<dim>1</dim>
				</port>
			</output>
		</layer>
		<layer id="454" name="/features/features.1/block/block.1/Mul" type="Multiply" version="opset1">
			<data auto_broadcast="numpy"/>
			<input>
				<port id="0">
					<dim>1</dim>
					<dim>16</dim>
					<dim>1</dim>
					<dim>1</dim>
				</port>
				<port id="1">
					<dim>1</dim>
					<dim>16</dim>
					<dim>56</dim>
					<dim>56</dim>
				</port>
			</input>
			<output>
				<port id="2" precision="FP32" names="/features/features.1/block/block.1/Mul_output_0">
					<dim>1</dim>
					<dim>16</dim>
					<dim>56</dim>
					<dim>56</dim>
				</port>
			</output>
		</layer>
		<layer id="455" name="/features/features.1/block/block.2/block.2.0/Conv/WithoutBiases/fq_input_0" type="FakeQuantize" version="opset1">
			<data levels="256" auto_broadcast="numpy"/>
			<input>
				<port id="0">
					<dim>1</dim>
					<dim>16</dim>
					<dim>56</dim>
					<dim>56</dim>
				</port>
				<port id="1"/>
				<port id="2"/>
				<port id="3"/>
				<port id="4"/>
			</input>
			<output>
				<port id="5" precision="FP32">
					<dim>1</dim>
					<dim>16</dim>
					<dim>56</dim>
					<dim>56</dim>
				</port>
			</output>
		</layer>
		<layer id="456" name="/features/features.1/block/block.2/block.2.0/Conv/WithoutBiases/fq_weights_1/scale1028514961" type="Const" version="opset1">
			<data offset="21492" size="64" shape="16,1,1,1" element_type="f32"/>
			<output>
				<port id="0" precision="FP32">
					<dim>16</dim>
					<dim>1</dim>
					<dim>1</dim>
					<dim>1</dim>
				</port>
			</output>
		</layer>
		<layer id="457" name="onnx::Conv_4275708058/restored_convert/quantized1027715102" type="Const" version="opset1">
			<data offset="21556" size="256" shape="16,16,1,1" element_type="i8"/>
			<output>
				<port id="0" precision="I8">
					<dim>16</dim>
					<dim>16</dim>
					<dim>1</dim>
					<dim>1</dim>
				</port>
			</output>
		</layer>
		<layer id="458" name="onnx::Conv_4275708058/restored_convert/quantized/to_f32" type="Convert" version="opset1">
			<data destination_type="f32"/>
			<input>
				<port id="0">
					<dim>16</dim>
					<dim>16</dim>
					<dim>1</dim>
					<dim>1</dim>
				</port>
			</input>
			<output>
				<port id="1" precision="FP32">
					<dim>16</dim>
					<dim>16</dim>
					<dim>1</dim>
					<dim>1</dim>
				</port>
			</output>
		</layer>
		<layer id="459" name="/features/features.1/block/block.2/block.2.0/Conv/WithoutBiases/fq_weights_1/mulpiply_by_scale" type="Multiply" version="opset1">
			<data auto_broadcast="numpy"/>
			<input>
				<port id="0">
					<dim>16</dim>
					<dim>16</dim>
					<dim>1</dim>
					<dim>1</dim>
				</port>
				<port id="1">
					<dim>16</dim>
					<dim>1</dim>
					<dim>1</dim>
					<dim>1</dim>
				</port>
			</input>
			<output>
				<port id="2" precision="FP32">
					<dim>16</dim>
					<dim>16</dim>
					<dim>1</dim>
					<dim>1</dim>
				</port>
			</output>
		</layer>
		<layer id="460" name="/features/features.1/block/block.2/block.2.0/Conv/WithoutBiases" type="Convolution" version="opset1">
			<data auto_pad="explicit" strides="1,1" dilations="1,1" pads_begin="0,0" pads_end="0,0"/>
			<input>
				<port id="0">
					<dim>1</dim>
					<dim>16</dim>
					<dim>56</dim>
					<dim>56</dim>
				</port>
				<port id="1">
					<dim>16</dim>
					<dim>16</dim>
					<dim>1</dim>
					<dim>1</dim>
				</port>
			</input>
			<output>
				<port id="2" precision="FP32">
					<dim>1</dim>
					<dim>16</dim>
					<dim>56</dim>
					<dim>56</dim>
				</port>
			</output>
		</layer>
		<layer id="461" name="Reshape_24957314919" type="Const" version="opset1">
			<data offset="21812" size="32" shape="1,16,1,1" element_type="f16"/>
			<output>
				<port id="0" precision="FP16">
					<dim>1</dim>
					<dim>16</dim>
					<dim>1</dim>
					<dim>1</dim>
				</port>
			</output>
		</layer>
		<layer id="462" name="Reshape_2495738059/restored_convert" type="Convert" version="opset1">
			<data destination_type="f32"/>
			<rt_info>
				<attribute name="decompression" version="0"/>
			</rt_info>
			<input>
				<port id="0">
					<dim>1</dim>
					<dim>16</dim>
					<dim>1</dim>
					<dim>1</dim>
				</port>
			</input>
			<output>
				<port id="1" precision="FP32">
					<dim>1</dim>
					<dim>16</dim>
					<dim>1</dim>
					<dim>1</dim>
				</port>
			</output>
		</layer>
		<layer id="463" name="/features/features.1/block/block.2/block.2.0/Conv" type="Add" version="opset1">
			<data auto_broadcast="numpy"/>
			<input>
				<port id="0">
					<dim>1</dim>
					<dim>16</dim>
					<dim>56</dim>
					<dim>56</dim>
				</port>
				<port id="1">
					<dim>1</dim>
					<dim>16</dim>
					<dim>1</dim>
					<dim>1</dim>
				</port>
			</input>
			<output>
				<port id="2" precision="FP32" names="/features/features.1/block/block.2/block.2.0/Conv_output_0">
					<dim>1</dim>
					<dim>16</dim>
					<dim>56</dim>
					<dim>56</dim>
				</port>
			</output>
		</layer>
		<layer id="464" name="/features/features.2/block/block.0/block.0.0/Conv/WithoutBiases/fq_input_0" type="FakeQuantize" version="opset1">
			<data levels="256" auto_broadcast="numpy"/>
			<input>
				<port id="0">
					<dim>1</dim>
					<dim>16</dim>
					<dim>56</dim>
					<dim>56</dim>
				</port>
				<port id="1"/>
				<port id="2"/>
				<port id="3"/>
				<port id="4"/>
			</input>
			<output>
				<port id="5" precision="FP32">
					<dim>1</dim>
					<dim>16</dim>
					<dim>56</dim>
					<dim>56</dim>
				</port>
			</output>
		</layer>
		<layer id="465" name="/features/features.2/block/block.0/block.0.0/Conv/WithoutBiases/fq_weights_1/scale1022516239" type="Const" version="opset1">
			<data offset="21844" size="288" shape="72,1,1,1" element_type="f32"/>
			<output>
				<port id="0" precision="FP32">
					<dim>72</dim>
					<dim>1</dim>
					<dim>1</dim>
					<dim>1</dim>
				</port>
			</output>
		</layer>
		<layer id="466" name="onnx::Conv_4305768060/restored_convert/quantized1021714967" type="Const" version="opset1">
			<data offset="22132" size="1152" shape="72,16,1,1" element_type="i8"/>
			<output>
				<port id="0" precision="I8">
					<dim>72</dim>
					<dim>16</dim>
					<dim>1</dim>
					<dim>1</dim>
				</port>
			</output>
		</layer>
		<layer id="467" name="onnx::Conv_4305768060/restored_convert/quantized/to_f32" type="Convert" version="opset1">
			<data destination_type="f32"/>
			<input>
				<port id="0">
					<dim>72</dim>
					<dim>16</dim>
					<dim>1</dim>
					<dim>1</dim>
				</port>
			</input>
			<output>
				<port id="1" precision="FP32">
					<dim>72</dim>
					<dim>16</dim>
					<dim>1</dim>
					<dim>1</dim>
				</port>
			</output>
		</layer>
		<layer id="468" name="/features/features.2/block/block.0/block.0.0/Conv/WithoutBiases/fq_weights_1/mulpiply_by_scale" type="Multiply" version="opset1">
			<data auto_broadcast="numpy"/>
			<input>
				<port id="0">
					<dim>72</dim>
					<dim>16</dim>
					<dim>1</dim>
					<dim>1</dim>
				</port>
				<port id="1">
					<dim>72</dim>
					<dim>1</dim>
					<dim>1</dim>
					<dim>1</dim>
				</port>
			</input>
			<output>
				<port id="2" precision="FP32">
					<dim>72</dim>
					<dim>16</dim>
					<dim>1</dim>
					<dim>1</dim>
				</port>
			</output>
		</layer>
		<layer id="469" name="/features/features.2/block/block.0/block.0.0/Conv/WithoutBiases" type="Convolution" version="opset1">
			<data auto_pad="explicit" strides="1,1" dilations="1,1" pads_begin="0,0" pads_end="0,0"/>
			<input>
				<port id="0">
					<dim>1</dim>
					<dim>16</dim>
					<dim>56</dim>
					<dim>56</dim>
				</port>
				<port id="1">
					<dim>72</dim>
					<dim>16</dim>
					<dim>1</dim>
					<dim>1</dim>
				</port>
			</input>
			<output>
				<port id="2" precision="FP32">
					<dim>1</dim>
					<dim>72</dim>
					<dim>56</dim>
					<dim>56</dim>
				</port>
			</output>
		</layer>
		<layer id="470" name="Reshape_26457916020" type="Const" version="opset1">
			<data offset="23284" size="144" shape="1,72,1,1" element_type="f16"/>
			<output>
				<port id="0" precision="FP16">
					<dim>1</dim>
					<dim>72</dim>
					<dim>1</dim>
					<dim>1</dim>
				</port>
			</output>
		</layer>
		<layer id="471" name="Reshape_2645798061/restored_convert" type="Convert" version="opset1">
			<data destination_type="f32"/>
			<rt_info>
				<attribute name="decompression" version="0"/>
			</rt_info>
			<input>
				<port id="0">
					<dim>1</dim>
					<dim>72</dim>
					<dim>1</dim>
					<dim>1</dim>
				</port>
			</input>
			<output>
				<port id="1" precision="FP32">
					<dim>1</dim>
					<dim>72</dim>
					<dim>1</dim>
					<dim>1</dim>
				</port>
			</output>
		</layer>
		<layer id="472" name="/features/features.2/block/block.0/block.0.0/Conv" type="Add" version="opset1">
			<data auto_broadcast="numpy"/>
			<input>
				<port id="0">
					<dim>1</dim>
					<dim>72</dim>
					<dim>56</dim>
					<dim>56</dim>
				</port>
				<port id="1">
					<dim>1</dim>
					<dim>72</dim>
					<dim>1</dim>
					<dim>1</dim>
				</port>
			</input>
			<output>
				<port id="2" precision="FP32" names="/features/features.2/block/block.0/block.0.0/Conv_output_0">
					<dim>1</dim>
					<dim>72</dim>
					<dim>56</dim>
					<dim>56</dim>
				</port>
			</output>
		</layer>
		<layer id="473" name="/features/features.2/block/block.0/block.0.2/Relu" type="ReLU" version="opset1">
			<input>
				<port id="0">
					<dim>1</dim>
					<dim>72</dim>
					<dim>56</dim>
					<dim>56</dim>
				</port>
			</input>
			<output>
				<port id="1" precision="FP32" names="/features/features.2/block/block.0/block.0.2/Relu_output_0">
					<dim>1</dim>
					<dim>72</dim>
					<dim>56</dim>
					<dim>56</dim>
				</port>
			</output>
		</layer>
		<layer id="474" name="/features/features.2/block/block.1/block.1.0/Conv/WithoutBiases/fq_input_0" type="FakeQuantize" version="opset1">
			<data levels="256" auto_broadcast="numpy"/>
			<input>
				<port id="0">
					<dim>1</dim>
					<dim>72</dim>
					<dim>56</dim>
					<dim>56</dim>
				</port>
				<port id="1">
					<dim>1</dim>
					<dim>72</dim>
					<dim>1</dim>
					<dim>1</dim>
				</port>
				<port id="2">
					<dim>1</dim>
					<dim>72</dim>
					<dim>1</dim>
					<dim>1</dim>
				</port>
				<port id="3">
					<dim>1</dim>
					<dim>72</dim>
					<dim>1</dim>
					<dim>1</dim>
				</port>
				<port id="4">
					<dim>1</dim>
					<dim>72</dim>
					<dim>1</dim>
					<dim>1</dim>
				</port>
			</input>
			<output>
				<port id="5" precision="FP32">
					<dim>1</dim>
					<dim>72</dim>
					<dim>56</dim>
					<dim>56</dim>
				</port>
			</output>
		</layer>
		<layer id="475" name="/features/features.2/block/block.1/block.1.0/Conv/WithoutBiases/weights_shape1303116695" type="Const" version="opset1">
			<data offset="23428" size="40" shape="5" element_type="i64"/>
			<output>
				<port id="0" precision="I64">
					<dim>5</dim>
				</port>
			</output>
		</layer>
		<layer id="476" name="/features/features.2/block/block.1/block.1.0/Conv/WithoutBiases/fq_weights_1/scale1025516434" type="Const" version="opset1">
			<data offset="23468" size="288" shape="72,1,1,1" element_type="f32"/>
			<output>
				<port id="0" precision="FP32">
					<dim>72</dim>
					<dim>1</dim>
					<dim>1</dim>
					<dim>1</dim>
				</port>
			</output>
		</layer>
		<layer id="477" name="Reshape_2765838062/restored_convert/quantized1024714952" type="Const" version="opset1">
			<data offset="23756" size="648" shape="72,1,3,3" element_type="i8"/>
			<output>
				<port id="0" precision="I8">
					<dim>72</dim>
					<dim>1</dim>
					<dim>3</dim>
					<dim>3</dim>
				</port>
			</output>
		</layer>
		<layer id="478" name="Reshape_2765838062/restored_convert/quantized/to_f32" type="Convert" version="opset1">
			<data destination_type="f32"/>
			<input>
				<port id="0">
					<dim>72</dim>
					<dim>1</dim>
					<dim>3</dim>
					<dim>3</dim>
				</port>
			</input>
			<output>
				<port id="1" precision="FP32">
					<dim>72</dim>
					<dim>1</dim>
					<dim>3</dim>
					<dim>3</dim>
				</port>
			</output>
		</layer>
		<layer id="479" name="/features/features.2/block/block.1/block.1.0/Conv/WithoutBiases/fq_weights_1/mulpiply_by_scale" type="Multiply" version="opset1">
			<data auto_broadcast="numpy"/>
			<input>
				<port id="0">
					<dim>72</dim>
					<dim>1</dim>
					<dim>3</dim>
					<dim>3</dim>
				</port>
				<port id="1">
					<dim>72</dim>
					<dim>1</dim>
					<dim>1</dim>
					<dim>1</dim>
				</port>
			</input>
			<output>
				<port id="2" precision="FP32">
					<dim>72</dim>
					<dim>1</dim>
					<dim>3</dim>
					<dim>3</dim>
				</port>
			</output>
		</layer>
		<layer id="480" name="13030" type="Reshape" version="opset1">
			<data special_zero="true"/>
			<input>
				<port id="0">
					<dim>72</dim>
					<dim>1</dim>
					<dim>3</dim>
					<dim>3</dim>
				</port>
				<port id="1">
					<dim>5</dim>
				</port>
			</input>
			<output>
				<port id="2" precision="FP32">
					<dim>72</dim>
					<dim>1</dim>
					<dim>1</dim>
					<dim>3</dim>
					<dim>3</dim>
				</port>
			</output>
		</layer>
		<layer id="481" name="/features/features.2/block/block.1/block.1.0/Conv/WithoutBiases" type="GroupConvolution" version="opset1">
			<data auto_pad="explicit" strides="2,2" dilations="1,1" pads_begin="1,1" pads_end="1,1"/>
			<input>
				<port id="0">
					<dim>1</dim>
					<dim>72</dim>
					<dim>56</dim>
					<dim>56</dim>
				</port>
				<port id="1">
					<dim>72</dim>
					<dim>1</dim>
					<dim>1</dim>
					<dim>3</dim>
					<dim>3</dim>
				</port>
			</input>
			<output>
				<port id="2" precision="FP32">
					<dim>1</dim>
					<dim>72</dim>
					<dim>28</dim>
					<dim>28</dim>
				</port>
			</output>
		</layer>
		<layer id="482" name="Reshape_32858616152" type="Const" version="opset1">
			<data offset="24404" size="144" shape="1,72,1,1" element_type="f16"/>
			<output>
				<port id="0" precision="FP16">
					<dim>1</dim>
					<dim>72</dim>
					<dim>1</dim>
					<dim>1</dim>
				</port>
			</output>
		</layer>
		<layer id="483" name="Reshape_3285868063/restored_convert" type="Convert" version="opset1">
			<data destination_type="f32"/>
			<rt_info>
				<attribute name="decompression" version="0"/>
			</rt_info>
			<input>
				<port id="0">
					<dim>1</dim>
					<dim>72</dim>
					<dim>1</dim>
					<dim>1</dim>
				</port>
			</input>
			<output>
				<port id="1" precision="FP32">
					<dim>1</dim>
					<dim>72</dim>
					<dim>1</dim>
					<dim>1</dim>
				</port>
			</output>
		</layer>
		<layer id="484" name="/features/features.2/block/block.1/block.1.0/Conv" type="Add" version="opset1">
			<data auto_broadcast="numpy"/>
			<input>
				<port id="0">
					<dim>1</dim>
					<dim>72</dim>
					<dim>28</dim>
					<dim>28</dim>
				</port>
				<port id="1">
					<dim>1</dim>
					<dim>72</dim>
					<dim>1</dim>
					<dim>1</dim>
				</port>
			</input>
			<output>
				<port id="2" precision="FP32" names="/features/features.2/block/block.1/block.1.0/Conv_output_0">
					<dim>1</dim>
					<dim>72</dim>
					<dim>28</dim>
					<dim>28</dim>
				</port>
			</output>
		</layer>
		<layer id="485" name="/features/features.2/block/block.1/block.1.2/Relu" type="ReLU" version="opset1">
			<input>
				<port id="0">
					<dim>1</dim>
					<dim>72</dim>
					<dim>28</dim>
					<dim>28</dim>
				</port>
			</input>
			<output>
				<port id="1" precision="FP32" names="/features/features.2/block/block.1/block.1.2/Relu_output_0">
					<dim>1</dim>
					<dim>72</dim>
					<dim>28</dim>
					<dim>28</dim>
				</port>
			</output>
		</layer>
		<layer id="486" name="/features/features.2/block/block.2/block.2.0/Conv/WithoutBiases/fq_input_0" type="FakeQuantize" version="opset1">
			<data levels="256" auto_broadcast="numpy"/>
			<input>
				<port id="0">
					<dim>1</dim>
					<dim>72</dim>
					<dim>28</dim>
					<dim>28</dim>
				</port>
				<port id="1"/>
				<port id="2"/>
				<port id="3"/>
				<port id="4"/>
			</input>
			<output>
				<port id="5" precision="FP32">
					<dim>1</dim>
					<dim>72</dim>
					<dim>28</dim>
					<dim>28</dim>
				</port>
			</output>
		</layer>
		<layer id="487" name="/features/features.2/block/block.2/block.2.0/Conv/WithoutBiases/fq_weights_1/scale968514871" type="Const" version="opset1">
			<data offset="24548" size="96" shape="24,1,1,1" element_type="f32"/>
			<output>
				<port id="0" precision="FP32">
					<dim>24</dim>
					<dim>1</dim>
					<dim>1</dim>
					<dim>1</dim>
				</port>
			</output>
		</layer>
		<layer id="488" name="onnx::Conv_4365908064/restored_convert/quantized967715681" type="Const" version="opset1">
			<data offset="24644" size="1728" shape="24,72,1,1" element_type="i8"/>
			<output>
				<port id="0" precision="I8">
					<dim>24</dim>
					<dim>72</dim>
					<dim>1</dim>
					<dim>1</dim>
				</port>
			</output>
		</layer>
		<layer id="489" name="onnx::Conv_4365908064/restored_convert/quantized/to_f32" type="Convert" version="opset1">
			<data destination_type="f32"/>
			<input>
				<port id="0">
					<dim>24</dim>
					<dim>72</dim>
					<dim>1</dim>
					<dim>1</dim>
				</port>
			</input>
			<output>
				<port id="1" precision="FP32">
					<dim>24</dim>
					<dim>72</dim>
					<dim>1</dim>
					<dim>1</dim>
				</port>
			</output>
		</layer>
		<layer id="490" name="/features/features.2/block/block.2/block.2.0/Conv/WithoutBiases/fq_weights_1/mulpiply_by_scale" type="Multiply" version="opset1">
			<data auto_broadcast="numpy"/>
			<input>
				<port id="0">
					<dim>24</dim>
					<dim>72</dim>
					<dim>1</dim>
					<dim>1</dim>
				</port>
				<port id="1">
					<dim>24</dim>
					<dim>1</dim>
					<dim>1</dim>
					<dim>1</dim>
				</port>
			</input>
			<output>
				<port id="2" precision="FP32">
					<dim>24</dim>
					<dim>72</dim>
					<dim>1</dim>
					<dim>1</dim>
				</port>
			</output>
		</layer>
		<layer id="491" name="/features/features.2/block/block.2/block.2.0/Conv/WithoutBiases" type="Convolution" version="opset1">
			<data auto_pad="explicit" strides="1,1" dilations="1,1" pads_begin="0,0" pads_end="0,0"/>
			<input>
				<port id="0">
					<dim>1</dim>
					<dim>72</dim>
					<dim>28</dim>
					<dim>28</dim>
				</port>
				<port id="1">
					<dim>24</dim>
					<dim>72</dim>
					<dim>1</dim>
					<dim>1</dim>
				</port>
			</input>
			<output>
				<port id="2" precision="FP32">
					<dim>1</dim>
					<dim>24</dim>
					<dim>28</dim>
					<dim>28</dim>
				</port>
			</output>
		</layer>
		<layer id="492" name="Reshape_34459316416" type="Const" version="opset1">
			<data offset="26372" size="48" shape="1,24,1,1" element_type="f16"/>
			<output>
				<port id="0" precision="FP16">
					<dim>1</dim>
					<dim>24</dim>
					<dim>1</dim>
					<dim>1</dim>
				</port>
			</output>
		</layer>
		<layer id="493" name="Reshape_3445938065/restored_convert" type="Convert" version="opset1">
			<data destination_type="f32"/>
			<rt_info>
				<attribute name="decompression" version="0"/>
			</rt_info>
			<input>
				<port id="0">
					<dim>1</dim>
					<dim>24</dim>
					<dim>1</dim>
					<dim>1</dim>
				</port>
			</input>
			<output>
				<port id="1" precision="FP32">
					<dim>1</dim>
					<dim>24</dim>
					<dim>1</dim>
					<dim>1</dim>
				</port>
			</output>
		</layer>
		<layer id="494" name="/features/features.2/block/block.2/block.2.0/Conv" type="Add" version="opset1">
			<data auto_broadcast="numpy"/>
			<input>
				<port id="0">
					<dim>1</dim>
					<dim>24</dim>
					<dim>28</dim>
					<dim>28</dim>
				</port>
				<port id="1">
					<dim>1</dim>
					<dim>24</dim>
					<dim>1</dim>
					<dim>1</dim>
				</port>
			</input>
			<output>
				<port id="2" precision="FP32" names="/features/features.2/block/block.2/block.2.0/Conv_output_0">
					<dim>1</dim>
					<dim>24</dim>
					<dim>28</dim>
					<dim>28</dim>
				</port>
			</output>
		</layer>
		<layer id="495" name="/features/features.3/Add/fq_input_1" type="FakeQuantize" version="opset1">
			<data levels="256" auto_broadcast="numpy"/>
			<input>
				<port id="0">
					<dim>1</dim>
					<dim>24</dim>
					<dim>28</dim>
					<dim>28</dim>
				</port>
				<port id="1"/>
				<port id="2"/>
				<port id="3"/>
				<port id="4"/>
			</input>
			<output>
				<port id="5" precision="FP32">
					<dim>1</dim>
					<dim>24</dim>
					<dim>28</dim>
					<dim>28</dim>
				</port>
			</output>
		</layer>
		<layer id="496" name="/features/features.3/block/block.0/block.0.0/Conv/WithoutBiases/fq_weights_1/scale995515183" type="Const" version="opset1">
			<data offset="26420" size="352" shape="88,1,1,1" element_type="f32"/>
			<output>
				<port id="0" precision="FP32">
					<dim>88</dim>
					<dim>1</dim>
					<dim>1</dim>
					<dim>1</dim>
				</port>
			</output>
		</layer>
		<layer id="497" name="onnx::Conv_4395968066/restored_convert/quantized994715849" type="Const" version="opset1">
			<data offset="26772" size="2112" shape="88,24,1,1" element_type="i8"/>
			<output>
				<port id="0" precision="I8">
					<dim>88</dim>
					<dim>24</dim>
					<dim>1</dim>
					<dim>1</dim>
				</port>
			</output>
		</layer>
		<layer id="498" name="onnx::Conv_4395968066/restored_convert/quantized/to_f32" type="Convert" version="opset1">
			<data destination_type="f32"/>
			<input>
				<port id="0">
					<dim>88</dim>
					<dim>24</dim>
					<dim>1</dim>
					<dim>1</dim>
				</port>
			</input>
			<output>
				<port id="1" precision="FP32">
					<dim>88</dim>
					<dim>24</dim>
					<dim>1</dim>
					<dim>1</dim>
				</port>
			</output>
		</layer>
		<layer id="499" name="/features/features.3/block/block.0/block.0.0/Conv/WithoutBiases/fq_weights_1/mulpiply_by_scale" type="Multiply" version="opset1">
			<data auto_broadcast="numpy"/>
			<input>
				<port id="0">
					<dim>88</dim>
					<dim>24</dim>
					<dim>1</dim>
					<dim>1</dim>
				</port>
				<port id="1">
					<dim>88</dim>
					<dim>1</dim>
					<dim>1</dim>
					<dim>1</dim>
				</port>
			</input>
			<output>
				<port id="2" precision="FP32">
					<dim>88</dim>
					<dim>24</dim>
					<dim>1</dim>
					<dim>1</dim>
				</port>
			</output>
		</layer>
		<layer id="500" name="/features/features.3/block/block.0/block.0.0/Conv/WithoutBiases" type="Convolution" version="opset1">
			<data auto_pad="explicit" strides="1,1" dilations="1,1" pads_begin="0,0" pads_end="0,0"/>
			<input>
				<port id="0">
					<dim>1</dim>
					<dim>24</dim>
					<dim>28</dim>
					<dim>28</dim>
				</port>
				<port id="1">
					<dim>88</dim>
					<dim>24</dim>
					<dim>1</dim>
					<dim>1</dim>
				</port>
			</input>
			<output>
				<port id="2" precision="FP32">
					<dim>1</dim>
					<dim>88</dim>
					<dim>28</dim>
					<dim>28</dim>
				</port>
			</output>
		</layer>
		<layer id="501" name="Reshape_35959916392" type="Const" version="opset1">
			<data offset="28884" size="176" shape="1,88,1,1" element_type="f16"/>
			<output>
				<port id="0" precision="FP16">
					<dim>1</dim>
					<dim>88</dim>
					<dim>1</dim>
					<dim>1</dim>
				</port>
			</output>
		</layer>
		<layer id="502" name="Reshape_3595998067/restored_convert" type="Convert" version="opset1">
			<data destination_type="f32"/>
			<rt_info>
				<attribute name="decompression" version="0"/>
			</rt_info>
			<input>
				<port id="0">
					<dim>1</dim>
					<dim>88</dim>
					<dim>1</dim>
					<dim>1</dim>
				</port>
			</input>
			<output>
				<port id="1" precision="FP32">
					<dim>1</dim>
					<dim>88</dim>
					<dim>1</dim>
					<dim>1</dim>
				</port>
			</output>
		</layer>
		<layer id="503" name="/features/features.3/block/block.0/block.0.0/Conv" type="Add" version="opset1">
			<data auto_broadcast="numpy"/>
			<input>
				<port id="0">
					<dim>1</dim>
					<dim>88</dim>
					<dim>28</dim>
					<dim>28</dim>
				</port>
				<port id="1">
					<dim>1</dim>
					<dim>88</dim>
					<dim>1</dim>
					<dim>1</dim>
				</port>
			</input>
			<output>
				<port id="2" precision="FP32" names="/features/features.3/block/block.0/block.0.0/Conv_output_0">
					<dim>1</dim>
					<dim>88</dim>
					<dim>28</dim>
					<dim>28</dim>
				</port>
			</output>
		</layer>
		<layer id="504" name="/features/features.3/block/block.0/block.0.2/Relu" type="ReLU" version="opset1">
			<input>
				<port id="0">
					<dim>1</dim>
					<dim>88</dim>
					<dim>28</dim>
					<dim>28</dim>
				</port>
			</input>
			<output>
				<port id="1" precision="FP32" names="/features/features.3/block/block.0/block.0.2/Relu_output_0">
					<dim>1</dim>
					<dim>88</dim>
					<dim>28</dim>
					<dim>28</dim>
				</port>
			</output>
		</layer>
		<layer id="505" name="/features/features.3/block/block.1/block.1.0/Conv/WithoutBiases/fq_input_0" type="FakeQuantize" version="opset1">
			<data levels="256" auto_broadcast="numpy"/>
			<input>
				<port id="0">
					<dim>1</dim>
					<dim>88</dim>
					<dim>28</dim>
					<dim>28</dim>
				</port>
				<port id="1">
					<dim>1</dim>
					<dim>88</dim>
					<dim>1</dim>
					<dim>1</dim>
				</port>
				<port id="2">
					<dim>1</dim>
					<dim>88</dim>
					<dim>1</dim>
					<dim>1</dim>
				</port>
				<port id="3">
					<dim>1</dim>
					<dim>88</dim>
					<dim>1</dim>
					<dim>1</dim>
				</port>
				<port id="4">
					<dim>1</dim>
					<dim>88</dim>
					<dim>1</dim>
					<dim>1</dim>
				</port>
			</input>
			<output>
				<port id="5" precision="FP32">
					<dim>1</dim>
					<dim>88</dim>
					<dim>28</dim>
					<dim>28</dim>
				</port>
			</output>
		</layer>
		<layer id="506" name="/features/features.3/block/block.1/block.1.0/Conv/WithoutBiases/weights_shape1304515999" type="Const" version="opset1">
			<data offset="29060" size="40" shape="5" element_type="i64"/>
			<output>
				<port id="0" precision="I64">
					<dim>5</dim>
				</port>
			</output>
		</layer>
		<layer id="507" name="/features/features.3/block/block.1/block.1.0/Conv/WithoutBiases/fq_weights_1/scale938515399" type="Const" version="opset1">
			<data offset="29100" size="352" shape="88,1,1,1" element_type="f32"/>
			<output>
				<port id="0" precision="FP32">
					<dim>88</dim>
					<dim>1</dim>
					<dim>1</dim>
					<dim>1</dim>
				</port>
			</output>
		</layer>
		<layer id="508" name="Reshape_3716038068/restored_convert/quantized937715255" type="Const" version="opset1">
			<data offset="29452" size="792" shape="88,1,3,3" element_type="i8"/>
			<output>
				<port id="0" precision="I8">
					<dim>88</dim>
					<dim>1</dim>
					<dim>3</dim>
					<dim>3</dim>
				</port>
			</output>
		</layer>
		<layer id="509" name="Reshape_3716038068/restored_convert/quantized/to_f32" type="Convert" version="opset1">
			<data destination_type="f32"/>
			<input>
				<port id="0">
					<dim>88</dim>
					<dim>1</dim>
					<dim>3</dim>
					<dim>3</dim>
				</port>
			</input>
			<output>
				<port id="1" precision="FP32">
					<dim>88</dim>
					<dim>1</dim>
					<dim>3</dim>
					<dim>3</dim>
				</port>
			</output>
		</layer>
		<layer id="510" name="/features/features.3/block/block.1/block.1.0/Conv/WithoutBiases/fq_weights_1/mulpiply_by_scale" type="Multiply" version="opset1">
			<data auto_broadcast="numpy"/>
			<input>
				<port id="0">
					<dim>88</dim>
					<dim>1</dim>
					<dim>3</dim>
					<dim>3</dim>
				</port>
				<port id="1">
					<dim>88</dim>
					<dim>1</dim>
					<dim>1</dim>
					<dim>1</dim>
				</port>
			</input>
			<output>
				<port id="2" precision="FP32">
					<dim>88</dim>
					<dim>1</dim>
					<dim>3</dim>
					<dim>3</dim>
				</port>
			</output>
		</layer>
		<layer id="511" name="13044" type="Reshape" version="opset1">
			<data special_zero="true"/>
			<input>
				<port id="0">
					<dim>88</dim>
					<dim>1</dim>
					<dim>3</dim>
					<dim>3</dim>
				</port>
				<port id="1">
					<dim>5</dim>
				</port>
			</input>
			<output>
				<port id="2" precision="FP32">
					<dim>88</dim>
					<dim>1</dim>
					<dim>1</dim>
					<dim>3</dim>
					<dim>3</dim>
				</port>
			</output>
		</layer>
		<layer id="512" name="/features/features.3/block/block.1/block.1.0/Conv/WithoutBiases" type="GroupConvolution" version="opset1">
			<data auto_pad="explicit" strides="1,1" dilations="1,1" pads_begin="1,1" pads_end="1,1"/>
			<input>
				<port id="0">
					<dim>1</dim>
					<dim>88</dim>
					<dim>28</dim>
					<dim>28</dim>
				</port>
				<port id="1">
					<dim>88</dim>
					<dim>1</dim>
					<dim>1</dim>
					<dim>3</dim>
					<dim>3</dim>
				</port>
			</input>
			<output>
				<port id="2" precision="FP32">
					<dim>1</dim>
					<dim>88</dim>
					<dim>28</dim>
					<dim>28</dim>
				</port>
			</output>
		</layer>
		<layer id="513" name="Reshape_42360616608" type="Const" version="opset1">
			<data offset="30244" size="176" shape="1,88,1,1" element_type="f16"/>
			<output>
				<port id="0" precision="FP16">
					<dim>1</dim>
					<dim>88</dim>
					<dim>1</dim>
					<dim>1</dim>
				</port>
			</output>
		</layer>
		<layer id="514" name="Reshape_4236068069/restored_convert" type="Convert" version="opset1">
			<data destination_type="f32"/>
			<rt_info>
				<attribute name="decompression" version="0"/>
			</rt_info>
			<input>
				<port id="0">
					<dim>1</dim>
					<dim>88</dim>
					<dim>1</dim>
					<dim>1</dim>
				</port>
			</input>
			<output>
				<port id="1" precision="FP32">
					<dim>1</dim>
					<dim>88</dim>
					<dim>1</dim>
					<dim>1</dim>
				</port>
			</output>
		</layer>
		<layer id="515" name="/features/features.3/block/block.1/block.1.0/Conv" type="Add" version="opset1">
			<data auto_broadcast="numpy"/>
			<input>
				<port id="0">
					<dim>1</dim>
					<dim>88</dim>
					<dim>28</dim>
					<dim>28</dim>
				</port>
				<port id="1">
					<dim>1</dim>
					<dim>88</dim>
					<dim>1</dim>
					<dim>1</dim>
				</port>
			</input>
			<output>
				<port id="2" precision="FP32" names="/features/features.3/block/block.1/block.1.0/Conv_output_0">
					<dim>1</dim>
					<dim>88</dim>
					<dim>28</dim>
					<dim>28</dim>
				</port>
			</output>
		</layer>
		<layer id="516" name="/features/features.3/block/block.1/block.1.2/Relu" type="ReLU" version="opset1">
			<input>
				<port id="0">
					<dim>1</dim>
					<dim>88</dim>
					<dim>28</dim>
					<dim>28</dim>
				</port>
			</input>
			<output>
				<port id="1" precision="FP32" names="/features/features.3/block/block.1/block.1.2/Relu_output_0">
					<dim>1</dim>
					<dim>88</dim>
					<dim>28</dim>
					<dim>28</dim>
				</port>
			</output>
		</layer>
		<layer id="517" name="/features/features.3/block/block.2/block.2.0/Conv/WithoutBiases/fq_input_0" type="FakeQuantize" version="opset1">
			<data levels="256" auto_broadcast="numpy"/>
			<input>
				<port id="0">
					<dim>1</dim>
					<dim>88</dim>
					<dim>28</dim>
					<dim>28</dim>
				</port>
				<port id="1"/>
				<port id="2"/>
				<port id="3"/>
				<port id="4"/>
			</input>
			<output>
				<port id="5" precision="FP32">
					<dim>1</dim>
					<dim>88</dim>
					<dim>28</dim>
					<dim>28</dim>
				</port>
			</output>
		</layer>
		<layer id="518" name="/features/features.3/block/block.2/block.2.0/Conv/WithoutBiases/fq_weights_1/scale992516251" type="Const" version="opset1">
			<data offset="30420" size="96" shape="24,1,1,1" element_type="f32"/>
			<output>
				<port id="0" precision="FP32">
					<dim>24</dim>
					<dim>1</dim>
					<dim>1</dim>
					<dim>1</dim>
				</port>
			</output>
		</layer>
		<layer id="519" name="onnx::Conv_4456108070/restored_convert/quantized991715039" type="Const" version="opset1">
			<data offset="30516" size="2112" shape="24,88,1,1" element_type="i8"/>
			<output>
				<port id="0" precision="I8">
					<dim>24</dim>
					<dim>88</dim>
					<dim>1</dim>
					<dim>1</dim>
				</port>
			</output>
		</layer>
		<layer id="520" name="onnx::Conv_4456108070/restored_convert/quantized/to_f32" type="Convert" version="opset1">
			<data destination_type="f32"/>
			<input>
				<port id="0">
					<dim>24</dim>
					<dim>88</dim>
					<dim>1</dim>
					<dim>1</dim>
				</port>
			</input>
			<output>
				<port id="1" precision="FP32">
					<dim>24</dim>
					<dim>88</dim>
					<dim>1</dim>
					<dim>1</dim>
				</port>
			</output>
		</layer>
		<layer id="521" name="/features/features.3/block/block.2/block.2.0/Conv/WithoutBiases/fq_weights_1/mulpiply_by_scale" type="Multiply" version="opset1">
			<data auto_broadcast="numpy"/>
			<input>
				<port id="0">
					<dim>24</dim>
					<dim>88</dim>
					<dim>1</dim>
					<dim>1</dim>
				</port>
				<port id="1">
					<dim>24</dim>
					<dim>1</dim>
					<dim>1</dim>
					<dim>1</dim>
				</port>
			</input>
			<output>
				<port id="2" precision="FP32">
					<dim>24</dim>
					<dim>88</dim>
					<dim>1</dim>
					<dim>1</dim>
				</port>
			</output>
		</layer>
		<layer id="522" name="/features/features.3/block/block.2/block.2.0/Conv/WithoutBiases" type="Convolution" version="opset1">
			<data auto_pad="explicit" strides="1,1" dilations="1,1" pads_begin="0,0" pads_end="0,0"/>
			<input>
				<port id="0">
					<dim>1</dim>
					<dim>88</dim>
					<dim>28</dim>
					<dim>28</dim>
				</port>
				<port id="1">
					<dim>24</dim>
					<dim>88</dim>
					<dim>1</dim>
					<dim>1</dim>
				</port>
			</input>
			<output>
				<port id="2" precision="FP32">
					<dim>1</dim>
					<dim>24</dim>
					<dim>28</dim>
					<dim>28</dim>
				</port>
			</output>
		</layer>
		<layer id="523" name="Reshape_43961315246" type="Const" version="opset1">
			<data offset="32628" size="48" shape="1,24,1,1" element_type="f16"/>
			<output>
				<port id="0" precision="FP16">
					<dim>1</dim>
					<dim>24</dim>
					<dim>1</dim>
					<dim>1</dim>
				</port>
			</output>
		</layer>
		<layer id="524" name="Reshape_4396138071/restored_convert" type="Convert" version="opset1">
			<data destination_type="f32"/>
			<rt_info>
				<attribute name="decompression" version="0"/>
			</rt_info>
			<input>
				<port id="0">
					<dim>1</dim>
					<dim>24</dim>
					<dim>1</dim>
					<dim>1</dim>
				</port>
			</input>
			<output>
				<port id="1" precision="FP32">
					<dim>1</dim>
					<dim>24</dim>
					<dim>1</dim>
					<dim>1</dim>
				</port>
			</output>
		</layer>
		<layer id="525" name="/features/features.3/block/block.2/block.2.0/Conv" type="Add" version="opset1">
			<data auto_broadcast="numpy"/>
			<input>
				<port id="0">
					<dim>1</dim>
					<dim>24</dim>
					<dim>28</dim>
					<dim>28</dim>
				</port>
				<port id="1">
					<dim>1</dim>
					<dim>24</dim>
					<dim>1</dim>
					<dim>1</dim>
				</port>
			</input>
			<output>
				<port id="2" precision="FP32" names="/features/features.3/block/block.2/block.2.0/Conv_output_0">
					<dim>1</dim>
					<dim>24</dim>
					<dim>28</dim>
					<dim>28</dim>
				</port>
			</output>
		</layer>
		<layer id="526" name="/features/features.3/Add/fq_input_0" type="FakeQuantize" version="opset1">
			<data levels="256" auto_broadcast="numpy"/>
			<input>
				<port id="0">
					<dim>1</dim>
					<dim>24</dim>
					<dim>28</dim>
					<dim>28</dim>
				</port>
				<port id="1"/>
				<port id="2"/>
				<port id="3"/>
				<port id="4"/>
			</input>
			<output>
				<port id="5" precision="FP32">
					<dim>1</dim>
					<dim>24</dim>
					<dim>28</dim>
					<dim>28</dim>
				</port>
			</output>
		</layer>
		<layer id="527" name="/features/features.3/Add" type="Add" version="opset1">
			<data auto_broadcast="numpy"/>
			<input>
				<port id="0">
					<dim>1</dim>
					<dim>24</dim>
					<dim>28</dim>
					<dim>28</dim>
				</port>
				<port id="1">
					<dim>1</dim>
					<dim>24</dim>
					<dim>28</dim>
					<dim>28</dim>
				</port>
			</input>
			<output>
				<port id="2" precision="FP32" names="/features/features.3/Add_output_0">
					<dim>1</dim>
					<dim>24</dim>
					<dim>28</dim>
					<dim>28</dim>
				</port>
			</output>
		</layer>
		<layer id="528" name="/features/features.4/block/block.0/block.0.0/Conv/WithoutBiases/fq_input_0" type="FakeQuantize" version="opset1">
			<data levels="256" auto_broadcast="numpy"/>
			<input>
				<port id="0">
					<dim>1</dim>
					<dim>24</dim>
					<dim>28</dim>
					<dim>28</dim>
				</port>
				<port id="1"/>
				<port id="2"/>
				<port id="3"/>
				<port id="4"/>
			</input>
			<output>
				<port id="5" precision="FP32">
					<dim>1</dim>
					<dim>24</dim>
					<dim>28</dim>
					<dim>28</dim>
				</port>
			</output>
		</layer>
		<layer id="529" name="/features/features.4/block/block.0/block.0.0/Conv/WithoutBiases/fq_weights_1/scale935516425" type="Const" version="opset1">
			<data offset="32676" size="384" shape="96,1,1,1" element_type="f32"/>
			<output>
				<port id="0" precision="FP32">
					<dim>96</dim>
					<dim>1</dim>
					<dim>1</dim>
					<dim>1</dim>
				</port>
			</output>
		</layer>
		<layer id="530" name="onnx::Conv_4486178072/restored_convert/quantized934715414" type="Const" version="opset1">
			<data offset="33060" size="2304" shape="96,24,1,1" element_type="i8"/>
			<output>
				<port id="0" precision="I8">
					<dim>96</dim>
					<dim>24</dim>
					<dim>1</dim>
					<dim>1</dim>
				</port>
			</output>
		</layer>
		<layer id="531" name="onnx::Conv_4486178072/restored_convert/quantized/to_f32" type="Convert" version="opset1">
			<data destination_type="f32"/>
			<input>
				<port id="0">
					<dim>96</dim>
					<dim>24</dim>
					<dim>1</dim>
					<dim>1</dim>
				</port>
			</input>
			<output>
				<port id="1" precision="FP32">
					<dim>96</dim>
					<dim>24</dim>
					<dim>1</dim>
					<dim>1</dim>
				</port>
			</output>
		</layer>
		<layer id="532" name="/features/features.4/block/block.0/block.0.0/Conv/WithoutBiases/fq_weights_1/mulpiply_by_scale" type="Multiply" version="opset1">
			<data auto_broadcast="numpy"/>
			<input>
				<port id="0">
					<dim>96</dim>
					<dim>24</dim>
					<dim>1</dim>
					<dim>1</dim>
				</port>
				<port id="1">
					<dim>96</dim>
					<dim>1</dim>
					<dim>1</dim>
					<dim>1</dim>
				</port>
			</input>
			<output>
				<port id="2" precision="FP32">
					<dim>96</dim>
					<dim>24</dim>
					<dim>1</dim>
					<dim>1</dim>
				</port>
			</output>
		</layer>
		<layer id="533" name="/features/features.4/block/block.0/block.0.0/Conv/WithoutBiases" type="Convolution" version="opset1">
			<data auto_pad="explicit" strides="1,1" dilations="1,1" pads_begin="0,0" pads_end="0,0"/>
			<input>
				<port id="0">
					<dim>1</dim>
					<dim>24</dim>
					<dim>28</dim>
					<dim>28</dim>
				</port>
				<port id="1">
					<dim>96</dim>
					<dim>24</dim>
					<dim>1</dim>
					<dim>1</dim>
				</port>
			</input>
			<output>
				<port id="2" precision="FP32">
					<dim>1</dim>
					<dim>96</dim>
					<dim>28</dim>
					<dim>28</dim>
				</port>
			</output>
		</layer>
		<layer id="534" name="Reshape_45562015795" type="Const" version="opset1">
			<data offset="35364" size="192" shape="1,96,1,1" element_type="f16"/>
			<output>
				<port id="0" precision="FP16">
					<dim>1</dim>
					<dim>96</dim>
					<dim>1</dim>
					<dim>1</dim>
				</port>
			</output>
		</layer>
		<layer id="535" name="Reshape_4556208073/restored_convert" type="Convert" version="opset1">
			<data destination_type="f32"/>
			<rt_info>
				<attribute name="decompression" version="0"/>
			</rt_info>
			<input>
				<port id="0">
					<dim>1</dim>
					<dim>96</dim>
					<dim>1</dim>
					<dim>1</dim>
				</port>
			</input>
			<output>
				<port id="1" precision="FP32">
					<dim>1</dim>
					<dim>96</dim>
					<dim>1</dim>
					<dim>1</dim>
				</port>
			</output>
		</layer>
		<layer id="536" name="/features/features.4/block/block.0/block.0.0/Conv" type="Add" version="opset1">
			<data auto_broadcast="numpy"/>
			<input>
				<port id="0">
					<dim>1</dim>
					<dim>96</dim>
					<dim>28</dim>
					<dim>28</dim>
				</port>
…
		<edge from-layer="202" from-port="0" to-layer="809" to-port="2"/>
		<edge from-layer="203" from-port="0" to-layer="809" to-port="3"/>
		<edge from-layer="204" from-port="0" to-layer="809" to-port="4"/>
		<edge from-layer="814" from-port="0" to-layer="815" to-port="0"/>
		<edge from-layer="816" from-port="0" to-layer="817" to-port="0"/>
		<edge from-layer="808" from-port="2" to-layer="818" to-port="0"/>
		<edge from-layer="815" from-port="1" to-layer="818" to-port="1"/>
		<edge from-layer="817" from-port="1" to-layer="818" to-port="2"/>
		<edge from-layer="818" from-port="3" to-layer="819" to-port="0"/>
		<edge from-layer="810" from-port="0" to-layer="819" to-port="1"/>
		<edge from-layer="811" from-port="0" to-layer="819" to-port="2"/>
		<edge from-layer="812" from-port="0" to-layer="819" to-port="3"/>
		<edge from-layer="813" from-port="0" to-layer="819" to-port="4"/>
		<edge from-layer="809" from-port="5" to-layer="820" to-port="0"/>
		<edge from-layer="819" from-port="5" to-layer="820" to-port="1"/>
		<edge from-layer="820" from-port="2" to-layer="821" to-port="0"/>
		<edge from-layer="197" from-port="0" to-layer="821" to-port="1"/>
		<edge from-layer="198" from-port="0" to-layer="821" to-port="2"/>
		<edge from-layer="199" from-port="0" to-layer="821" to-port="3"/>
		<edge from-layer="200" from-port="0" to-layer="821" to-port="4"/>
		<edge from-layer="821" from-port="5" to-layer="823" to-port="0"/>
		<edge from-layer="822" from-port="0" to-layer="823" to-port="1"/>
		<edge from-layer="823" from-port="2" to-layer="824" to-port="0"/>
		<edge from-layer="193" from-port="0" to-layer="824" to-port="1"/>
		<edge from-layer="194" from-port="0" to-layer="824" to-port="2"/>
		<edge from-layer="195" from-port="0" to-layer="824" to-port="3"/>
		<edge from-layer="196" from-port="0" to-layer="824" to-port="4"/>
		<edge from-layer="826" from-port="0" to-layer="827" to-port="0"/>
		<edge from-layer="827" from-port="1" to-layer="828" to-port="0"/>
		<edge from-layer="825" from-port="0" to-layer="828" to-port="1"/>
		<edge from-layer="824" from-port="5" to-layer="829" to-port="0"/>
		<edge from-layer="828" from-port="2" to-layer="829" to-port="1"/>
		<edge from-layer="830" from-port="0" to-layer="831" to-port="0"/>
		<edge from-layer="829" from-port="2" to-layer="832" to-port="0"/>
		<edge from-layer="831" from-port="1" to-layer="832" to-port="1"/>
		<edge from-layer="832" from-port="2" to-layer="833" to-port="0"/>
		<edge from-layer="833" from-port="1" to-layer="834" to-port="0"/>
		<edge from-layer="189" from-port="0" to-layer="834" to-port="1"/>
		<edge from-layer="190" from-port="0" to-layer="834" to-port="2"/>
		<edge from-layer="191" from-port="0" to-layer="834" to-port="3"/>
		<edge from-layer="192" from-port="0" to-layer="834" to-port="4"/>
		<edge from-layer="836" from-port="0" to-layer="837" to-port="0"/>
		<edge from-layer="837" from-port="1" to-layer="838" to-port="0"/>
		<edge from-layer="835" from-port="0" to-layer="838" to-port="1"/>
		<edge from-layer="834" from-port="5" to-layer="839" to-port="0"/>
		<edge from-layer="838" from-port="2" to-layer="839" to-port="1"/>
		<edge from-layer="840" from-port="0" to-layer="841" to-port="0"/>
		<edge from-layer="839" from-port="2" to-layer="842" to-port="0"/>
		<edge from-layer="841" from-port="1" to-layer="842" to-port="1"/>
		<edge from-layer="843" from-port="0" to-layer="844" to-port="0"/>
		<edge from-layer="845" from-port="0" to-layer="846" to-port="0"/>
		<edge from-layer="842" from-port="2" to-layer="847" to-port="0"/>
		<edge from-layer="844" from-port="1" to-layer="847" to-port="1"/>
		<edge from-layer="846" from-port="1" to-layer="847" to-port="2"/>
		<edge from-layer="847" from-port="3" to-layer="848" to-port="0"/>
		<edge from-layer="185" from-port="0" to-layer="848" to-port="1"/>
		<edge from-layer="186" from-port="0" to-layer="848" to-port="2"/>
		<edge from-layer="187" from-port="0" to-layer="848" to-port="3"/>
		<edge from-layer="188" from-port="0" to-layer="848" to-port="4"/>
		<edge from-layer="848" from-port="5" to-layer="849" to-port="0"/>
		<edge from-layer="821" from-port="5" to-layer="849" to-port="1"/>
		<edge from-layer="849" from-port="2" to-layer="850" to-port="0"/>
		<edge from-layer="181" from-port="0" to-layer="850" to-port="1"/>
		<edge from-layer="182" from-port="0" to-layer="850" to-port="2"/>
		<edge from-layer="183" from-port="0" to-layer="850" to-port="3"/>
		<edge from-layer="184" from-port="0" to-layer="850" to-port="4"/>
		<edge from-layer="852" from-port="0" to-layer="853" to-port="0"/>
		<edge from-layer="853" from-port="1" to-layer="854" to-port="0"/>
		<edge from-layer="851" from-port="0" to-layer="854" to-port="1"/>
		<edge from-layer="850" from-port="5" to-layer="855" to-port="0"/>
		<edge from-layer="854" from-port="2" to-layer="855" to-port="1"/>
		<edge from-layer="856" from-port="0" to-layer="857" to-port="0"/>
		<edge from-layer="855" from-port="2" to-layer="858" to-port="0"/>
		<edge from-layer="857" from-port="1" to-layer="858" to-port="1"/>
		<edge from-layer="858" from-port="2" to-layer="859" to-port="0"/>
		<edge from-layer="177" from-port="0" to-layer="859" to-port="1"/>
		<edge from-layer="178" from-port="0" to-layer="859" to-port="2"/>
		<edge from-layer="179" from-port="0" to-layer="859" to-port="3"/>
		<edge from-layer="180" from-port="0" to-layer="859" to-port="4"/>
		<edge from-layer="861" from-port="0" to-layer="862" to-port="0"/>
		<edge from-layer="862" from-port="1" to-layer="863" to-port="0"/>
		<edge from-layer="860" from-port="0" to-layer="863" to-port="1"/>
		<edge from-layer="859" from-port="5" to-layer="864" to-port="0"/>
		<edge from-layer="863" from-port="2" to-layer="864" to-port="1"/>
		<edge from-layer="865" from-port="0" to-layer="866" to-port="0"/>
		<edge from-layer="864" from-port="2" to-layer="867" to-port="0"/>
		<edge from-layer="866" from-port="1" to-layer="867" to-port="1"/>
		<edge from-layer="867" from-port="2" to-layer="868" to-port="0"/>
		<edge from-layer="173" from-port="0" to-layer="868" to-port="1"/>
		<edge from-layer="174" from-port="0" to-layer="868" to-port="2"/>
		<edge from-layer="175" from-port="0" to-layer="868" to-port="3"/>
		<edge from-layer="176" from-port="0" to-layer="868" to-port="4"/>
		<edge from-layer="873" from-port="0" to-layer="874" to-port="0"/>
		<edge from-layer="875" from-port="0" to-layer="876" to-port="0"/>
		<edge from-layer="867" from-port="2" to-layer="877" to-port="0"/>
		<edge from-layer="874" from-port="1" to-layer="877" to-port="1"/>
		<edge from-layer="876" from-port="1" to-layer="877" to-port="2"/>
		<edge from-layer="877" from-port="3" to-layer="878" to-port="0"/>
		<edge from-layer="869" from-port="0" to-layer="878" to-port="1"/>
		<edge from-layer="870" from-port="0" to-layer="878" to-port="2"/>
		<edge from-layer="871" from-port="0" to-layer="878" to-port="3"/>
		<edge from-layer="872" from-port="0" to-layer="878" to-port="4"/>
		<edge from-layer="868" from-port="5" to-layer="879" to-port="0"/>
		<edge from-layer="878" from-port="5" to-layer="879" to-port="1"/>
		<edge from-layer="879" from-port="2" to-layer="880" to-port="0"/>
		<edge from-layer="169" from-port="0" to-layer="880" to-port="1"/>
		<edge from-layer="170" from-port="0" to-layer="880" to-port="2"/>
		<edge from-layer="171" from-port="0" to-layer="880" to-port="3"/>
		<edge from-layer="172" from-port="0" to-layer="880" to-port="4"/>
		<edge from-layer="883" from-port="0" to-layer="884" to-port="0"/>
		<edge from-layer="884" from-port="1" to-layer="885" to-port="0"/>
		<edge from-layer="882" from-port="0" to-layer="885" to-port="1"/>
		<edge from-layer="885" from-port="2" to-layer="886" to-port="0"/>
		<edge from-layer="881" from-port="0" to-layer="886" to-port="1"/>
		<edge from-layer="880" from-port="5" to-layer="887" to-port="0"/>
		<edge from-layer="886" from-port="2" to-layer="887" to-port="1"/>
		<edge from-layer="888" from-port="0" to-layer="889" to-port="0"/>
		<edge from-layer="887" from-port="2" to-layer="890" to-port="0"/>
		<edge from-layer="889" from-port="1" to-layer="890" to-port="1"/>
		<edge from-layer="890" from-port="2" to-layer="891" to-port="0"/>
		<edge from-layer="165" from-port="0" to-layer="891" to-port="1"/>
		<edge from-layer="166" from-port="0" to-layer="891" to-port="2"/>
		<edge from-layer="167" from-port="0" to-layer="891" to-port="3"/>
		<edge from-layer="168" from-port="0" to-layer="891" to-port="4"/>
		<edge from-layer="896" from-port="0" to-layer="897" to-port="0"/>
		<edge from-layer="898" from-port="0" to-layer="899" to-port="0"/>
		<edge from-layer="890" from-port="2" to-layer="900" to-port="0"/>
		<edge from-layer="897" from-port="1" to-layer="900" to-port="1"/>
		<edge from-layer="899" from-port="1" to-layer="900" to-port="2"/>
		<edge from-layer="900" from-port="3" to-layer="901" to-port="0"/>
		<edge from-layer="892" from-port="0" to-layer="901" to-port="1"/>
		<edge from-layer="893" from-port="0" to-layer="901" to-port="2"/>
		<edge from-layer="894" from-port="0" to-layer="901" to-port="3"/>
		<edge from-layer="895" from-port="0" to-layer="901" to-port="4"/>
		<edge from-layer="891" from-port="5" to-layer="902" to-port="0"/>
		<edge from-layer="901" from-port="5" to-layer="902" to-port="1"/>
		<edge from-layer="902" from-port="2" to-layer="903" to-port="0"/>
		<edge from-layer="161" from-port="0" to-layer="903" to-port="1"/>
		<edge from-layer="162" from-port="0" to-layer="903" to-port="2"/>
		<edge from-layer="163" from-port="0" to-layer="903" to-port="3"/>
		<edge from-layer="164" from-port="0" to-layer="903" to-port="4"/>
		<edge from-layer="903" from-port="5" to-layer="905" to-port="0"/>
		<edge from-layer="904" from-port="0" to-layer="905" to-port="1"/>
		<edge from-layer="905" from-port="2" to-layer="906" to-port="0"/>
		<edge from-layer="157" from-port="0" to-layer="906" to-port="1"/>
		<edge from-layer="158" from-port="0" to-layer="906" to-port="2"/>
		<edge from-layer="159" from-port="0" to-layer="906" to-port="3"/>
		<edge from-layer="160" from-port="0" to-layer="906" to-port="4"/>
		<edge from-layer="908" from-port="0" to-layer="909" to-port="0"/>
		<edge from-layer="909" from-port="1" to-layer="910" to-port="0"/>
		<edge from-layer="907" from-port="0" to-layer="910" to-port="1"/>
		<edge from-layer="906" from-port="5" to-layer="911" to-port="0"/>
		<edge from-layer="910" from-port="2" to-layer="911" to-port="1"/>
		<edge from-layer="912" from-port="0" to-layer="913" to-port="0"/>
		<edge from-layer="911" from-port="2" to-layer="914" to-port="0"/>
		<edge from-layer="913" from-port="1" to-layer="914" to-port="1"/>
		<edge from-layer="914" from-port="2" to-layer="915" to-port="0"/>
		<edge from-layer="915" from-port="1" to-layer="916" to-port="0"/>
		<edge from-layer="153" from-port="0" to-layer="916" to-port="1"/>
		<edge from-layer="154" from-port="0" to-layer="916" to-port="2"/>
		<edge from-layer="155" from-port="0" to-layer="916" to-port="3"/>
		<edge from-layer="156" from-port="0" to-layer="916" to-port="4"/>
		<edge from-layer="918" from-port="0" to-layer="919" to-port="0"/>
		<edge from-layer="919" from-port="1" to-layer="920" to-port="0"/>
		<edge from-layer="917" from-port="0" to-layer="920" to-port="1"/>
		<edge from-layer="916" from-port="5" to-layer="921" to-port="0"/>
		<edge from-layer="920" from-port="2" to-layer="921" to-port="1"/>
		<edge from-layer="922" from-port="0" to-layer="923" to-port="0"/>
		<edge from-layer="921" from-port="2" to-layer="924" to-port="0"/>
		<edge from-layer="923" from-port="1" to-layer="924" to-port="1"/>
		<edge from-layer="925" from-port="0" to-layer="926" to-port="0"/>
		<edge from-layer="927" from-port="0" to-layer="928" to-port="0"/>
		<edge from-layer="924" from-port="2" to-layer="929" to-port="0"/>
		<edge from-layer="926" from-port="1" to-layer="929" to-port="1"/>
		<edge from-layer="928" from-port="1" to-layer="929" to-port="2"/>
		<edge from-layer="929" from-port="3" to-layer="930" to-port="0"/>
		<edge from-layer="149" from-port="0" to-layer="930" to-port="1"/>
		<edge from-layer="150" from-port="0" to-layer="930" to-port="2"/>
		<edge from-layer="151" from-port="0" to-layer="930" to-port="3"/>
		<edge from-layer="152" from-port="0" to-layer="930" to-port="4"/>
		<edge from-layer="930" from-port="5" to-layer="931" to-port="0"/>
		<edge from-layer="903" from-port="5" to-layer="931" to-port="1"/>
		<edge from-layer="931" from-port="2" to-layer="932" to-port="0"/>
		<edge from-layer="145" from-port="0" to-layer="932" to-port="1"/>
		<edge from-layer="146" from-port="0" to-layer="932" to-port="2"/>
		<edge from-layer="147" from-port="0" to-layer="932" to-port="3"/>
		<edge from-layer="148" from-port="0" to-layer="932" to-port="4"/>
		<edge from-layer="934" from-port="0" to-layer="935" to-port="0"/>
		<edge from-layer="935" from-port="1" to-layer="936" to-port="0"/>
		<edge from-layer="933" from-port="0" to-layer="936" to-port="1"/>
		<edge from-layer="932" from-port="5" to-layer="937" to-port="0"/>
		<edge from-layer="936" from-port="2" to-layer="937" to-port="1"/>
		<edge from-layer="938" from-port="0" to-layer="939" to-port="0"/>
		<edge from-layer="937" from-port="2" to-layer="940" to-port="0"/>
		<edge from-layer="939" from-port="1" to-layer="940" to-port="1"/>
		<edge from-layer="940" from-port="2" to-layer="941" to-port="0"/>
		<edge from-layer="141" from-port="0" to-layer="941" to-port="1"/>
		<edge from-layer="142" from-port="0" to-layer="941" to-port="2"/>
		<edge from-layer="143" from-port="0" to-layer="941" to-port="3"/>
		<edge from-layer="144" from-port="0" to-layer="941" to-port="4"/>
		<edge from-layer="941" from-port="5" to-layer="942" to-port="0"/>
		<edge from-layer="859" from-port="5" to-layer="942" to-port="1"/>
		<edge from-layer="942" from-port="2" to-layer="943" to-port="0"/>
		<edge from-layer="137" from-port="0" to-layer="943" to-port="1"/>
		<edge from-layer="138" from-port="0" to-layer="943" to-port="2"/>
		<edge from-layer="139" from-port="0" to-layer="943" to-port="3"/>
		<edge from-layer="140" from-port="0" to-layer="943" to-port="4"/>
		<edge from-layer="945" from-port="0" to-layer="946" to-port="0"/>
		<edge from-layer="946" from-port="1" to-layer="947" to-port="0"/>
		<edge from-layer="944" from-port="0" to-layer="947" to-port="1"/>
		<edge from-layer="943" from-port="5" to-layer="948" to-port="0"/>
		<edge from-layer="947" from-port="2" to-layer="948" to-port="1"/>
		<edge from-layer="949" from-port="0" to-layer="950" to-port="0"/>
		<edge from-layer="948" from-port="2" to-layer="951" to-port="0"/>
		<edge from-layer="950" from-port="1" to-layer="951" to-port="1"/>
		<edge from-layer="951" from-port="2" to-layer="952" to-port="0"/>
		<edge from-layer="133" from-port="0" to-layer="952" to-port="1"/>
		<edge from-layer="134" from-port="0" to-layer="952" to-port="2"/>
		<edge from-layer="135" from-port="0" to-layer="952" to-port="3"/>
		<edge from-layer="136" from-port="0" to-layer="952" to-port="4"/>
		<edge from-layer="957" from-port="0" to-layer="958" to-port="0"/>
		<edge from-layer="959" from-port="0" to-layer="960" to-port="0"/>
		<edge from-layer="951" from-port="2" to-layer="961" to-port="0"/>
		<edge from-layer="958" from-port="1" to-layer="961" to-port="1"/>
		<edge from-layer="960" from-port="1" to-layer="961" to-port="2"/>
		<edge from-layer="961" from-port="3" to-layer="962" to-port="0"/>
		<edge from-layer="953" from-port="0" to-layer="962" to-port="1"/>
		<edge from-layer="954" from-port="0" to-layer="962" to-port="2"/>
		<edge from-layer="955" from-port="0" to-layer="962" to-port="3"/>
		<edge from-layer="956" from-port="0" to-layer="962" to-port="4"/>
		<edge from-layer="952" from-port="5" to-layer="963" to-port="0"/>
		<edge from-layer="962" from-port="5" to-layer="963" to-port="1"/>
		<edge from-layer="963" from-port="2" to-layer="964" to-port="0"/>
		<edge from-layer="129" from-port="0" to-layer="964" to-port="1"/>
		<edge from-layer="130" from-port="0" to-layer="964" to-port="2"/>
		<edge from-layer="131" from-port="0" to-layer="964" to-port="3"/>
		<edge from-layer="132" from-port="0" to-layer="964" to-port="4"/>
		<edge from-layer="967" from-port="0" to-layer="968" to-port="0"/>
		<edge from-layer="968" from-port="1" to-layer="969" to-port="0"/>
		<edge from-layer="966" from-port="0" to-layer="969" to-port="1"/>
		<edge from-layer="969" from-port="2" to-layer="970" to-port="0"/>
		<edge from-layer="965" from-port="0" to-layer="970" to-port="1"/>
		<edge from-layer="964" from-port="5" to-layer="971" to-port="0"/>
		<edge from-layer="970" from-port="2" to-layer="971" to-port="1"/>
		<edge from-layer="972" from-port="0" to-layer="973" to-port="0"/>
		<edge from-layer="971" from-port="2" to-layer="974" to-port="0"/>
		<edge from-layer="973" from-port="1" to-layer="974" to-port="1"/>
		<edge from-layer="974" from-port="2" to-layer="975" to-port="0"/>
		<edge from-layer="125" from-port="0" to-layer="975" to-port="1"/>
		<edge from-layer="126" from-port="0" to-layer="975" to-port="2"/>
		<edge from-layer="127" from-port="0" to-layer="975" to-port="3"/>
		<edge from-layer="128" from-port="0" to-layer="975" to-port="4"/>
		<edge from-layer="980" from-port="0" to-layer="981" to-port="0"/>
		<edge from-layer="982" from-port="0" to-layer="983" to-port="0"/>
		<edge from-layer="974" from-port="2" to-layer="984" to-port="0"/>
		<edge from-layer="981" from-port="1" to-layer="984" to-port="1"/>
		<edge from-layer="983" from-port="1" to-layer="984" to-port="2"/>
		<edge from-layer="984" from-port="3" to-layer="985" to-port="0"/>
		<edge from-layer="976" from-port="0" to-layer="985" to-port="1"/>
		<edge from-layer="977" from-port="0" to-layer="985" to-port="2"/>
		<edge from-layer="978" from-port="0" to-layer="985" to-port="3"/>
		<edge from-layer="979" from-port="0" to-layer="985" to-port="4"/>
		<edge from-layer="975" from-port="5" to-layer="986" to-port="0"/>
		<edge from-layer="985" from-port="5" to-layer="986" to-port="1"/>
		<edge from-layer="986" from-port="2" to-layer="987" to-port="0"/>
		<edge from-layer="121" from-port="0" to-layer="987" to-port="1"/>
		<edge from-layer="122" from-port="0" to-layer="987" to-port="2"/>
		<edge from-layer="123" from-port="0" to-layer="987" to-port="3"/>
		<edge from-layer="124" from-port="0" to-layer="987" to-port="4"/>
		<edge from-layer="987" from-port="5" to-layer="989" to-port="0"/>
		<edge from-layer="988" from-port="0" to-layer="989" to-port="1"/>
		<edge from-layer="989" from-port="2" to-layer="990" to-port="0"/>
		<edge from-layer="117" from-port="0" to-layer="990" to-port="1"/>
		<edge from-layer="118" from-port="0" to-layer="990" to-port="2"/>
		<edge from-layer="119" from-port="0" to-layer="990" to-port="3"/>
		<edge from-layer="120" from-port="0" to-layer="990" to-port="4"/>
		<edge from-layer="992" from-port="0" to-layer="993" to-port="0"/>
		<edge from-layer="993" from-port="1" to-layer="994" to-port="0"/>
		<edge from-layer="991" from-port="0" to-layer="994" to-port="1"/>
		<edge from-layer="990" from-port="5" to-layer="995" to-port="0"/>
		<edge from-layer="994" from-port="2" to-layer="995" to-port="1"/>
		<edge from-layer="996" from-port="0" to-layer="997" to-port="0"/>
		<edge from-layer="995" from-port="2" to-layer="998" to-port="0"/>
		<edge from-layer="997" from-port="1" to-layer="998" to-port="1"/>
		<edge from-layer="998" from-port="2" to-layer="999" to-port="0"/>
		<edge from-layer="999" from-port="1" to-layer="1000" to-port="0"/>
		<edge from-layer="113" from-port="0" to-layer="1000" to-port="1"/>
		<edge from-layer="114" from-port="0" to-layer="1000" to-port="2"/>
		<edge from-layer="115" from-port="0" to-layer="1000" to-port="3"/>
		<edge from-layer="116" from-port="0" to-layer="1000" to-port="4"/>
		<edge from-layer="1002" from-port="0" to-layer="1003" to-port="0"/>
		<edge from-layer="1003" from-port="1" to-layer="1004" to-port="0"/>
		<edge from-layer="1001" from-port="0" to-layer="1004" to-port="1"/>
		<edge from-layer="1000" from-port="5" to-layer="1005" to-port="0"/>
		<edge from-layer="1004" from-port="2" to-layer="1005" to-port="1"/>
		<edge from-layer="1006" from-port="0" to-layer="1007" to-port="0"/>
		<edge from-layer="1005" from-port="2" to-layer="1008" to-port="0"/>
		<edge from-layer="1007" from-port="1" to-layer="1008" to-port="1"/>
		<edge from-layer="1009" from-port="0" to-layer="1010" to-port="0"/>
		<edge from-layer="1011" from-port="0" to-layer="1012" to-port="0"/>
		<edge from-layer="1008" from-port="2" to-layer="1013" to-port="0"/>
		<edge from-layer="1010" from-port="1" to-layer="1013" to-port="1"/>
		<edge from-layer="1012" from-port="1" to-layer="1013" to-port="2"/>
		<edge from-layer="1013" from-port="3" to-layer="1014" to-port="0"/>
		<edge from-layer="109" from-port="0" to-layer="1014" to-port="1"/>
		<edge from-layer="110" from-port="0" to-layer="1014" to-port="2"/>
		<edge from-layer="111" from-port="0" to-layer="1014" to-port="3"/>
		<edge from-layer="112" from-port="0" to-layer="1014" to-port="4"/>
		<edge from-layer="1014" from-port="5" to-layer="1015" to-port="0"/>
		<edge from-layer="987" from-port="5" to-layer="1015" to-port="1"/>
		<edge from-layer="1015" from-port="2" to-layer="1016" to-port="0"/>
		<edge from-layer="105" from-port="0" to-layer="1016" to-port="1"/>
		<edge from-layer="106" from-port="0" to-layer="1016" to-port="2"/>
		<edge from-layer="107" from-port="0" to-layer="1016" to-port="3"/>
		<edge from-layer="108" from-port="0" to-layer="1016" to-port="4"/>
		<edge from-layer="1018" from-port="0" to-layer="1019" to-port="0"/>
		<edge from-layer="1019" from-port="1" to-layer="1020" to-port="0"/>
		<edge from-layer="1017" from-port="0" to-layer="1020" to-port="1"/>
		<edge from-layer="1016" from-port="5" to-layer="1021" to-port="0"/>
		<edge from-layer="1020" from-port="2" to-layer="1021" to-port="1"/>
		<edge from-layer="1022" from-port="0" to-layer="1023" to-port="0"/>
		<edge from-layer="1021" from-port="2" to-layer="1024" to-port="0"/>
		<edge from-layer="1023" from-port="1" to-layer="1024" to-port="1"/>
		<edge from-layer="1024" from-port="2" to-layer="1025" to-port="0"/>
		<edge from-layer="101" from-port="0" to-layer="1025" to-port="1"/>
		<edge from-layer="102" from-port="0" to-layer="1025" to-port="2"/>
		<edge from-layer="103" from-port="0" to-layer="1025" to-port="3"/>
		<edge from-layer="104" from-port="0" to-layer="1025" to-port="4"/>
		<edge from-layer="1027" from-port="0" to-layer="1028" to-port="0"/>
		<edge from-layer="1028" from-port="1" to-layer="1029" to-port="0"/>
		<edge from-layer="1026" from-port="0" to-layer="1029" to-port="1"/>
		<edge from-layer="1025" from-port="5" to-layer="1030" to-port="0"/>
		<edge from-layer="1029" from-port="2" to-layer="1030" to-port="1"/>
		<edge from-layer="1031" from-port="0" to-layer="1032" to-port="0"/>
		<edge from-layer="1030" from-port="2" to-layer="1033" to-port="0"/>
		<edge from-layer="1032" from-port="1" to-layer="1033" to-port="1"/>
		<edge from-layer="1033" from-port="2" to-layer="1034" to-port="0"/>
		<edge from-layer="97" from-port="0" to-layer="1034" to-port="1"/>
		<edge from-layer="98" from-port="0" to-layer="1034" to-port="2"/>
		<edge from-layer="99" from-port="0" to-layer="1034" to-port="3"/>
		<edge from-layer="100" from-port="0" to-layer="1034" to-port="4"/>
		<edge from-layer="1039" from-port="0" to-layer="1040" to-port="0"/>
		<edge from-layer="1041" from-port="0" to-layer="1042" to-port="0"/>
		<edge from-layer="1033" from-port="2" to-layer="1043" to-port="0"/>
		<edge from-layer="1040" from-port="1" to-layer="1043" to-port="1"/>
		<edge from-layer="1042" from-port="1" to-layer="1043" to-port="2"/>
		<edge from-layer="1043" from-port="3" to-layer="1044" to-port="0"/>
		<edge from-layer="1035" from-port="0" to-layer="1044" to-port="1"/>
		<edge from-layer="1036" from-port="0" to-layer="1044" to-port="2"/>
		<edge from-layer="1037" from-port="0" to-layer="1044" to-port="3"/>
		<edge from-layer="1038" from-port="0" to-layer="1044" to-port="4"/>
		<edge from-layer="1034" from-port="5" to-layer="1045" to-port="0"/>
		<edge from-layer="1044" from-port="5" to-layer="1045" to-port="1"/>
		<edge from-layer="1045" from-port="2" to-layer="1046" to-port="0"/>
		<edge from-layer="93" from-port="0" to-layer="1046" to-port="1"/>
		<edge from-layer="94" from-port="0" to-layer="1046" to-port="2"/>
		<edge from-layer="95" from-port="0" to-layer="1046" to-port="3"/>
		<edge from-layer="96" from-port="0" to-layer="1046" to-port="4"/>
		<edge from-layer="1049" from-port="0" to-layer="1050" to-port="0"/>
		<edge from-layer="1050" from-port="1" to-layer="1051" to-port="0"/>
		<edge from-layer="1048" from-port="0" to-layer="1051" to-port="1"/>
		<edge from-layer="1051" from-port="2" to-layer="1052" to-port="0"/>
		<edge from-layer="1047" from-port="0" to-layer="1052" to-port="1"/>
		<edge from-layer="1046" from-port="5" to-layer="1053" to-port="0"/>
		<edge from-layer="1052" from-port="2" to-layer="1053" to-port="1"/>
		<edge from-layer="1054" from-port="0" to-layer="1055" to-port="0"/>
		<edge from-layer="1053" from-port="2" to-layer="1056" to-port="0"/>
		<edge from-layer="1055" from-port="1" to-layer="1056" to-port="1"/>
		<edge from-layer="1056" from-port="2" to-layer="1057" to-port="0"/>
		<edge from-layer="89" from-port="0" to-layer="1057" to-port="1"/>
		<edge from-layer="90" from-port="0" to-layer="1057" to-port="2"/>
		<edge from-layer="91" from-port="0" to-layer="1057" to-port="3"/>
		<edge from-layer="92" from-port="0" to-layer="1057" to-port="4"/>
		<edge from-layer="1062" from-port="0" to-layer="1063" to-port="0"/>
		<edge from-layer="1064" from-port="0" to-layer="1065" to-port="0"/>
		<edge from-layer="1056" from-port="2" to-layer="1066" to-port="0"/>
		<edge from-layer="1063" from-port="1" to-layer="1066" to-port="1"/>
		<edge from-layer="1065" from-port="1" to-layer="1066" to-port="2"/>
		<edge from-layer="1066" from-port="3" to-layer="1067" to-port="0"/>
		<edge from-layer="1058" from-port="0" to-layer="1067" to-port="1"/>
		<edge from-layer="1059" from-port="0" to-layer="1067" to-port="2"/>
		<edge from-layer="1060" from-port="0" to-layer="1067" to-port="3"/>
		<edge from-layer="1061" from-port="0" to-layer="1067" to-port="4"/>
		<edge from-layer="1057" from-port="5" to-layer="1068" to-port="0"/>
		<edge from-layer="1067" from-port="5" to-layer="1068" to-port="1"/>
		<edge from-layer="1068" from-port="2" to-layer="1069" to-port="0"/>
		<edge from-layer="85" from-port="0" to-layer="1069" to-port="1"/>
		<edge from-layer="86" from-port="0" to-layer="1069" to-port="2"/>
		<edge from-layer="87" from-port="0" to-layer="1069" to-port="3"/>
		<edge from-layer="88" from-port="0" to-layer="1069" to-port="4"/>
		<edge from-layer="1069" from-port="5" to-layer="1071" to-port="0"/>
		<edge from-layer="1070" from-port="0" to-layer="1071" to-port="1"/>
		<edge from-layer="1071" from-port="2" to-layer="1072" to-port="0"/>
		<edge from-layer="81" from-port="0" to-layer="1072" to-port="1"/>
		<edge from-layer="82" from-port="0" to-layer="1072" to-port="2"/>
		<edge from-layer="83" from-port="0" to-layer="1072" to-port="3"/>
		<edge from-layer="84" from-port="0" to-layer="1072" to-port="4"/>
		<edge from-layer="1074" from-port="0" to-layer="1075" to-port="0"/>
		<edge from-layer="1075" from-port="1" to-layer="1076" to-port="0"/>
		<edge from-layer="1073" from-port="0" to-layer="1076" to-port="1"/>
		<edge from-layer="1072" from-port="5" to-layer="1077" to-port="0"/>
		<edge from-layer="1076" from-port="2" to-layer="1077" to-port="1"/>
		<edge from-layer="1078" from-port="0" to-layer="1079" to-port="0"/>
		<edge from-layer="1077" from-port="2" to-layer="1080" to-port="0"/>
		<edge from-layer="1079" from-port="1" to-layer="1080" to-port="1"/>
		<edge from-layer="1080" from-port="2" to-layer="1081" to-port="0"/>
		<edge from-layer="1081" from-port="1" to-layer="1082" to-port="0"/>
		<edge from-layer="77" from-port="0" to-layer="1082" to-port="1"/>
		<edge from-layer="78" from-port="0" to-layer="1082" to-port="2"/>
		<edge from-layer="79" from-port="0" to-layer="1082" to-port="3"/>
		<edge from-layer="80" from-port="0" to-layer="1082" to-port="4"/>
		<edge from-layer="1084" from-port="0" to-layer="1085" to-port="0"/>
		<edge from-layer="1085" from-port="1" to-layer="1086" to-port="0"/>
		<edge from-layer="1083" from-port="0" to-layer="1086" to-port="1"/>
		<edge from-layer="1082" from-port="5" to-layer="1087" to-port="0"/>
		<edge from-layer="1086" from-port="2" to-layer="1087" to-port="1"/>
		<edge from-layer="1088" from-port="0" to-layer="1089" to-port="0"/>
		<edge from-layer="1087" from-port="2" to-layer="1090" to-port="0"/>
		<edge from-layer="1089" from-port="1" to-layer="1090" to-port="1"/>
		<edge from-layer="1091" from-port="0" to-layer="1092" to-port="0"/>
		<edge from-layer="1093" from-port="0" to-layer="1094" to-port="0"/>
		<edge from-layer="1090" from-port="2" to-layer="1095" to-port="0"/>
		<edge from-layer="1092" from-port="1" to-layer="1095" to-port="1"/>
		<edge from-layer="1094" from-port="1" to-layer="1095" to-port="2"/>
		<edge from-layer="1095" from-port="3" to-layer="1096" to-port="0"/>
		<edge from-layer="73" from-port="0" to-layer="1096" to-port="1"/>
		<edge from-layer="74" from-port="0" to-layer="1096" to-port="2"/>
		<edge from-layer="75" from-port="0" to-layer="1096" to-port="3"/>
		<edge from-layer="76" from-port="0" to-layer="1096" to-port="4"/>
		<edge from-layer="1096" from-port="5" to-layer="1097" to-port="0"/>
		<edge from-layer="1069" from-port="5" to-layer="1097" to-port="1"/>
		<edge from-layer="1097" from-port="2" to-layer="1098" to-port="0"/>
		<edge from-layer="69" from-port="0" to-layer="1098" to-port="1"/>
		<edge from-layer="70" from-port="0" to-layer="1098" to-port="2"/>
		<edge from-layer="71" from-port="0" to-layer="1098" to-port="3"/>
		<edge from-layer="72" from-port="0" to-layer="1098" to-port="4"/>
		<edge from-layer="1100" from-port="0" to-layer="1101" to-port="0"/>
		<edge from-layer="1101" from-port="1" to-layer="1102" to-port="0"/>
		<edge from-layer="1099" from-port="0" to-layer="1102" to-port="1"/>
		<edge from-layer="1098" from-port="5" to-layer="1103" to-port="0"/>
		<edge from-layer="1102" from-port="2" to-layer="1103" to-port="1"/>
		<edge from-layer="1104" from-port="0" to-layer="1105" to-port="0"/>
		<edge from-layer="1103" from-port="2" to-layer="1106" to-port="0"/>
		<edge from-layer="1105" from-port="1" to-layer="1106" to-port="1"/>
		<edge from-layer="1106" from-port="2" to-layer="1107" to-port="0"/>
		<edge from-layer="65" from-port="0" to-layer="1107" to-port="1"/>
		<edge from-layer="66" from-port="0" to-layer="1107" to-port="2"/>
		<edge from-layer="67" from-port="0" to-layer="1107" to-port="3"/>
		<edge from-layer="68" from-port="0" to-layer="1107" to-port="4"/>
		<edge from-layer="1107" from-port="5" to-layer="1108" to-port="0"/>
		<edge from-layer="1025" from-port="5" to-layer="1108" to-port="1"/>
		<edge from-layer="1108" from-port="2" to-layer="1109" to-port="0"/>
		<edge from-layer="61" from-port="0" to-layer="1109" to-port="1"/>
		<edge from-layer="62" from-port="0" to-layer="1109" to-port="2"/>
		<edge from-layer="63" from-port="0" to-layer="1109" to-port="3"/>
		<edge from-layer="64" from-port="0" to-layer="1109" to-port="4"/>
		<edge from-layer="1111" from-port="0" to-layer="1112" to-port="0"/>
		<edge from-layer="1112" from-port="1" to-layer="1113" to-port="0"/>
		<edge from-layer="1110" from-port="0" to-layer="1113" to-port="1"/>
		<edge from-layer="1109" from-port="5" to-layer="1114" to-port="0"/>
		<edge from-layer="1113" from-port="2" to-layer="1114" to-port="1"/>
		<edge from-layer="1115" from-port="0" to-layer="1116" to-port="0"/>
		<edge from-layer="1114" from-port="2" to-layer="1117" to-port="0"/>
		<edge from-layer="1116" from-port="1" to-layer="1117" to-port="1"/>
		<edge from-layer="1117" from-port="2" to-layer="1118" to-port="0"/>
		<edge from-layer="57" from-port="0" to-layer="1118" to-port="1"/>
		<edge from-layer="58" from-port="0" to-layer="1118" to-port="2"/>
		<edge from-layer="59" from-port="0" to-layer="1118" to-port="3"/>
		<edge from-layer="60" from-port="0" to-layer="1118" to-port="4"/>
		<edge from-layer="1123" from-port="0" to-layer="1124" to-port="0"/>
		<edge from-layer="1125" from-port="0" to-layer="1126" to-port="0"/>
		<edge from-layer="1117" from-port="2" to-layer="1127" to-port="0"/>
		<edge from-layer="1124" from-port="1" to-layer="1127" to-port="1"/>
		<edge from-layer="1126" from-port="1" to-layer="1127" to-port="2"/>
		<edge from-layer="1127" from-port="3" to-layer="1128" to-port="0"/>
		<edge from-layer="1119" from-port="0" to-layer="1128" to-port="1"/>
		<edge from-layer="1120" from-port="0" to-layer="1128" to-port="2"/>
		<edge from-layer="1121" from-port="0" to-layer="1128" to-port="3"/>
		<edge from-layer="1122" from-port="0" to-layer="1128" to-port="4"/>
		<edge from-layer="1118" from-port="5" to-layer="1129" to-port="0"/>
		<edge from-layer="1128" from-port="5" to-layer="1129" to-port="1"/>
		<edge from-layer="1129" from-port="2" to-layer="1130" to-port="0"/>
		<edge from-layer="53" from-port="0" to-layer="1130" to-port="1"/>
		<edge from-layer="54" from-port="0" to-layer="1130" to-port="2"/>
		<edge from-layer="55" from-port="0" to-layer="1130" to-port="3"/>
		<edge from-layer="56" from-port="0" to-layer="1130" to-port="4"/>
		<edge from-layer="1133" from-port="0" to-layer="1134" to-port="0"/>
		<edge from-layer="1134" from-port="1" to-layer="1135" to-port="0"/>
		<edge from-layer="1132" from-port="0" to-layer="1135" to-port="1"/>
		<edge from-layer="1135" from-port="2" to-layer="1136" to-port="0"/>
		<edge from-layer="1131" from-port="0" to-layer="1136" to-port="1"/>
		<edge from-layer="1130" from-port="5" to-layer="1137" to-port="0"/>
		<edge from-layer="1136" from-port="2" to-layer="1137" to-port="1"/>
		<edge from-layer="1138" from-port="0" to-layer="1139" to-port="0"/>
		<edge from-layer="1137" from-port="2" to-layer="1140" to-port="0"/>
		<edge from-layer="1139" from-port="1" to-layer="1140" to-port="1"/>
		<edge from-layer="1140" from-port="2" to-layer="1141" to-port="0"/>
		<edge from-layer="49" from-port="0" to-layer="1141" to-port="1"/>
		<edge from-layer="50" from-port="0" to-layer="1141" to-port="2"/>
		<edge from-layer="51" from-port="0" to-layer="1141" to-port="3"/>
		<edge from-layer="52" from-port="0" to-layer="1141" to-port="4"/>
		<edge from-layer="1146" from-port="0" to-layer="1147" to-port="0"/>
		<edge from-layer="1148" from-port="0" to-layer="1149" to-port="0"/>
		<edge from-layer="1140" from-port="2" to-layer="1150" to-port="0"/>
		<edge from-layer="1147" from-port="1" to-layer="1150" to-port="1"/>
		<edge from-layer="1149" from-port="1" to-layer="1150" to-port="2"/>
		<edge from-layer="1150" from-port="3" to-layer="1151" to-port="0"/>
		<edge from-layer="1142" from-port="0" to-layer="1151" to-port="1"/>
		<edge from-layer="1143" from-port="0" to-layer="1151" to-port="2"/>
		<edge from-layer="1144" from-port="0" to-layer="1151" to-port="3"/>
		<edge from-layer="1145" from-port="0" to-layer="1151" to-port="4"/>
		<edge from-layer="1141" from-port="5" to-layer="1152" to-port="0"/>
		<edge from-layer="1151" from-port="5" to-layer="1152" to-port="1"/>
		<edge from-layer="1152" from-port="2" to-layer="1153" to-port="0"/>
		<edge from-layer="45" from-port="0" to-layer="1153" to-port="1"/>
		<edge from-layer="46" from-port="0" to-layer="1153" to-port="2"/>
		<edge from-layer="47" from-port="0" to-layer="1153" to-port="3"/>
		<edge from-layer="48" from-port="0" to-layer="1153" to-port="4"/>
		<edge from-layer="1153" from-port="5" to-layer="1155" to-port="0"/>
		<edge from-layer="1154" from-port="0" to-layer="1155" to-port="1"/>
		<edge from-layer="1155" from-port="2" to-layer="1156" to-port="0"/>
		<edge from-layer="41" from-port="0" to-layer="1156" to-port="1"/>
		<edge from-layer="42" from-port="0" to-layer="1156" to-port="2"/>
		<edge from-layer="43" from-port="0" to-layer="1156" to-port="3"/>
		<edge from-layer="44" from-port="0" to-layer="1156" to-port="4"/>
		<edge from-layer="1158" from-port="0" to-layer="1159" to-port="0"/>
		<edge from-layer="1159" from-port="1" to-layer="1160" to-port="0"/>
		<edge from-layer="1157" from-port="0" to-layer="1160" to-port="1"/>
		<edge from-layer="1156" from-port="5" to-layer="1161" to-port="0"/>
		<edge from-layer="1160" from-port="2" to-layer="1161" to-port="1"/>
		<edge from-layer="1162" from-port="0" to-layer="1163" to-port="0"/>
		<edge from-layer="1161" from-port="2" to-layer="1164" to-port="0"/>
		<edge from-layer="1163" from-port="1" to-layer="1164" to-port="1"/>
		<edge from-layer="1164" from-port="2" to-layer="1165" to-port="0"/>
		<edge from-layer="1165" from-port="1" to-layer="1166" to-port="0"/>
		<edge from-layer="37" from-port="0" to-layer="1166" to-port="1"/>
		<edge from-layer="38" from-port="0" to-layer="1166" to-port="2"/>
		<edge from-layer="39" from-port="0" to-layer="1166" to-port="3"/>
		<edge from-layer="40" from-port="0" to-layer="1166" to-port="4"/>
		<edge from-layer="1168" from-port="0" to-layer="1169" to-port="0"/>
		<edge from-layer="1169" from-port="1" to-layer="1170" to-port="0"/>
		<edge from-layer="1167" from-port="0" to-layer="1170" to-port="1"/>
		<edge from-layer="1166" from-port="5" to-layer="1171" to-port="0"/>
		<edge from-layer="1170" from-port="2" to-layer="1171" to-port="1"/>
		<edge from-layer="1172" from-port="0" to-layer="1173" to-port="0"/>
		<edge from-layer="1171" from-port="2" to-layer="1174" to-port="0"/>
		<edge from-layer="1173" from-port="1" to-layer="1174" to-port="1"/>
		<edge from-layer="1175" from-port="0" to-layer="1176" to-port="0"/>
		<edge from-layer="1177" from-port="0" to-layer="1178" to-port="0"/>
		<edge from-layer="1174" from-port="2" to-layer="1179" to-port="0"/>
		<edge from-layer="1176" from-port="1" to-layer="1179" to-port="1"/>
		<edge from-layer="1178" from-port="1" to-layer="1179" to-port="2"/>
		<edge from-layer="1179" from-port="3" to-layer="1180" to-port="0"/>
		<edge from-layer="33" from-port="0" to-layer="1180" to-port="1"/>
		<edge from-layer="34" from-port="0" to-layer="1180" to-port="2"/>
		<edge from-layer="35" from-port="0" to-layer="1180" to-port="3"/>
		<edge from-layer="36" from-port="0" to-layer="1180" to-port="4"/>
		<edge from-layer="1180" from-port="5" to-layer="1181" to-port="0"/>
		<edge from-layer="1153" from-port="5" to-layer="1181" to-port="1"/>
		<edge from-layer="1181" from-port="2" to-layer="1182" to-port="0"/>
		<edge from-layer="29" from-port="0" to-layer="1182" to-port="1"/>
		<edge from-layer="30" from-port="0" to-layer="1182" to-port="2"/>
		<edge from-layer="31" from-port="0" to-layer="1182" to-port="3"/>
		<edge from-layer="32" from-port="0" to-layer="1182" to-port="4"/>
		<edge from-layer="1184" from-port="0" to-layer="1185" to-port="0"/>
		<edge from-layer="1185" from-port="1" to-layer="1186" to-port="0"/>
		<edge from-layer="1183" from-port="0" to-layer="1186" to-port="1"/>
		<edge from-layer="1182" from-port="5" to-layer="1187" to-port="0"/>
		<edge from-layer="1186" from-port="2" to-layer="1187" to-port="1"/>
		<edge from-layer="1188" from-port="0" to-layer="1189" to-port="0"/>
		<edge from-layer="1187" from-port="2" to-layer="1190" to-port="0"/>
		<edge from-layer="1189" from-port="1" to-layer="1190" to-port="1"/>
		<edge from-layer="1190" from-port="2" to-layer="1191" to-port="0"/>
		<edge from-layer="25" from-port="0" to-layer="1191" to-port="1"/>
		<edge from-layer="26" from-port="0" to-layer="1191" to-port="2"/>
		<edge from-layer="27" from-port="0" to-layer="1191" to-port="3"/>
		<edge from-layer="28" from-port="0" to-layer="1191" to-port="4"/>
		<edge from-layer="1191" from-port="5" to-layer="1192" to-port="0"/>
		<edge from-layer="1109" from-port="5" to-layer="1192" to-port="1"/>
		<edge from-layer="1192" from-port="2" to-layer="1193" to-port="0"/>
		<edge from-layer="21" from-port="0" to-layer="1193" to-port="1"/>
		<edge from-layer="22" from-port="0" to-layer="1193" to-port="2"/>
		<edge from-layer="23" from-port="0" to-layer="1193" to-port="3"/>
		<edge from-layer="24" from-port="0" to-layer="1193" to-port="4"/>
		<edge from-layer="1195" from-port="0" to-layer="1196" to-port="0"/>
		<edge from-layer="1196" from-port="1" to-layer="1197" to-port="0"/>
		<edge from-layer="1194" from-port="0" to-layer="1197" to-port="1"/>
		<edge from-layer="1193" from-port="5" to-layer="1198" to-port="0"/>
		<edge from-layer="1197" from-port="2" to-layer="1198" to-port="1"/>
		<edge from-layer="1199" from-port="0" to-layer="1200" to-port="0"/>
		<edge from-layer="1198" from-port="2" to-layer="1201" to-port="0"/>
		<edge from-layer="1200" from-port="1" to-layer="1201" to-port="1"/>
		<edge from-layer="1201" from-port="2" to-layer="1202" to-port="0"/>
		<edge from-layer="17" from-port="0" to-layer="1202" to-port="1"/>
		<edge from-layer="18" from-port="0" to-layer="1202" to-port="2"/>
		<edge from-layer="19" from-port="0" to-layer="1202" to-port="3"/>
		<edge from-layer="20" from-port="0" to-layer="1202" to-port="4"/>
		<edge from-layer="1207" from-port="0" to-layer="1208" to-port="0"/>
		<edge from-layer="1209" from-port="0" to-layer="1210" to-port="0"/>
		<edge from-layer="1201" from-port="2" to-layer="1211" to-port="0"/>
		<edge from-layer="1208" from-port="1" to-layer="1211" to-port="1"/>
		<edge from-layer="1210" from-port="1" to-layer="1211" to-port="2"/>
		<edge from-layer="1211" from-port="3" to-layer="1212" to-port="0"/>
		<edge from-layer="1203" from-port="0" to-layer="1212" to-port="1"/>
		<edge from-layer="1204" from-port="0" to-layer="1212" to-port="2"/>
		<edge from-layer="1205" from-port="0" to-layer="1212" to-port="3"/>
		<edge from-layer="1206" from-port="0" to-layer="1212" to-port="4"/>
		<edge from-layer="1202" from-port="5" to-layer="1213" to-port="0"/>
		<edge from-layer="1212" from-port="5" to-layer="1213" to-port="1"/>
		<edge from-layer="1213" from-port="2" to-layer="1214" to-port="0"/>
		<edge from-layer="13" from-port="0" to-layer="1214" to-port="1"/>
		<edge from-layer="14" from-port="0" to-layer="1214" to-port="2"/>
		<edge from-layer="15" from-port="0" to-layer="1214" to-port="3"/>
		<edge from-layer="16" from-port="0" to-layer="1214" to-port="4"/>
		<edge from-layer="1214" from-port="5" to-layer="1216" to-port="0"/>
		<edge from-layer="1215" from-port="0" to-layer="1216" to-port="1"/>
		<edge from-layer="1216" from-port="2" to-layer="1217" to-port="0"/>
		<edge from-layer="9" from-port="0" to-layer="1217" to-port="1"/>
		<edge from-layer="10" from-port="0" to-layer="1217" to-port="2"/>
		<edge from-layer="11" from-port="0" to-layer="1217" to-port="3"/>
		<edge from-layer="12" from-port="0" to-layer="1217" to-port="4"/>
		<edge from-layer="1217" from-port="5" to-layer="1218" to-port="0"/>
		<edge from-layer="8" from-port="0" to-layer="1218" to-port="1"/>
		<edge from-layer="1220" from-port="0" to-layer="1221" to-port="0"/>
		<edge from-layer="1221" from-port="1" to-layer="1222" to-port="0"/>
		<edge from-layer="1219" from-port="0" to-layer="1222" to-port="1"/>
		<edge from-layer="1218" from-port="2" to-layer="1223" to-port="0"/>
		<edge from-layer="1222" from-port="2" to-layer="1223" to-port="1"/>
		<edge from-layer="1224" from-port="0" to-layer="1225" to-port="0"/>
		<edge from-layer="1223" from-port="2" to-layer="1226" to-port="0"/>
		<edge from-layer="1225" from-port="1" to-layer="1226" to-port="1"/>
		<edge from-layer="1226" from-port="2" to-layer="1227" to-port="0"/>
		<edge from-layer="4" from-port="0" to-layer="1227" to-port="1"/>
		<edge from-layer="5" from-port="0" to-layer="1227" to-port="2"/>
		<edge from-layer="6" from-port="0" to-layer="1227" to-port="3"/>
		<edge from-layer="7" from-port="0" to-layer="1227" to-port="4"/>
		<edge from-layer="1232" from-port="0" to-layer="1233" to-port="0"/>
		<edge from-layer="1234" from-port="0" to-layer="1235" to-port="0"/>
		<edge from-layer="1226" from-port="2" to-layer="1236" to-port="0"/>
		<edge from-layer="1233" from-port="1" to-layer="1236" to-port="1"/>
		<edge from-layer="1235" from-port="1" to-layer="1236" to-port="2"/>
		<edge from-layer="1236" from-port="3" to-layer="1237" to-port="0"/>
		<edge from-layer="1228" from-port="0" to-layer="1237" to-port="1"/>
		<edge from-layer="1229" from-port="0" to-layer="1237" to-port="2"/>
		<edge from-layer="1230" from-port="0" to-layer="1237" to-port="3"/>
		<edge from-layer="1231" from-port="0" to-layer="1237" to-port="4"/>
		<edge from-layer="1227" from-port="5" to-layer="1238" to-port="0"/>
		<edge from-layer="1237" from-port="5" to-layer="1238" to-port="1"/>
		<edge from-layer="1238" from-port="2" to-layer="1239" to-port="0"/>
		<edge from-layer="0" from-port="0" to-layer="1239" to-port="1"/>
		<edge from-layer="1" from-port="0" to-layer="1239" to-port="2"/>
		<edge from-layer="2" from-port="0" to-layer="1239" to-port="3"/>
		<edge from-layer="3" from-port="0" to-layer="1239" to-port="4"/>
		<edge from-layer="1241" from-port="0" to-layer="1242" to-port="0"/>
		<edge from-layer="1242" from-port="1" to-layer="1243" to-port="0"/>
		<edge from-layer="1240" from-port="0" to-layer="1243" to-port="1"/>
		<edge from-layer="1239" from-port="5" to-layer="1244" to-port="0"/>
		<edge from-layer="1243" from-port="2" to-layer="1244" to-port="1"/>
		<edge from-layer="1245" from-port="0" to-layer="1246" to-port="0"/>
		<edge from-layer="1244" from-port="2" to-layer="1247" to-port="0"/>
		<edge from-layer="1246" from-port="1" to-layer="1247" to-port="1"/>
		<edge from-layer="1247" from-port="2" to-layer="1248" to-port="0"/>
	</edges>
	<rt_info>
		<MO_version value="2023.0.1-11005-fa1c41994f3-releases/2023/0"/>
		<Runtime_version value="2023.0.1-11005-fa1c41994f3-releases/2023/0"/>
		<conversion_parameters>
			<compress_to_fp16 value="True"/>
			<input_model value="DIR/best.onnx"/>
			<is_python_api_used value="False"/>
			<model_name value="bestfp16"/>
			<output_dir value="DIR"/>
		</conversion_parameters>
		<legacy_frontend value="False"/>
		<quantization_parameters>
			<cli_params>
				<ac_config value="None"/>
				<data_source value="None"/>
				<direct_dump value="False"/>
				<engine value="None"/>
				<evaluate value="False"/>
				<keep_uncompressed_weights value="False"/>
				<log_level value="INFO"/>
				<max_drop value="None"/>
				<model value="None"/>
				<name value="None"/>
				<output_dir value="PATH"/>
				<pbar value="False"/>
				<preset value="None"/>
				<quantize value="None"/>
				<stream_output value="False"/>
				<weights value="None"/>
			</cli_params>
			<config value="{
		'compression': {
			'target_device': 'CPU',
			'algorithms': [
				{
					'name': 'AccuracyAwareQuantization',
					'params': {
						'preset': 'performance',
						'stat_subset_size': 300,
						'maximal_drop': 0.1
					}
				}
			]
		},
		'engine': {
			'models': [
				{
					'name': 'mobileNetV3',
					'launchers': [
						{
							'framework': 'openvino',
							'device': 'CPU',
							'adapter': 'classification'
						}
					],
					'datasets': [
						{
							'name': 'classification_dataset',
							'data_source': 'PATH',
							'annotation_conversion': {
								'converter': 'imagenet',
								'annotation_file': '/home/yuesang/Pythonproject/MobileNetV3/onnxinference/int8inference/my_annotation.txt'
							},
							'reader': 'opencv_imread',
							'preprocessing': [
								{
									'type': 'resize',
									'size': 256,
									'aspect_ratio_scale': 'greater'
								},
								{
									'type': 'crop',
									'size': 224
								},
								{
									'type': 'bgr_to_rgb'
								},
								{
									'type': 'normalization',
									'mean': '(123.675, 116.28, 103.53)',
									'std': '(58.395, 57.12, 57.375)'
								}
							],
							'metrics': [
								{
									'name': 'accuracy @ top1',
									'type': 'accuracy',
									'top_k': 1
								}
							],
							'_command_line_mapping': {}
						}
					]
				}
			],
			'stat_requests_number': null,
			'eval_requests_number': null,
			'type': 'accuracy_checker'
		}
	}"/>
			<version value="2023.0.1-11005-fa1c41994f3-releases/2023/0"/>
		</quantization_parameters>
	</rt_info>
	<quantization_parameters>
		<config>{
		'compression': {
			'target_device': 'CPU',
			'algorithms': [
				{
					'name': 'AccuracyAwareQuantization',
					'params': {
						'preset': 'performance',
						'stat_subset_size': 300,
						'maximal_drop': 0.1
					}
				}
			]
		},
		'engine': {
			'models': [
				{
					'name': 'mobileNetV3',
					'launchers': [
						{
							'framework': 'openvino',
							'device': 'CPU',
							'adapter': 'classification'
						}
					],
					'datasets': [
						{
							'name': 'classification_dataset',
							'data_source': 'PATH',
							'annotation_conversion': {
								'converter': 'imagenet',
								'annotation_file': '/home/yuesang/Pythonproject/MobileNetV3/onnxinference/int8inference/my_annotation.txt'
							},
							'reader': 'opencv_imread',
							'preprocessing': [
								{
									'type': 'resize',
									'size': 256,
									'aspect_ratio_scale': 'greater'
								},
								{
									'type': 'crop',
									'size': 224
								},
								{
									'type': 'bgr_to_rgb'
								},
								{
									'type': 'normalization',
									'mean': '(123.675, 116.28, 103.53)',
									'std': '(58.395, 57.12, 57.375)'
								}
							],
							'metrics': [
								{
									'name': 'accuracy @ top1',
									'type': 'accuracy',
									'top_k': 1
								}
							],
							'_command_line_mapping': {}
						}
					]
				}
			],
			'stat_requests_number': null,
			'eval_requests_number': null,
			'type': 'accuracy_checker'
		}
	}</config>
		<version value="2023.0.1-11005-fa1c41994f3-releases/2023/0"/>
		<cli_params value="{'quantize': None, 'preset': None, 'model': None, 'weights': None, 'name': None, 'engine': None, 'ac_config': None, 'max_drop': None, 'evaluate': False, 'output_dir': 'PATH', 'direct_dump': False, 'log_level': 'INFO', 'pbar': False, 'stream_output': False, 'keep_uncompressed_weights': False, 'data_source': None}"/>
	</quantization_parameters>
</net>
