<?xml version="1.0" ?>
<net name="torch_jit" version="11">
	<layers>
		<layer id="452" name="input" type="Parameter" version="opset1">
			<data shape="1,3,224,224" element_type="f32"/>
			<rt_info>
				<attribute name="old_api_map_element_type" version="0" value="f16"/>
			</rt_info>
			<output>
				<port id="0" precision="FP32" names="input">
					<dim>1</dim>
					<dim>3</dim>
					<dim>224</dim>
					<dim>224</dim>
					<rt_info/>
				</port>
			</output>
		</layer>
		<layer id="0" name="2051205512625" type="Const" version="opset1">
			<data offset="0" size="4" shape="" element_type="f32"/>
			<output>
				<port id="0" precision="FP32"/>
			</output>
		</layer>
		<layer id="1" name="2052205612301" type="Const" version="opset1">
			<data offset="4" size="4" shape="" element_type="f32"/>
			<output>
				<port id="0" precision="FP32"/>
			</output>
		</layer>
		<layer id="2" name="2053205712904" type="Const" version="opset1">
			<data offset="0" size="4" shape="" element_type="f32"/>
			<output>
				<port id="0" precision="FP32"/>
			</output>
		</layer>
		<layer id="3" name="2054205811809" type="Const" version="opset1">
			<data offset="4" size="4" shape="" element_type="f32"/>
			<output>
				<port id="0" precision="FP32"/>
			</output>
		</layer>
		<layer id="4" name="1851185513105" type="Const" version="opset1">
			<data offset="8" size="4" shape="" element_type="f32"/>
			<output>
				<port id="0" precision="FP32"/>
			</output>
		</layer>
		<layer id="5" name="1852185613366" type="Const" version="opset1">
			<data offset="12" size="4" shape="" element_type="f32"/>
			<output>
				<port id="0" precision="FP32"/>
			</output>
		</layer>
		<layer id="6" name="1853185711566" type="Const" version="opset1">
			<data offset="8" size="4" shape="" element_type="f32"/>
			<output>
				<port id="0" precision="FP32"/>
			</output>
		</layer>
		<layer id="7" name="1854185812907" type="Const" version="opset1">
			<data offset="12" size="4" shape="" element_type="f32"/>
			<output>
				<port id="0" precision="FP32"/>
			</output>
		</layer>
		<layer id="8" name="2971297511515" type="Const" version="opset1">
			<data offset="16" size="4096" shape="1024,1" element_type="f32"/>
			<output>
				<port id="0" precision="FP32">
					<dim>1024</dim>
					<dim>1</dim>
				</port>
			</output>
		</layer>
		<layer id="9" name="2972297611950" type="Const" version="opset1">
			<data offset="4112" size="4096" shape="1024,1" element_type="f32"/>
			<output>
				<port id="0" precision="FP32">
					<dim>1024</dim>
					<dim>1</dim>
				</port>
			</output>
		</layer>
		<layer id="10" name="2973297712628" type="Const" version="opset1">
			<data offset="16" size="4096" shape="1024,1" element_type="f32"/>
			<output>
				<port id="0" precision="FP32">
					<dim>1024</dim>
					<dim>1</dim>
				</port>
			</output>
		</layer>
		<layer id="11" name="2974297813210" type="Const" version="opset1">
			<data offset="4112" size="4096" shape="1024,1" element_type="f32"/>
			<output>
				<port id="0" precision="FP32">
					<dim>1024</dim>
					<dim>1</dim>
				</port>
			</output>
		</layer>
		<layer id="12" name="classifier.0.weight104312838" type="Const" version="opset1">
			<data offset="8208" size="1179648" shape="1024,576" element_type="f16"/>
			<output>
				<port id="0" precision="FP16">
					<dim>1024</dim>
					<dim>576</dim>
				</port>
			</output>
		</layer>
		<layer id="13" name="classifier.0.weight10438214/restored_convert" type="Convert" version="opset1">
			<data destination_type="f32"/>
			<rt_info>
				<attribute name="decompression" version="0"/>
			</rt_info>
			<input>
				<port id="0">
					<dim>1024</dim>
					<dim>576</dim>
				</port>
			</input>
			<output>
				<port id="1" precision="FP32" names="classifier.0.weight">
					<dim>1024</dim>
					<dim>576</dim>
				</port>
			</output>
		</layer>
		<layer id="14" name="/classifier/classifier.0/Gemm/WithoutBiases/fq_weights_1" type="FakeQuantize" version="opset1">
			<data levels="255" auto_broadcast="numpy"/>
			<input>
				<port id="0">
					<dim>1024</dim>
					<dim>576</dim>
				</port>
				<port id="1">
					<dim>1024</dim>
					<dim>1</dim>
				</port>
				<port id="2">
					<dim>1024</dim>
					<dim>1</dim>
				</port>
				<port id="3">
					<dim>1024</dim>
					<dim>1</dim>
				</port>
				<port id="4">
					<dim>1024</dim>
					<dim>1</dim>
				</port>
			</input>
			<output>
				<port id="5" precision="FP32">
					<dim>1024</dim>
					<dim>576</dim>
				</port>
			</output>
		</layer>
		<layer id="15" name="Constant_1646104011632" type="Const" version="opset1">
			<data offset="1187856" size="16" shape="2" element_type="i64"/>
			<output>
				<port id="0" precision="I64">
					<dim>2</dim>
				</port>
			</output>
		</layer>
		<layer id="16" name="4540454412193" type="Const" version="opset1">
			<data offset="1187872" size="4" shape="" element_type="f32"/>
			<output>
				<port id="0" precision="FP32"/>
			</output>
		</layer>
		<layer id="17" name="4541454511251" type="Const" version="opset1">
			<data offset="1187876" size="4" shape="" element_type="f32"/>
			<output>
				<port id="0" precision="FP32"/>
			</output>
		</layer>
		<layer id="18" name="4542454611512" type="Const" version="opset1">
			<data offset="1187872" size="4" shape="" element_type="f32"/>
			<output>
				<port id="0" precision="FP32"/>
			</output>
		</layer>
		<layer id="19" name="4543454712091" type="Const" version="opset1">
			<data offset="1187876" size="4" shape="" element_type="f32"/>
			<output>
				<port id="0" precision="FP32"/>
			</output>
		</layer>
		<layer id="20" name="Range_1642103811308" type="Const" version="opset1">
			<data offset="1187880" size="16" shape="2" element_type="i64"/>
			<output>
				<port id="0" precision="I64">
					<dim>2</dim>
				</port>
			</output>
		</layer>
		<layer id="21" name="2991299513762" type="Const" version="opset1">
			<data offset="1187896" size="4" shape="" element_type="f32"/>
			<output>
				<port id="0" precision="FP32"/>
			</output>
		</layer>
		<layer id="22" name="2992299612880" type="Const" version="opset1">
			<data offset="1187900" size="4" shape="" element_type="f32"/>
			<output>
				<port id="0" precision="FP32"/>
			</output>
		</layer>
		<layer id="23" name="2993299712526" type="Const" version="opset1">
			<data offset="1187896" size="4" shape="" element_type="f32"/>
			<output>
				<port id="0" precision="FP32"/>
			</output>
		</layer>
		<layer id="24" name="2994299813132" type="Const" version="opset1">
			<data offset="1187900" size="4" shape="" element_type="f32"/>
			<output>
				<port id="0" precision="FP32"/>
			</output>
		</layer>
		<layer id="25" name="2651265513663" type="Const" version="opset1">
			<data offset="1187904" size="4" shape="" element_type="f32"/>
			<output>
				<port id="0" precision="FP32"/>
			</output>
		</layer>
		<layer id="26" name="2652265611218" type="Const" version="opset1">
			<data offset="1187908" size="4" shape="" element_type="f32"/>
			<output>
				<port id="0" precision="FP32"/>
			</output>
		</layer>
		<layer id="27" name="2653265711524" type="Const" version="opset1">
			<data offset="1187904" size="4" shape="" element_type="f32"/>
			<output>
				<port id="0" precision="FP32"/>
			</output>
		</layer>
		<layer id="28" name="2654265811587" type="Const" version="opset1">
			<data offset="1187908" size="4" shape="" element_type="f32"/>
			<output>
				<port id="0" precision="FP32"/>
			</output>
		</layer>
		<layer id="29" name="1891189511575" type="Const" version="opset1">
			<data offset="1187912" size="4" shape="" element_type="f32"/>
			<output>
				<port id="0" precision="FP32"/>
			</output>
		</layer>
		<layer id="30" name="1892189611911" type="Const" version="opset1">
			<data offset="1187916" size="4" shape="" element_type="f32"/>
			<output>
				<port id="0" precision="FP32"/>
			</output>
		</layer>
		<layer id="31" name="1893189711917" type="Const" version="opset1">
			<data offset="1187912" size="4" shape="" element_type="f32"/>
			<output>
				<port id="0" precision="FP32"/>
			</output>
		</layer>
		<layer id="32" name="1894189812208" type="Const" version="opset1">
			<data offset="1187916" size="4" shape="" element_type="f32"/>
			<output>
				<port id="0" precision="FP32"/>
			</output>
		</layer>
		<layer id="33" name="2151215513039" type="Const" version="opset1">
			<data offset="1187920" size="4" shape="" element_type="f32"/>
			<output>
				<port id="0" precision="FP32"/>
			</output>
		</layer>
		<layer id="34" name="2152215612787" type="Const" version="opset1">
			<data offset="1187924" size="4" shape="" element_type="f32"/>
			<output>
				<port id="0" precision="FP32"/>
			</output>
		</layer>
		<layer id="35" name="2153215712508" type="Const" version="opset1">
			<data offset="1187920" size="4" shape="" element_type="f32"/>
			<output>
				<port id="0" precision="FP32"/>
			</output>
		</layer>
		<layer id="36" name="2154215813249" type="Const" version="opset1">
			<data offset="1187924" size="4" shape="" element_type="f32"/>
			<output>
				<port id="0" precision="FP32"/>
			</output>
		</layer>
		<layer id="37" name="2721272513501" type="Const" version="opset1">
			<data offset="1187928" size="4" shape="" element_type="f32"/>
			<output>
				<port id="0" precision="FP32"/>
			</output>
		</layer>
		<layer id="38" name="2722272611317" type="Const" version="opset1">
			<data offset="1187932" size="4" shape="" element_type="f32"/>
			<output>
				<port id="0" precision="FP32"/>
			</output>
		</layer>
		<layer id="39" name="2723272712634" type="Const" version="opset1">
			<data offset="1187928" size="4" shape="" element_type="f32"/>
			<output>
				<port id="0" precision="FP32"/>
			</output>
		</layer>
		<layer id="40" name="2724272811782" type="Const" version="opset1">
			<data offset="1187932" size="4" shape="" element_type="f32"/>
			<output>
				<port id="0" precision="FP32"/>
			</output>
		</layer>
		<layer id="41" name="2781278512607" type="Const" version="opset1">
			<data offset="1187936" size="4" shape="" element_type="f32"/>
			<output>
				<port id="0" precision="FP32"/>
			</output>
		</layer>
		<layer id="42" name="2782278611434" type="Const" version="opset1">
			<data offset="1187940" size="4" shape="" element_type="f32"/>
			<output>
				<port id="0" precision="FP32"/>
			</output>
		</layer>
		<layer id="43" name="2783278711206" type="Const" version="opset1">
			<data offset="1187936" size="4" shape="" element_type="f32"/>
			<output>
				<port id="0" precision="FP32"/>
			</output>
		</layer>
		<layer id="44" name="2784278812910" type="Const" version="opset1">
			<data offset="1187940" size="4" shape="" element_type="f32"/>
			<output>
				<port id="0" precision="FP32"/>
			</output>
		</layer>
		<layer id="45" name="3441344513723" type="Const" version="opset1">
			<data offset="1187936" size="4" shape="" element_type="f32"/>
			<output>
				<port id="0" precision="FP32"/>
			</output>
		</layer>
		<layer id="46" name="3442344611629" type="Const" version="opset1">
			<data offset="1187944" size="4" shape="" element_type="f32"/>
			<output>
				<port id="0" precision="FP32"/>
			</output>
		</layer>
		<layer id="47" name="3443344711743" type="Const" version="opset1">
			<data offset="1187936" size="4" shape="" element_type="f32"/>
			<output>
				<port id="0" precision="FP32"/>
			</output>
		</layer>
		<layer id="48" name="3444344813243" type="Const" version="opset1">
			<data offset="1187944" size="4" shape="" element_type="f32"/>
			<output>
				<port id="0" precision="FP32"/>
			</output>
		</layer>
		<layer id="49" name="2071207512940" type="Const" version="opset1">
			<data offset="1187948" size="4" shape="" element_type="f32"/>
			<output>
				<port id="0" precision="FP32"/>
			</output>
		</layer>
		<layer id="50" name="2072207612952" type="Const" version="opset1">
			<data offset="1187952" size="4" shape="" element_type="f32"/>
			<output>
				<port id="0" precision="FP32"/>
			</output>
		</layer>
		<layer id="51" name="2073207711269" type="Const" version="opset1">
			<data offset="1187948" size="4" shape="" element_type="f32"/>
			<output>
				<port id="0" precision="FP32"/>
			</output>
		</layer>
		<layer id="52" name="2074207812283" type="Const" version="opset1">
			<data offset="1187952" size="4" shape="" element_type="f32"/>
			<output>
				<port id="0" precision="FP32"/>
			</output>
		</layer>
		<layer id="53" name="Range_156299811470" type="Const" version="opset1">
			<data offset="1187880" size="16" shape="2" element_type="i64"/>
			<output>
				<port id="0" precision="I64">
					<dim>2</dim>
				</port>
			</output>
		</layer>
		<layer id="54" name="2671267511431" type="Const" version="opset1">
			<data offset="1187956" size="4" shape="" element_type="f32"/>
			<output>
				<port id="0" precision="FP32"/>
			</output>
		</layer>
		<layer id="55" name="2672267612832" type="Const" version="opset1">
			<data offset="1187960" size="4" shape="" element_type="f32"/>
			<output>
				<port id="0" precision="FP32"/>
			</output>
		</layer>
		<layer id="56" name="2673267711986" type="Const" version="opset1">
			<data offset="1187956" size="4" shape="" element_type="f32"/>
			<output>
				<port id="0" precision="FP32"/>
			</output>
		</layer>
		<layer id="57" name="2674267811599" type="Const" version="opset1">
			<data offset="1187960" size="4" shape="" element_type="f32"/>
			<output>
				<port id="0" precision="FP32"/>
			</output>
		</layer>
		<layer id="58" name="3021302512679" type="Const" version="opset1">
			<data offset="1187964" size="4" shape="" element_type="f32"/>
			<output>
				<port id="0" precision="FP32"/>
			</output>
		</layer>
		<layer id="59" name="3022302612154" type="Const" version="opset1">
			<data offset="1187968" size="4" shape="" element_type="f32"/>
			<output>
				<port id="0" precision="FP32"/>
			</output>
		</layer>
		<layer id="60" name="3023302711635" type="Const" version="opset1">
			<data offset="1187964" size="4" shape="" element_type="f32"/>
			<output>
				<port id="0" precision="FP32"/>
			</output>
		</layer>
		<layer id="61" name="3024302812238" type="Const" version="opset1">
			<data offset="1187968" size="4" shape="" element_type="f32"/>
			<output>
				<port id="0" precision="FP32"/>
			</output>
		</layer>
		<layer id="62" name="3281328511653" type="Const" version="opset1">
			<data offset="1187972" size="2304" shape="1,576,1,1" element_type="f32"/>
			<output>
				<port id="0" precision="FP32">
					<dim>1</dim>
					<dim>576</dim>
					<dim>1</dim>
					<dim>1</dim>
				</port>
			</output>
		</layer>
		<layer id="63" name="3282328613270" type="Const" version="opset1">
			<data offset="1190276" size="2304" shape="1,576,1,1" element_type="f32"/>
			<output>
				<port id="0" precision="FP32">
					<dim>1</dim>
					<dim>576</dim>
					<dim>1</dim>
					<dim>1</dim>
				</port>
			</output>
		</layer>
		<layer id="64" name="3283328712919" type="Const" version="opset1">
			<data offset="1187972" size="2304" shape="1,576,1,1" element_type="f32"/>
			<output>
				<port id="0" precision="FP32">
					<dim>1</dim>
					<dim>576</dim>
					<dim>1</dim>
					<dim>1</dim>
				</port>
			</output>
		</layer>
		<layer id="65" name="3284328811965" type="Const" version="opset1">
			<data offset="1190276" size="2304" shape="1,576,1,1" element_type="f32"/>
			<output>
				<port id="0" precision="FP32">
					<dim>1</dim>
					<dim>576</dim>
					<dim>1</dim>
					<dim>1</dim>
				</port>
			</output>
		</layer>
		<layer id="66" name="2861286511914" type="Const" version="opset1">
			<data offset="1192580" size="4" shape="" element_type="f32"/>
			<output>
				<port id="0" precision="FP32"/>
			</output>
		</layer>
		<layer id="67" name="2862286612175" type="Const" version="opset1">
			<data offset="1192584" size="4" shape="" element_type="f32"/>
			<output>
				<port id="0" precision="FP32"/>
			</output>
		</layer>
		<layer id="68" name="2863286712037" type="Const" version="opset1">
			<data offset="1192580" size="4" shape="" element_type="f32"/>
			<output>
				<port id="0" precision="FP32"/>
			</output>
		</layer>
		<layer id="69" name="2864286812418" type="Const" version="opset1">
			<data offset="1192584" size="4" shape="" element_type="f32"/>
			<output>
				<port id="0" precision="FP32"/>
			</output>
		</layer>
		<layer id="70" name="3171317511740" type="Const" version="opset1">
			<data offset="1192588" size="2304" shape="576,1,1,1" element_type="f32"/>
			<output>
				<port id="0" precision="FP32">
					<dim>576</dim>
					<dim>1</dim>
					<dim>1</dim>
					<dim>1</dim>
				</port>
			</output>
		</layer>
		<layer id="71" name="3172317612580" type="Const" version="opset1">
			<data offset="1194892" size="2304" shape="576,1,1,1" element_type="f32"/>
			<output>
				<port id="0" precision="FP32">
					<dim>576</dim>
					<dim>1</dim>
					<dim>1</dim>
					<dim>1</dim>
				</port>
			</output>
		</layer>
		<layer id="72" name="3173317712070" type="Const" version="opset1">
			<data offset="1192588" size="2304" shape="576,1,1,1" element_type="f32"/>
			<output>
				<port id="0" precision="FP32">
					<dim>576</dim>
					<dim>1</dim>
					<dim>1</dim>
					<dim>1</dim>
				</port>
			</output>
		</layer>
		<layer id="73" name="3174317812601" type="Const" version="opset1">
			<data offset="1194892" size="2304" shape="576,1,1,1" element_type="f32"/>
			<output>
				<port id="0" precision="FP32">
					<dim>576</dim>
					<dim>1</dim>
					<dim>1</dim>
					<dim>1</dim>
				</port>
			</output>
		</layer>
		<layer id="74" name="onnx::Conv_51197511278" type="Const" version="opset1">
			<data offset="1197196" size="110592" shape="576,96,1,1" element_type="f16"/>
			<output>
				<port id="0" precision="FP16">
					<dim>576</dim>
					<dim>96</dim>
					<dim>1</dim>
					<dim>1</dim>
				</port>
			</output>
		</layer>
		<layer id="75" name="onnx::Conv_5119758191/restored_convert" type="Convert" version="opset1">
			<data destination_type="f32"/>
			<rt_info>
				<attribute name="decompression" version="0"/>
			</rt_info>
			<input>
				<port id="0">
					<dim>576</dim>
					<dim>96</dim>
					<dim>1</dim>
					<dim>1</dim>
				</port>
			</input>
			<output>
				<port id="1" precision="FP32" names="onnx::Conv_511">
					<dim>576</dim>
					<dim>96</dim>
					<dim>1</dim>
					<dim>1</dim>
				</port>
			</output>
		</layer>
		<layer id="76" name="/features/features.11/block/block.0/block.0.0/Conv/WithoutBiases/fq_weights_1" type="FakeQuantize" version="opset1">
			<data levels="255" auto_broadcast="numpy"/>
			<input>
				<port id="0">
					<dim>576</dim>
					<dim>96</dim>
					<dim>1</dim>
					<dim>1</dim>
				</port>
				<port id="1">
					<dim>576</dim>
					<dim>1</dim>
					<dim>1</dim>
					<dim>1</dim>
				</port>
				<port id="2">
					<dim>576</dim>
					<dim>1</dim>
					<dim>1</dim>
					<dim>1</dim>
				</port>
				<port id="3">
					<dim>576</dim>
					<dim>1</dim>
					<dim>1</dim>
					<dim>1</dim>
				</port>
				<port id="4">
					<dim>576</dim>
					<dim>1</dim>
					<dim>1</dim>
					<dim>1</dim>
				</port>
			</input>
			<output>
				<port id="5" precision="FP32">
					<dim>576</dim>
					<dim>96</dim>
					<dim>1</dim>
					<dim>1</dim>
				</port>
			</output>
		</layer>
		<layer id="77" name="2161216511440" type="Const" version="opset1">
			<data offset="1307788" size="4" shape="" element_type="f32"/>
			<output>
				<port id="0" precision="FP32"/>
			</output>
		</layer>
		<layer id="78" name="2162216613405" type="Const" version="opset1">
			<data offset="1307792" size="4" shape="" element_type="f32"/>
			<output>
				<port id="0" precision="FP32"/>
			</output>
		</layer>
		<layer id="79" name="2163216713561" type="Const" version="opset1">
			<data offset="1307788" size="4" shape="" element_type="f32"/>
			<output>
				<port id="0" precision="FP32"/>
			</output>
		</layer>
		<layer id="80" name="2164216813588" type="Const" version="opset1">
			<data offset="1307792" size="4" shape="" element_type="f32"/>
			<output>
				<port id="0" precision="FP32"/>
			</output>
		</layer>
		<layer id="81" name="3221322513330" type="Const" version="opset1">
			<data offset="1307796" size="4" shape="" element_type="f32"/>
			<output>
				<port id="0" precision="FP32"/>
			</output>
		</layer>
		<layer id="82" name="3222322611746" type="Const" version="opset1">
			<data offset="1307800" size="4" shape="" element_type="f32"/>
			<output>
				<port id="0" precision="FP32"/>
			</output>
		</layer>
		<layer id="83" name="3223322711326" type="Const" version="opset1">
			<data offset="1307796" size="4" shape="" element_type="f32"/>
			<output>
				<port id="0" precision="FP32"/>
			</output>
		</layer>
		<layer id="84" name="3224322813747" type="Const" version="opset1">
			<data offset="1307800" size="4" shape="" element_type="f32"/>
			<output>
				<port id="0" precision="FP32"/>
			</output>
		</layer>
		<layer id="85" name="2011201512169" type="Const" version="opset1">
			<data offset="1307804" size="4" shape="" element_type="f32"/>
			<output>
				<port id="0" precision="FP32"/>
			</output>
		</layer>
		<layer id="86" name="2012201611437" type="Const" version="opset1">
			<data offset="1307808" size="4" shape="" element_type="f32"/>
			<output>
				<port id="0" precision="FP32"/>
			</output>
		</layer>
		<layer id="87" name="2013201712259" type="Const" version="opset1">
			<data offset="1307804" size="4" shape="" element_type="f32"/>
			<output>
				<port id="0" precision="FP32"/>
			</output>
		</layer>
		<layer id="88" name="2014201811407" type="Const" version="opset1">
			<data offset="1307808" size="4" shape="" element_type="f32"/>
			<output>
				<port id="0" precision="FP32"/>
			</output>
		</layer>
		<layer id="89" name="3101310513444" type="Const" version="opset1">
			<data offset="1187936" size="4" shape="" element_type="f32"/>
			<output>
				<port id="0" precision="FP32"/>
			</output>
		</layer>
		<layer id="90" name="3102310611275" type="Const" version="opset1">
			<data offset="1187940" size="4" shape="" element_type="f32"/>
			<output>
				<port id="0" precision="FP32"/>
			</output>
		</layer>
		<layer id="91" name="3103310712898" type="Const" version="opset1">
			<data offset="1187936" size="4" shape="" element_type="f32"/>
			<output>
				<port id="0" precision="FP32"/>
			</output>
		</layer>
		<layer id="92" name="3104310813756" type="Const" version="opset1">
			<data offset="1187940" size="4" shape="" element_type="f32"/>
			<output>
				<port id="0" precision="FP32"/>
			</output>
		</layer>
		<layer id="93" name="3121312513576" type="Const" version="opset1">
			<data offset="1187936" size="4" shape="" element_type="f32"/>
			<output>
				<port id="0" precision="FP32"/>
			</output>
		</layer>
		<layer id="94" name="3122312611710" type="Const" version="opset1">
			<data offset="1307812" size="4" shape="" element_type="f32"/>
			<output>
				<port id="0" precision="FP32"/>
			</output>
		</layer>
		<layer id="95" name="3123312713606" type="Const" version="opset1">
			<data offset="1187936" size="4" shape="" element_type="f32"/>
			<output>
				<port id="0" precision="FP32"/>
			</output>
		</layer>
		<layer id="96" name="3124312811194" type="Const" version="opset1">
			<data offset="1307812" size="4" shape="" element_type="f32"/>
			<output>
				<port id="0" precision="FP32"/>
			</output>
		</layer>
		<layer id="97" name="2941294513348" type="Const" version="opset1">
			<data offset="1307816" size="4" shape="" element_type="f32"/>
			<output>
				<port id="0" precision="FP32"/>
			</output>
		</layer>
		<layer id="98" name="2942294612676" type="Const" version="opset1">
			<data offset="1307820" size="4" shape="" element_type="f32"/>
			<output>
				<port id="0" precision="FP32"/>
			</output>
		</layer>
		<layer id="99" name="2943294712337" type="Const" version="opset1">
			<data offset="1307816" size="4" shape="" element_type="f32"/>
			<output>
				<port id="0" precision="FP32"/>
			</output>
		</layer>
		<layer id="100" name="2944294811167" type="Const" version="opset1">
			<data offset="1307820" size="4" shape="" element_type="f32"/>
			<output>
				<port id="0" precision="FP32"/>
			</output>
		</layer>
		<layer id="101" name="Range_141594613078" type="Const" version="opset1">
			<data offset="1187880" size="16" shape="2" element_type="i64"/>
			<output>
				<port id="0" precision="I64">
					<dim>2</dim>
				</port>
			</output>
		</layer>
		<layer id="102" name="1841184513264" type="Const" version="opset1">
			<data offset="1307824" size="4" shape="" element_type="f32"/>
			<output>
				<port id="0" precision="FP32"/>
			</output>
		</layer>
		<layer id="103" name="1842184613519" type="Const" version="opset1">
			<data offset="1307828" size="4" shape="" element_type="f32"/>
			<output>
				<port id="0" precision="FP32"/>
			</output>
		</layer>
		<layer id="104" name="1843184712409" type="Const" version="opset1">
			<data offset="1307824" size="4" shape="" element_type="f32"/>
			<output>
				<port id="0" precision="FP32"/>
			</output>
		</layer>
		<layer id="105" name="1844184813162" type="Const" version="opset1">
			<data offset="1307828" size="4" shape="" element_type="f32"/>
			<output>
				<port id="0" precision="FP32"/>
			</output>
		</layer>
		<layer id="106" name="3461346511185" type="Const" version="opset1">
			<data offset="1307832" size="4" shape="" element_type="f32"/>
			<output>
				<port id="0" precision="FP32"/>
			</output>
		</layer>
		<layer id="107" name="3462346612310" type="Const" version="opset1">
			<data offset="1307836" size="4" shape="" element_type="f32"/>
			<output>
				<port id="0" precision="FP32"/>
			</output>
		</layer>
		<layer id="108" name="3463346713450" type="Const" version="opset1">
			<data offset="1307832" size="4" shape="" element_type="f32"/>
			<output>
				<port id="0" precision="FP32"/>
			</output>
		</layer>
		<layer id="109" name="3464346811545" type="Const" version="opset1">
			<data offset="1307836" size="4" shape="" element_type="f32"/>
			<output>
				<port id="0" precision="FP32"/>
			</output>
		</layer>
		<layer id="110" name="2921292511461" type="Const" version="opset1">
			<data offset="1307840" size="2304" shape="1,576,1,1" element_type="f32"/>
			<output>
				<port id="0" precision="FP32">
					<dim>1</dim>
					<dim>576</dim>
					<dim>1</dim>
					<dim>1</dim>
				</port>
			</output>
		</layer>
		<layer id="111" name="2922292612211" type="Const" version="opset1">
			<data offset="1310144" size="2304" shape="1,576,1,1" element_type="f32"/>
			<output>
				<port id="0" precision="FP32">
					<dim>1</dim>
					<dim>576</dim>
					<dim>1</dim>
					<dim>1</dim>
				</port>
			</output>
		</layer>
		<layer id="112" name="2923292713582" type="Const" version="opset1">
			<data offset="1307840" size="2304" shape="1,576,1,1" element_type="f32"/>
			<output>
				<port id="0" precision="FP32">
					<dim>1</dim>
					<dim>576</dim>
					<dim>1</dim>
					<dim>1</dim>
				</port>
			</output>
		</layer>
		<layer id="113" name="2924292813699" type="Const" version="opset1">
			<data offset="1310144" size="2304" shape="1,576,1,1" element_type="f32"/>
			<output>
				<port id="0" precision="FP32">
					<dim>1</dim>
					<dim>576</dim>
					<dim>1</dim>
					<dim>1</dim>
				</port>
			</output>
		</layer>
		<layer id="114" name="2551255513300" type="Const" version="opset1">
			<data offset="1312448" size="4" shape="" element_type="f32"/>
			<output>
				<port id="0" precision="FP32"/>
			</output>
		</layer>
		<layer id="115" name="2552255613273" type="Const" version="opset1">
			<data offset="1312452" size="4" shape="" element_type="f32"/>
			<output>
				<port id="0" precision="FP32"/>
			</output>
		</layer>
		<layer id="116" name="2553255711368" type="Const" version="opset1">
			<data offset="1312448" size="4" shape="" element_type="f32"/>
			<output>
				<port id="0" precision="FP32"/>
			</output>
		</layer>
		<layer id="117" name="2554255812901" type="Const" version="opset1">
			<data offset="1312452" size="4" shape="" element_type="f32"/>
			<output>
				<port id="0" precision="FP32"/>
			</output>
		</layer>
		<layer id="118" name="3511351512040" type="Const" version="opset1">
			<data offset="1312456" size="2304" shape="576,1,1,1" element_type="f32"/>
			<output>
				<port id="0" precision="FP32">
					<dim>576</dim>
					<dim>1</dim>
					<dim>1</dim>
					<dim>1</dim>
				</port>
			</output>
		</layer>
		<layer id="119" name="3512351612514" type="Const" version="opset1">
			<data offset="1314760" size="2304" shape="576,1,1,1" element_type="f32"/>
			<output>
				<port id="0" precision="FP32">
					<dim>576</dim>
					<dim>1</dim>
					<dim>1</dim>
					<dim>1</dim>
				</port>
			</output>
		</layer>
		<layer id="120" name="3513351711869" type="Const" version="opset1">
			<data offset="1312456" size="2304" shape="576,1,1,1" element_type="f32"/>
			<output>
				<port id="0" precision="FP32">
					<dim>576</dim>
					<dim>1</dim>
					<dim>1</dim>
					<dim>1</dim>
				</port>
			</output>
		</layer>
		<layer id="121" name="3514351813099" type="Const" version="opset1">
			<data offset="1314760" size="2304" shape="576,1,1,1" element_type="f32"/>
			<output>
				<port id="0" precision="FP32">
					<dim>576</dim>
					<dim>1</dim>
					<dim>1</dim>
					<dim>1</dim>
				</port>
			</output>
		</layer>
		<layer id="122" name="onnx::Conv_50292313216" type="Const" version="opset1">
			<data offset="1317064" size="110592" shape="576,96,1,1" element_type="f16"/>
			<output>
				<port id="0" precision="FP16">
					<dim>576</dim>
					<dim>96</dim>
					<dim>1</dim>
					<dim>1</dim>
				</port>
			</output>
		</layer>
		<layer id="123" name="onnx::Conv_5029238174/restored_convert" type="Convert" version="opset1">
			<data destination_type="f32"/>
			<rt_info>
				<attribute name="decompression" version="0"/>
			</rt_info>
			<input>
				<port id="0">
					<dim>576</dim>
					<dim>96</dim>
					<dim>1</dim>
					<dim>1</dim>
				</port>
			</input>
			<output>
				<port id="1" precision="FP32" names="onnx::Conv_502">
					<dim>576</dim>
					<dim>96</dim>
					<dim>1</dim>
					<dim>1</dim>
				</port>
			</output>
		</layer>
		<layer id="124" name="/features/features.10/block/block.0/block.0.0/Conv/WithoutBiases/fq_weights_1" type="FakeQuantize" version="opset1">
			<data levels="255" auto_broadcast="numpy"/>
			<input>
				<port id="0">
					<dim>576</dim>
					<dim>96</dim>
					<dim>1</dim>
					<dim>1</dim>
				</port>
				<port id="1">
					<dim>576</dim>
					<dim>1</dim>
					<dim>1</dim>
					<dim>1</dim>
				</port>
				<port id="2">
					<dim>576</dim>
					<dim>1</dim>
					<dim>1</dim>
					<dim>1</dim>
				</port>
				<port id="3">
					<dim>576</dim>
					<dim>1</dim>
					<dim>1</dim>
					<dim>1</dim>
				</port>
				<port id="4">
					<dim>576</dim>
					<dim>1</dim>
					<dim>1</dim>
					<dim>1</dim>
				</port>
			</input>
			<output>
				<port id="5" precision="FP32">
					<dim>576</dim>
					<dim>96</dim>
					<dim>1</dim>
					<dim>1</dim>
				</port>
			</output>
		</layer>
		<layer id="125" name="3231323513423" type="Const" version="opset1">
			<data offset="1427656" size="4" shape="" element_type="f32"/>
			<output>
				<port id="0" precision="FP32"/>
			</output>
		</layer>
		<layer id="126" name="3232323611245" type="Const" version="opset1">
			<data offset="1427660" size="4" shape="" element_type="f32"/>
			<output>
				<port id="0" precision="FP32"/>
			</output>
		</layer>
		<layer id="127" name="3233323712400" type="Const" version="opset1">
			<data offset="1427656" size="4" shape="" element_type="f32"/>
			<output>
				<port id="0" precision="FP32"/>
			</output>
		</layer>
		<layer id="128" name="3234323811674" type="Const" version="opset1">
			<data offset="1427660" size="4" shape="" element_type="f32"/>
			<output>
				<port id="0" precision="FP32"/>
			</output>
		</layer>
		<layer id="129" name="3561356511602" type="Const" version="opset1">
			<data offset="1427664" size="4" shape="" element_type="f32"/>
			<output>
				<port id="0" precision="FP32"/>
			</output>
		</layer>
		<layer id="130" name="3562356612115" type="Const" version="opset1">
			<data offset="1427668" size="4" shape="" element_type="f32"/>
			<output>
				<port id="0" precision="FP32"/>
			</output>
		</layer>
		<layer id="131" name="3563356712370" type="Const" version="opset1">
			<data offset="1427664" size="4" shape="" element_type="f32"/>
			<output>
				<port id="0" precision="FP32"/>
			</output>
		</layer>
		<layer id="132" name="3564356811833" type="Const" version="opset1">
			<data offset="1427668" size="4" shape="" element_type="f32"/>
			<output>
				<port id="0" precision="FP32"/>
			</output>
		</layer>
		<layer id="133" name="3001300512538" type="Const" version="opset1">
			<data offset="1187936" size="4" shape="" element_type="f32"/>
			<output>
				<port id="0" precision="FP32"/>
			</output>
		</layer>
		<layer id="134" name="3002300613417" type="Const" version="opset1">
			<data offset="1187940" size="4" shape="" element_type="f32"/>
			<output>
				<port id="0" precision="FP32"/>
			</output>
		</layer>
		<layer id="135" name="3003300711830" type="Const" version="opset1">
			<data offset="1187936" size="4" shape="" element_type="f32"/>
			<output>
				<port id="0" precision="FP32"/>
			</output>
		</layer>
		<layer id="136" name="3004300813069" type="Const" version="opset1">
			<data offset="1187940" size="4" shape="" element_type="f32"/>
			<output>
				<port id="0" precision="FP32"/>
			</output>
		</layer>
		<layer id="137" name="3401340511662" type="Const" version="opset1">
			<data offset="1187936" size="4" shape="" element_type="f32"/>
			<output>
				<port id="0" precision="FP32"/>
			</output>
		</layer>
		<layer id="138" name="3402340611650" type="Const" version="opset1">
			<data offset="1427672" size="4" shape="" element_type="f32"/>
			<output>
				<port id="0" precision="FP32"/>
			</output>
		</layer>
		<layer id="139" name="3403340713750" type="Const" version="opset1">
			<data offset="1187936" size="4" shape="" element_type="f32"/>
			<output>
				<port id="0" precision="FP32"/>
			</output>
		</layer>
		<layer id="140" name="3404340813033" type="Const" version="opset1">
			<data offset="1427672" size="4" shape="" element_type="f32"/>
			<output>
				<port id="0" precision="FP32"/>
			</output>
		</layer>
		<layer id="141" name="2471247512577" type="Const" version="opset1">
			<data offset="1427676" size="4" shape="" element_type="f32"/>
			<output>
				<port id="0" precision="FP32"/>
			</output>
		</layer>
		<layer id="142" name="2472247612964" type="Const" version="opset1">
			<data offset="1427680" size="4" shape="" element_type="f32"/>
			<output>
				<port id="0" precision="FP32"/>
			</output>
		</layer>
		<layer id="143" name="2473247713585" type="Const" version="opset1">
			<data offset="1427676" size="4" shape="" element_type="f32"/>
			<output>
				<port id="0" precision="FP32"/>
			</output>
		</layer>
		<layer id="144" name="2474247813285" type="Const" version="opset1">
			<data offset="1427680" size="4" shape="" element_type="f32"/>
			<output>
				<port id="0" precision="FP32"/>
			</output>
		</layer>
		<layer id="145" name="Range_126989511305" type="Const" version="opset1">
			<data offset="1187880" size="16" shape="2" element_type="i64"/>
			<output>
				<port id="0" precision="I64">
					<dim>2</dim>
				</port>
			</output>
		</layer>
		<layer id="146" name="2211221511557" type="Const" version="opset1">
			<data offset="1427684" size="4" shape="" element_type="f32"/>
			<output>
				<port id="0" precision="FP32"/>
			</output>
		</layer>
		<layer id="147" name="2212221613612" type="Const" version="opset1">
			<data offset="1427688" size="4" shape="" element_type="f32"/>
			<output>
				<port id="0" precision="FP32"/>
			</output>
		</layer>
		<layer id="148" name="2213221713240" type="Const" version="opset1">
			<data offset="1427684" size="4" shape="" element_type="f32"/>
			<output>
				<port id="0" precision="FP32"/>
			</output>
		</layer>
		<layer id="149" name="2214221812127" type="Const" version="opset1">
			<data offset="1427688" size="4" shape="" element_type="f32"/>
			<output>
				<port id="0" precision="FP32"/>
			</output>
		</layer>
		<layer id="150" name="2341234512274" type="Const" version="opset1">
			<data offset="1427692" size="4" shape="" element_type="f32"/>
			<output>
				<port id="0" precision="FP32"/>
			</output>
		</layer>
		<layer id="151" name="2342234613702" type="Const" version="opset1">
			<data offset="1427696" size="4" shape="" element_type="f32"/>
			<output>
				<port id="0" precision="FP32"/>
			</output>
		</layer>
		<layer id="152" name="2343234711797" type="Const" version="opset1">
			<data offset="1427692" size="4" shape="" element_type="f32"/>
			<output>
				<port id="0" precision="FP32"/>
			</output>
		</layer>
		<layer id="153" name="2344234811938" type="Const" version="opset1">
			<data offset="1427696" size="4" shape="" element_type="f32"/>
			<output>
				<port id="0" precision="FP32"/>
			</output>
		</layer>
		<layer id="154" name="2901290513042" type="Const" version="opset1">
			<data offset="1427700" size="1152" shape="1,288,1,1" element_type="f32"/>
			<output>
				<port id="0" precision="FP32">
					<dim>1</dim>
					<dim>288</dim>
					<dim>1</dim>
					<dim>1</dim>
				</port>
			</output>
		</layer>
		<layer id="155" name="2902290613543" type="Const" version="opset1">
			<data offset="1428852" size="1152" shape="1,288,1,1" element_type="f32"/>
			<output>
				<port id="0" precision="FP32">
					<dim>1</dim>
					<dim>288</dim>
					<dim>1</dim>
					<dim>1</dim>
				</port>
			</output>
		</layer>
		<layer id="156" name="2903290712019" type="Const" version="opset1">
			<data offset="1427700" size="1152" shape="1,288,1,1" element_type="f32"/>
			<output>
				<port id="0" precision="FP32">
					<dim>1</dim>
					<dim>288</dim>
					<dim>1</dim>
					<dim>1</dim>
				</port>
			</output>
		</layer>
		<layer id="157" name="2904290812448" type="Const" version="opset1">
			<data offset="1428852" size="1152" shape="1,288,1,1" element_type="f32"/>
			<output>
				<port id="0" precision="FP32">
					<dim>1</dim>
					<dim>288</dim>
					<dim>1</dim>
					<dim>1</dim>
				</port>
			</output>
		</layer>
		<layer id="158" name="2741274512541" type="Const" version="opset1">
			<data offset="1430004" size="4" shape="" element_type="f32"/>
			<output>
				<port id="0" precision="FP32"/>
			</output>
		</layer>
		<layer id="159" name="2742274612892" type="Const" version="opset1">
			<data offset="1430008" size="4" shape="" element_type="f32"/>
			<output>
				<port id="0" precision="FP32"/>
			</output>
		</layer>
		<layer id="160" name="2743274711215" type="Const" version="opset1">
			<data offset="1430004" size="4" shape="" element_type="f32"/>
			<output>
				<port id="0" precision="FP32"/>
			</output>
		</layer>
		<layer id="161" name="2744274812844" type="Const" version="opset1">
			<data offset="1430008" size="4" shape="" element_type="f32"/>
			<output>
				<port id="0" precision="FP32"/>
			</output>
		</layer>
		<layer id="162" name="2841284512199" type="Const" version="opset1">
			<data offset="1430012" size="4" shape="" element_type="f32"/>
			<output>
				<port id="0" precision="FP32"/>
			</output>
		</layer>
		<layer id="163" name="2842284613471" type="Const" version="opset1">
			<data offset="1430016" size="4" shape="" element_type="f32"/>
			<output>
				<port id="0" precision="FP32"/>
			</output>
		</layer>
		<layer id="164" name="2843284712583" type="Const" version="opset1">
			<data offset="1430012" size="4" shape="" element_type="f32"/>
			<output>
				<port id="0" precision="FP32"/>
			</output>
		</layer>
		<layer id="165" name="2844284813189" type="Const" version="opset1">
			<data offset="1430016" size="4" shape="" element_type="f32"/>
			<output>
				<port id="0" precision="FP32"/>
			</output>
		</layer>
		<layer id="166" name="3481348513228" type="Const" version="opset1">
			<data offset="1430020" size="4" shape="" element_type="f32"/>
			<output>
				<port id="0" precision="FP32"/>
			</output>
		</layer>
		<layer id="167" name="3482348611884" type="Const" version="opset1">
			<data offset="1430024" size="4" shape="" element_type="f32"/>
			<output>
				<port id="0" precision="FP32"/>
			</output>
		</layer>
		<layer id="168" name="3483348712277" type="Const" version="opset1">
			<data offset="1430020" size="4" shape="" element_type="f32"/>
			<output>
				<port id="0" precision="FP32"/>
			</output>
		</layer>
		<layer id="169" name="3484348812640" type="Const" version="opset1">
			<data offset="1430024" size="4" shape="" element_type="f32"/>
			<output>
				<port id="0" precision="FP32"/>
			</output>
		</layer>
		<layer id="170" name="2241224513102" type="Const" version="opset1">
			<data offset="1430028" size="4" shape="" element_type="f32"/>
			<output>
				<port id="0" precision="FP32"/>
			</output>
		</layer>
		<layer id="171" name="2242224613462" type="Const" version="opset1">
			<data offset="1430032" size="4" shape="" element_type="f32"/>
			<output>
				<port id="0" precision="FP32"/>
			</output>
		</layer>
		<layer id="172" name="2243224711254" type="Const" version="opset1">
			<data offset="1430028" size="4" shape="" element_type="f32"/>
			<output>
				<port id="0" precision="FP32"/>
			</output>
		</layer>
		<layer id="173" name="2244224811752" type="Const" version="opset1">
			<data offset="1430032" size="4" shape="" element_type="f32"/>
			<output>
				<port id="0" precision="FP32"/>
			</output>
		</layer>
		<layer id="174" name="2581258512556" type="Const" version="opset1">
			<data offset="1187936" size="4" shape="" element_type="f32"/>
			<output>
				<port id="0" precision="FP32"/>
			</output>
		</layer>
		<layer id="175" name="2582258613057" type="Const" version="opset1">
			<data offset="1187940" size="4" shape="" element_type="f32"/>
			<output>
				<port id="0" precision="FP32"/>
			</output>
		</layer>
		<layer id="176" name="2583258711164" type="Const" version="opset1">
			<data offset="1187936" size="4" shape="" element_type="f32"/>
			<output>
				<port id="0" precision="FP32"/>
			</output>
		</layer>
		<layer id="177" name="2584258812484" type="Const" version="opset1">
			<data offset="1187940" size="4" shape="" element_type="f32"/>
			<output>
				<port id="0" precision="FP32"/>
			</output>
		</layer>
		<layer id="178" name="1801180511302" type="Const" version="opset1">
			<data offset="1187936" size="4" shape="" element_type="f32"/>
			<output>
				<port id="0" precision="FP32"/>
			</output>
		</layer>
		<layer id="179" name="1802180613342" type="Const" version="opset1">
			<data offset="1430036" size="4" shape="" element_type="f32"/>
			<output>
				<port id="0" precision="FP32"/>
			</output>
		</layer>
		<layer id="180" name="1803180713759" type="Const" version="opset1">
			<data offset="1187936" size="4" shape="" element_type="f32"/>
			<output>
				<port id="0" precision="FP32"/>
			</output>
		</layer>
		<layer id="181" name="1804180812889" type="Const" version="opset1">
			<data offset="1430036" size="4" shape="" element_type="f32"/>
			<output>
				<port id="0" precision="FP32"/>
			</output>
		</layer>
		<layer id="182" name="2281228512367" type="Const" version="opset1">
			<data offset="1430040" size="4" shape="" element_type="f32"/>
			<output>
				<port id="0" precision="FP32"/>
			</output>
		</layer>
		<layer id="183" name="2282228611458" type="Const" version="opset1">
			<data offset="1430044" size="4" shape="" element_type="f32"/>
			<output>
				<port id="0" precision="FP32"/>
			</output>
		</layer>
		<layer id="184" name="2283228713447" type="Const" version="opset1">
			<data offset="1430040" size="4" shape="" element_type="f32"/>
			<output>
				<port id="0" precision="FP32"/>
			</output>
		</layer>
		<layer id="185" name="2284228811800" type="Const" version="opset1">
			<data offset="1430044" size="4" shape="" element_type="f32"/>
			<output>
				<port id="0" precision="FP32"/>
			</output>
		</layer>
		<layer id="186" name="Range_112284311503" type="Const" version="opset1">
			<data offset="1187880" size="16" shape="2" element_type="i64"/>
			<output>
				<port id="0" precision="I64">
					<dim>2</dim>
				</port>
			</output>
		</layer>
		<layer id="187" name="2361236511716" type="Const" version="opset1">
			<data offset="1430048" size="4" shape="" element_type="f32"/>
			<output>
				<port id="0" precision="FP32"/>
			</output>
		</layer>
		<layer id="188" name="2362236612265" type="Const" version="opset1">
			<data offset="1430052" size="4" shape="" element_type="f32"/>
			<output>
				<port id="0" precision="FP32"/>
			</output>
		</layer>
		<layer id="189" name="2363236713063" type="Const" version="opset1">
			<data offset="1430048" size="4" shape="" element_type="f32"/>
			<output>
				<port id="0" precision="FP32"/>
			</output>
		</layer>
		<layer id="190" name="2364236812490" type="Const" version="opset1">
			<data offset="1430052" size="4" shape="" element_type="f32"/>
			<output>
				<port id="0" precision="FP32"/>
			</output>
		</layer>
		<layer id="191" name="1821182513351" type="Const" version="opset1">
			<data offset="1430056" size="4" shape="" element_type="f32"/>
			<output>
				<port id="0" precision="FP32"/>
			</output>
		</layer>
		<layer id="192" name="1822182612379" type="Const" version="opset1">
			<data offset="1430060" size="4" shape="" element_type="f32"/>
			<output>
				<port id="0" precision="FP32"/>
			</output>
		</layer>
		<layer id="193" name="1823182713549" type="Const" version="opset1">
			<data offset="1430056" size="4" shape="" element_type="f32"/>
			<output>
				<port id="0" precision="FP32"/>
			</output>
		</layer>
		<layer id="194" name="1824182812670" type="Const" version="opset1">
			<data offset="1430060" size="4" shape="" element_type="f32"/>
			<output>
				<port id="0" precision="FP32"/>
			</output>
		</layer>
		<layer id="195" name="2221222513126" type="Const" version="opset1">
			<data offset="1430064" size="576" shape="1,144,1,1" element_type="f32"/>
			<output>
				<port id="0" precision="FP32">
					<dim>1</dim>
					<dim>144</dim>
					<dim>1</dim>
					<dim>1</dim>
				</port>
			</output>
		</layer>
		<layer id="196" name="2222222611926" type="Const" version="opset1">
			<data offset="1430640" size="576" shape="1,144,1,1" element_type="f32"/>
			<output>
				<port id="0" precision="FP32">
					<dim>1</dim>
					<dim>144</dim>
					<dim>1</dim>
					<dim>1</dim>
				</port>
			</output>
		</layer>
		<layer id="197" name="2223222712139" type="Const" version="opset1">
			<data offset="1430064" size="576" shape="1,144,1,1" element_type="f32"/>
			<output>
				<port id="0" precision="FP32">
					<dim>1</dim>
					<dim>144</dim>
					<dim>1</dim>
					<dim>1</dim>
				</port>
			</output>
		</layer>
		<layer id="198" name="2224222812694" type="Const" version="opset1">
			<data offset="1430640" size="576" shape="1,144,1,1" element_type="f32"/>
			<output>
				<port id="0" precision="FP32">
					<dim>1</dim>
					<dim>144</dim>
					<dim>1</dim>
					<dim>1</dim>
				</port>
			</output>
		</layer>
		<layer id="199" name="2431243513327" type="Const" version="opset1">
			<data offset="1431216" size="4" shape="" element_type="f32"/>
			<output>
				<port id="0" precision="FP32"/>
			</output>
		</layer>
		<layer id="200" name="2432243611974" type="Const" version="opset1">
			<data offset="1431220" size="4" shape="" element_type="f32"/>
			<output>
				<port id="0" precision="FP32"/>
			</output>
		</layer>
		<layer id="201" name="2433243713213" type="Const" version="opset1">
			<data offset="1431216" size="4" shape="" element_type="f32"/>
			<output>
				<port id="0" precision="FP32"/>
			</output>
		</layer>
		<layer id="202" name="2434243813399" type="Const" version="opset1">
			<data offset="1431220" size="4" shape="" element_type="f32"/>
			<output>
				<port id="0" precision="FP32"/>
			</output>
		</layer>
		<layer id="203" name="1981198513294" type="Const" version="opset1">
			<data offset="1431224" size="576" shape="144,1,1,1" element_type="f32"/>
			<output>
				<port id="0" precision="FP32">
					<dim>144</dim>
					<dim>1</dim>
					<dim>1</dim>
					<dim>1</dim>
				</port>
			</output>
		</layer>
		<layer id="204" name="1982198612268" type="Const" version="opset1">
			<data offset="1431800" size="576" shape="144,1,1,1" element_type="f32"/>
			<output>
				<port id="0" precision="FP32">
					<dim>144</dim>
					<dim>1</dim>
					<dim>1</dim>
					<dim>1</dim>
				</port>
			</output>
		</layer>
		<layer id="205" name="1983198713603" type="Const" version="opset1">
			<data offset="1431224" size="576" shape="144,1,1,1" element_type="f32"/>
			<output>
				<port id="0" precision="FP32">
					<dim>144</dim>
					<dim>1</dim>
					<dim>1</dim>
					<dim>1</dim>
				</port>
			</output>
		</layer>
		<layer id="206" name="1984198813684" type="Const" version="opset1">
			<data offset="1431800" size="576" shape="144,1,1,1" element_type="f32"/>
			<output>
				<port id="0" precision="FP32">
					<dim>144</dim>
					<dim>1</dim>
					<dim>1</dim>
					<dim>1</dim>
				</port>
			</output>
		</layer>
		<layer id="207" name="onnx::Conv_48482013321" type="Const" version="opset1">
			<data offset="1432376" size="13824" shape="144,48,1,1" element_type="f16"/>
			<output>
				<port id="0" precision="FP16">
					<dim>144</dim>
					<dim>48</dim>
					<dim>1</dim>
					<dim>1</dim>
				</port>
			</output>
		</layer>
		<layer id="208" name="onnx::Conv_4848208140/restored_convert" type="Convert" version="opset1">
			<data destination_type="f32"/>
			<rt_info>
				<attribute name="decompression" version="0"/>
			</rt_info>
			<input>
				<port id="0">
					<dim>144</dim>
					<dim>48</dim>
					<dim>1</dim>
					<dim>1</dim>
				</port>
			</input>
			<output>
				<port id="1" precision="FP32" names="onnx::Conv_484">
					<dim>144</dim>
					<dim>48</dim>
					<dim>1</dim>
					<dim>1</dim>
				</port>
			</output>
		</layer>
		<layer id="209" name="/features/features.8/block/block.0/block.0.0/Conv/WithoutBiases/fq_weights_1" type="FakeQuantize" version="opset1">
			<data levels="255" auto_broadcast="numpy"/>
			<input>
				<port id="0">
					<dim>144</dim>
					<dim>48</dim>
					<dim>1</dim>
					<dim>1</dim>
				</port>
				<port id="1">
					<dim>144</dim>
					<dim>1</dim>
					<dim>1</dim>
					<dim>1</dim>
				</port>
				<port id="2">
					<dim>144</dim>
					<dim>1</dim>
					<dim>1</dim>
					<dim>1</dim>
				</port>
				<port id="3">
					<dim>144</dim>
					<dim>1</dim>
					<dim>1</dim>
					<dim>1</dim>
				</port>
				<port id="4">
					<dim>144</dim>
					<dim>1</dim>
					<dim>1</dim>
					<dim>1</dim>
				</port>
			</input>
			<output>
				<port id="5" precision="FP32">
					<dim>144</dim>
					<dim>48</dim>
					<dim>1</dim>
					<dim>1</dim>
				</port>
			</output>
		</layer>
		<layer id="210" name="3491349513246" type="Const" version="opset1">
			<data offset="1446200" size="4" shape="" element_type="f32"/>
			<output>
				<port id="0" precision="FP32"/>
			</output>
		</layer>
		<layer id="211" name="3492349611467" type="Const" version="opset1">
			<data offset="1446204" size="4" shape="" element_type="f32"/>
			<output>
				<port id="0" precision="FP32"/>
			</output>
		</layer>
		<layer id="212" name="3493349711449" type="Const" version="opset1">
			<data offset="1446200" size="4" shape="" element_type="f32"/>
			<output>
				<port id="0" precision="FP32"/>
			</output>
		</layer>
		<layer id="213" name="3494349812550" type="Const" version="opset1">
			<data offset="1446204" size="4" shape="" element_type="f32"/>
			<output>
				<port id="0" precision="FP32"/>
			</output>
		</layer>
		<layer id="214" name="2171217512520" type="Const" version="opset1">
			<data offset="1446208" size="4" shape="" element_type="f32"/>
			<output>
				<port id="0" precision="FP32"/>
			</output>
		</layer>
		<layer id="215" name="2172217612052" type="Const" version="opset1">
			<data offset="1446212" size="4" shape="" element_type="f32"/>
			<output>
				<port id="0" precision="FP32"/>
			</output>
		</layer>
		<layer id="216" name="2173217713360" type="Const" version="opset1">
			<data offset="1446208" size="4" shape="" element_type="f32"/>
			<output>
				<port id="0" precision="FP32"/>
			</output>
		</layer>
		<layer id="217" name="2174217811671" type="Const" version="opset1">
			<data offset="1446212" size="4" shape="" element_type="f32"/>
			<output>
				<port id="0" precision="FP32"/>
			</output>
		</layer>
		<layer id="218" name="2401240511902" type="Const" version="opset1">
			<data offset="1187936" size="4" shape="" element_type="f32"/>
			<output>
				<port id="0" precision="FP32"/>
			</output>
		</layer>
		<layer id="219" name="2402240613225" type="Const" version="opset1">
			<data offset="1446216" size="4" shape="" element_type="f32"/>
			<output>
				<port id="0" precision="FP32"/>
			</output>
		</layer>
		<layer id="220" name="2403240711821" type="Const" version="opset1">
			<data offset="1187936" size="4" shape="" element_type="f32"/>
			<output>
				<port id="0" precision="FP32"/>
			</output>
		</layer>
		<layer id="221" name="2404240813234" type="Const" version="opset1">
			<data offset="1446216" size="4" shape="" element_type="f32"/>
			<output>
				<port id="0" precision="FP32"/>
			</output>
		</layer>
		<layer id="222" name="1871187512457" type="Const" version="opset1">
			<data offset="1187936" size="4" shape="" element_type="f32"/>
			<output>
				<port id="0" precision="FP32"/>
			</output>
		</layer>
		<layer id="223" name="1872187613744" type="Const" version="opset1">
			<data offset="1446220" size="4" shape="" element_type="f32"/>
			<output>
				<port id="0" precision="FP32"/>
			</output>
		</layer>
		<layer id="224" name="1873187711356" type="Const" version="opset1">
			<data offset="1187936" size="4" shape="" element_type="f32"/>
			<output>
				<port id="0" precision="FP32"/>
			</output>
		</layer>
		<layer id="225" name="1874187812157" type="Const" version="opset1">
			<data offset="1446220" size="4" shape="" element_type="f32"/>
			<output>
				<port id="0" precision="FP32"/>
			</output>
		</layer>
		<layer id="226" name="3521352512229" type="Const" version="opset1">
			<data offset="1446224" size="4" shape="" element_type="f32"/>
			<output>
				<port id="0" precision="FP32"/>
			</output>
		</layer>
		<layer id="227" name="3522352612682" type="Const" version="opset1">
			<data offset="1446228" size="4" shape="" element_type="f32"/>
			<output>
				<port id="0" precision="FP32"/>
			</output>
		</layer>
		<layer id="228" name="3523352712853" type="Const" version="opset1">
			<data offset="1446224" size="4" shape="" element_type="f32"/>
			<output>
				<port id="0" precision="FP32"/>
			</output>
		</layer>
		<layer id="229" name="3524352813204" type="Const" version="opset1">
			<data offset="1446228" size="4" shape="" element_type="f32"/>
			<output>
				<port id="0" precision="FP32"/>
			</output>
		</layer>
		<layer id="230" name="Range_97679211383" type="Const" version="opset1">
			<data offset="1187880" size="16" shape="2" element_type="i64"/>
			<output>
				<port id="0" precision="I64">
					<dim>2</dim>
				</port>
			</output>
		</layer>
		<layer id="231" name="2601260511992" type="Const" version="opset1">
			<data offset="1446232" size="4" shape="" element_type="f32"/>
			<output>
				<port id="0" precision="FP32"/>
			</output>
		</layer>
		<layer id="232" name="2602260611203" type="Const" version="opset1">
			<data offset="1446236" size="4" shape="" element_type="f32"/>
			<output>
				<port id="0" precision="FP32"/>
			</output>
		</layer>
		<layer id="233" name="2603260713015" type="Const" version="opset1">
			<data offset="1446232" size="4" shape="" element_type="f32"/>
			<output>
				<port id="0" precision="FP32"/>
			</output>
		</layer>
		<layer id="234" name="2604260812958" type="Const" version="opset1">
			<data offset="1446236" size="4" shape="" element_type="f32"/>
			<output>
				<port id="0" precision="FP32"/>
			</output>
		</layer>
		<layer id="235" name="2321232511860" type="Const" version="opset1">
			<data offset="1446240" size="4" shape="" element_type="f32"/>
			<output>
				<port id="0" precision="FP32"/>
			</output>
		</layer>
		<layer id="236" name="2322232612748" type="Const" version="opset1">
			<data offset="1446244" size="4" shape="" element_type="f32"/>
			<output>
				<port id="0" precision="FP32"/>
			</output>
		</layer>
		<layer id="237" name="2323232712886" type="Const" version="opset1">
			<data offset="1446240" size="4" shape="" element_type="f32"/>
			<output>
				<port id="0" precision="FP32"/>
			</output>
		</layer>
		<layer id="238" name="2324232812364" type="Const" version="opset1">
			<data offset="1446244" size="4" shape="" element_type="f32"/>
			<output>
				<port id="0" precision="FP32"/>
			</output>
		</layer>
		<layer id="239" name="2701270511881" type="Const" version="opset1">
			<data offset="1446248" size="480" shape="1,120,1,1" element_type="f32"/>
			<output>
				<port id="0" precision="FP32">
					<dim>1</dim>
					<dim>120</dim>
					<dim>1</dim>
					<dim>1</dim>
				</port>
			</output>
		</layer>
		<layer id="240" name="2702270612079" type="Const" version="opset1">
			<data offset="1446728" size="480" shape="1,120,1,1" element_type="f32"/>
			<output>
				<port id="0" precision="FP32">
					<dim>1</dim>
					<dim>120</dim>
					<dim>1</dim>
					<dim>1</dim>
				</port>
			</output>
		</layer>
		<layer id="241" name="2703270713564" type="Const" version="opset1">
			<data offset="1446248" size="480" shape="1,120,1,1" element_type="f32"/>
			<output>
				<port id="0" precision="FP32">
					<dim>1</dim>
					<dim>120</dim>
					<dim>1</dim>
					<dim>1</dim>
				</port>
			</output>
		</layer>
		<layer id="242" name="2704270811521" type="Const" version="opset1">
			<data offset="1446728" size="480" shape="1,120,1,1" element_type="f32"/>
			<output>
				<port id="0" precision="FP32">
					<dim>1</dim>
					<dim>120</dim>
					<dim>1</dim>
					<dim>1</dim>
				</port>
			</output>
		</layer>
		<layer id="243" name="2261226512427" type="Const" version="opset1">
			<data offset="1447208" size="4" shape="" element_type="f32"/>
			<output>
				<port id="0" precision="FP32"/>
			</output>
		</layer>
		<layer id="244" name="2262226611410" type="Const" version="opset1">
			<data offset="1447212" size="4" shape="" element_type="f32"/>
			<output>
				<port id="0" precision="FP32"/>
			</output>
		</layer>
		<layer id="245" name="2263226712163" type="Const" version="opset1">
			<data offset="1447208" size="4" shape="" element_type="f32"/>
			<output>
				<port id="0" precision="FP32"/>
			</output>
		</layer>
		<layer id="246" name="2264226812214" type="Const" version="opset1">
			<data offset="1447212" size="4" shape="" element_type="f32"/>
			<output>
				<port id="0" precision="FP32"/>
			</output>
		</layer>
		<layer id="247" name="2111211512982" type="Const" version="opset1">
			<data offset="1447216" size="4" shape="" element_type="f32"/>
			<output>
				<port id="0" precision="FP32"/>
			</output>
		</layer>
		<layer id="248" name="2112211613138" type="Const" version="opset1">
			<data offset="1447220" size="4" shape="" element_type="f32"/>
			<output>
				<port id="0" precision="FP32"/>
			</output>
		</layer>
		<layer id="249" name="2113211711182" type="Const" version="opset1">
			<data offset="1447216" size="4" shape="" element_type="f32"/>
			<output>
				<port id="0" precision="FP32"/>
			</output>
		</layer>
		<layer id="250" name="2114211812466" type="Const" version="opset1">
			<data offset="1447220" size="4" shape="" element_type="f32"/>
			<output>
				<port id="0" precision="FP32"/>
			</output>
		</layer>
		<layer id="251" name="2681268512142" type="Const" version="opset1">
			<data offset="1447224" size="4" shape="" element_type="f32"/>
			<output>
				<port id="0" precision="FP32"/>
			</output>
		</layer>
		<layer id="252" name="2682268611896" type="Const" version="opset1">
			<data offset="1447228" size="4" shape="" element_type="f32"/>
			<output>
				<port id="0" precision="FP32"/>
			</output>
		</layer>
		<layer id="253" name="2683268711476" type="Const" version="opset1">
			<data offset="1447224" size="4" shape="" element_type="f32"/>
			<output>
				<port id="0" precision="FP32"/>
			</output>
		</layer>
		<layer id="254" name="2684268812802" type="Const" version="opset1">
			<data offset="1447228" size="4" shape="" element_type="f32"/>
			<output>
				<port id="0" precision="FP32"/>
			</output>
		</layer>
		<layer id="255" name="1931193512724" type="Const" version="opset1">
			<data offset="1447232" size="4" shape="" element_type="f32"/>
			<output>
				<port id="0" precision="FP32"/>
			</output>
		</layer>
		<layer id="256" name="1932193612331" type="Const" version="opset1">
			<data offset="1447236" size="4" shape="" element_type="f32"/>
			<output>
				<port id="0" precision="FP32"/>
			</output>
		</layer>
		<layer id="257" name="1933193711713" type="Const" version="opset1">
			<data offset="1447232" size="4" shape="" element_type="f32"/>
			<output>
				<port id="0" precision="FP32"/>
			</output>
		</layer>
		<layer id="258" name="1934193812304" type="Const" version="opset1">
			<data offset="1447236" size="4" shape="" element_type="f32"/>
			<output>
				<port id="0" precision="FP32"/>
			</output>
		</layer>
		<layer id="259" name="2801280511593" type="Const" version="opset1">
			<data offset="1187936" size="4" shape="" element_type="f32"/>
			<output>
				<port id="0" precision="FP32"/>
			</output>
		</layer>
		<layer id="260" name="2802280613675" type="Const" version="opset1">
			<data offset="1187940" size="4" shape="" element_type="f32"/>
			<output>
				<port id="0" precision="FP32"/>
			</output>
		</layer>
		<layer id="261" name="2803280711995" type="Const" version="opset1">
			<data offset="1187936" size="4" shape="" element_type="f32"/>
			<output>
				<port id="0" precision="FP32"/>
			</output>
		</layer>
		<layer id="262" name="2804280811983" type="Const" version="opset1">
			<data offset="1187940" size="4" shape="" element_type="f32"/>
			<output>
				<port id="0" precision="FP32"/>
			</output>
		</layer>
		<layer id="263" name="3421342513435" type="Const" version="opset1">
			<data offset="1187936" size="4" shape="" element_type="f32"/>
			<output>
				<port id="0" precision="FP32"/>
			</output>
		</layer>
		<layer id="264" name="3422342612598" type="Const" version="opset1">
			<data offset="1447240" size="4" shape="" element_type="f32"/>
			<output>
				<port id="0" precision="FP32"/>
			</output>
		</layer>
		<layer id="265" name="3423342711257" type="Const" version="opset1">
			<data offset="1187936" size="4" shape="" element_type="f32"/>
			<output>
				<port id="0" precision="FP32"/>
			</output>
		</layer>
		<layer id="266" name="3424342813252" type="Const" version="opset1">
			<data offset="1447240" size="4" shape="" element_type="f32"/>
			<output>
				<port id="0" precision="FP32"/>
			</output>
		</layer>
		<layer id="267" name="2531253511998" type="Const" version="opset1">
			<data offset="1447244" size="4" shape="" element_type="f32"/>
			<output>
				<port id="0" precision="FP32"/>
			</output>
		</layer>
		<layer id="268" name="2532253613096" type="Const" version="opset1">
			<data offset="1447248" size="4" shape="" element_type="f32"/>
			<output>
				<port id="0" precision="FP32"/>
			</output>
		</layer>
		<layer id="269" name="2533253713384" type="Const" version="opset1">
			<data offset="1447244" size="4" shape="" element_type="f32"/>
			<output>
				<port id="0" precision="FP32"/>
			</output>
		</layer>
		<layer id="270" name="2534253812937" type="Const" version="opset1">
			<data offset="1447248" size="4" shape="" element_type="f32"/>
			<output>
				<port id="0" precision="FP32"/>
			</output>
		</layer>
		<layer id="271" name="Range_82974012562" type="Const" version="opset1">
			<data offset="1187880" size="16" shape="2" element_type="i64"/>
			<output>
				<port id="0" precision="I64">
					<dim>2</dim>
				</port>
			</output>
		</layer>
		<layer id="272" name="2981298512430" type="Const" version="opset1">
			<data offset="1447252" size="4" shape="" element_type="f32"/>
			<output>
				<port id="0" precision="FP32"/>
			</output>
		</layer>
		<layer id="273" name="2982298613231" type="Const" version="opset1">
			<data offset="1447256" size="4" shape="" element_type="f32"/>
			<output>
				<port id="0" precision="FP32"/>
			</output>
		</layer>
		<layer id="274" name="2983298713153" type="Const" version="opset1">
			<data offset="1447252" size="4" shape="" element_type="f32"/>
			<output>
				<port id="0" precision="FP32"/>
			</output>
		</layer>
		<layer id="275" name="2984298812121" type="Const" version="opset1">
			<data offset="1447256" size="4" shape="" element_type="f32"/>
			<output>
				<port id="0" precision="FP32"/>
			</output>
		</layer>
		<layer id="276" name="2631263512394" type="Const" version="opset1">
			<data offset="1447260" size="4" shape="" element_type="f32"/>
			<output>
				<port id="0" precision="FP32"/>
			</output>
		</layer>
		<layer id="277" name="2632263611947" type="Const" version="opset1">
			<data offset="1447264" size="4" shape="" element_type="f32"/>
			<output>
				<port id="0" precision="FP32"/>
			</output>
		</layer>
		<layer id="278" name="2633263711236" type="Const" version="opset1">
			<data offset="1447260" size="4" shape="" element_type="f32"/>
			<output>
				<port id="0" precision="FP32"/>
			</output>
		</layer>
		<layer id="279" name="2634263811416" type="Const" version="opset1">
			<data offset="1447264" size="4" shape="" element_type="f32"/>
			<output>
				<port id="0" precision="FP32"/>
			</output>
		</layer>
		<layer id="280" name="3041304513087" type="Const" version="opset1">
			<data offset="1447268" size="960" shape="1,240,1,1" element_type="f32"/>
			<output>
				<port id="0" precision="FP32">
					<dim>1</dim>
					<dim>240</dim>
					<dim>1</dim>
					<dim>1</dim>
				</port>
			</output>
		</layer>
		<layer id="281" name="3042304612058" type="Const" version="opset1">
			<data offset="1448228" size="960" shape="1,240,1,1" element_type="f32"/>
			<output>
				<port id="0" precision="FP32">
					<dim>1</dim>
					<dim>240</dim>
					<dim>1</dim>
					<dim>1</dim>
				</port>
			</output>
		</layer>
		<layer id="282" name="3043304713630" type="Const" version="opset1">
			<data offset="1447268" size="960" shape="1,240,1,1" element_type="f32"/>
			<output>
				<port id="0" precision="FP32">
					<dim>1</dim>
					<dim>240</dim>
					<dim>1</dim>
					<dim>1</dim>
				</port>
			</output>
		</layer>
		<layer id="283" name="3044304812658" type="Const" version="opset1">
			<data offset="1448228" size="960" shape="1,240,1,1" element_type="f32"/>
			<output>
				<port id="0" precision="FP32">
					<dim>1</dim>
					<dim>240</dim>
					<dim>1</dim>
					<dim>1</dim>
				</port>
			</output>
		</layer>
		<layer id="284" name="2491249511533" type="Const" version="opset1">
			<data offset="1449188" size="4" shape="" element_type="f32"/>
			<output>
				<port id="0" precision="FP32"/>
			</output>
		</layer>
		<layer id="285" name="2492249612535" type="Const" version="opset1">
			<data offset="1449192" size="4" shape="" element_type="f32"/>
			<output>
				<port id="0" precision="FP32"/>
			</output>
		</layer>
		<layer id="286" name="2493249713177" type="Const" version="opset1">
			<data offset="1449188" size="4" shape="" element_type="f32"/>
			<output>
				<port id="0" precision="FP32"/>
			</output>
		</layer>
		<layer id="287" name="2494249812130" type="Const" version="opset1">
			<data offset="1449192" size="4" shape="" element_type="f32"/>
			<output>
				<port id="0" precision="FP32"/>
			</output>
		</layer>
		<layer id="288" name="3211321513528" type="Const" version="opset1">
			<data offset="1449196" size="960" shape="240,1,1,1" element_type="f32"/>
			<output>
				<port id="0" precision="FP32">
					<dim>240</dim>
					<dim>1</dim>
					<dim>1</dim>
					<dim>1</dim>
				</port>
			</output>
		</layer>
		<layer id="289" name="3212321612373" type="Const" version="opset1">
			<data offset="1450156" size="960" shape="240,1,1,1" element_type="f32"/>
			<output>
				<port id="0" precision="FP32">
					<dim>240</dim>
					<dim>1</dim>
					<dim>1</dim>
					<dim>1</dim>
				</port>
			</output>
		</layer>
		<layer id="290" name="3213321713525" type="Const" version="opset1">
			<data offset="1449196" size="960" shape="240,1,1,1" element_type="f32"/>
			<output>
				<port id="0" precision="FP32">
					<dim>240</dim>
					<dim>1</dim>
					<dim>1</dim>
					<dim>1</dim>
				</port>
			</output>
		</layer>
		<layer id="291" name="3214321812406" type="Const" version="opset1">
			<data offset="1450156" size="960" shape="240,1,1,1" element_type="f32"/>
			<output>
				<port id="0" precision="FP32">
					<dim>240</dim>
					<dim>1</dim>
					<dim>1</dim>
					<dim>1</dim>
				</port>
			</output>
		</layer>
		<layer id="292" name="onnx::Conv_46671711518" type="Const" version="opset1">
			<data offset="1451116" size="19200" shape="240,40,1,1" element_type="f16"/>
			<output>
				<port id="0" precision="FP16">
					<dim>240</dim>
					<dim>40</dim>
					<dim>1</dim>
					<dim>1</dim>
				</port>
			</output>
		</layer>
		<layer id="293" name="onnx::Conv_4667178106/restored_convert" type="Convert" version="opset1">
			<data destination_type="f32"/>
			<rt_info>
				<attribute name="decompression" version="0"/>
			</rt_info>
			<input>
				<port id="0">
					<dim>240</dim>
					<dim>40</dim>
					<dim>1</dim>
					<dim>1</dim>
				</port>
			</input>
			<output>
				<port id="1" precision="FP32" names="onnx::Conv_466">
					<dim>240</dim>
					<dim>40</dim>
					<dim>1</dim>
					<dim>1</dim>
				</port>
			</output>
		</layer>
		<layer id="294" name="/features/features.6/block/block.0/block.0.0/Conv/WithoutBiases/fq_weights_1" type="FakeQuantize" version="opset1">
			<data levels="255" auto_broadcast="numpy"/>
			<input>
				<port id="0">
					<dim>240</dim>
					<dim>40</dim>
					<dim>1</dim>
					<dim>1</dim>
				</port>
				<port id="1">
					<dim>240</dim>
					<dim>1</dim>
					<dim>1</dim>
					<dim>1</dim>
				</port>
				<port id="2">
					<dim>240</dim>
					<dim>1</dim>
					<dim>1</dim>
					<dim>1</dim>
				</port>
				<port id="3">
					<dim>240</dim>
					<dim>1</dim>
					<dim>1</dim>
					<dim>1</dim>
				</port>
				<port id="4">
					<dim>240</dim>
					<dim>1</dim>
					<dim>1</dim>
					<dim>1</dim>
				</port>
			</input>
			<output>
				<port id="5" precision="FP32">
					<dim>240</dim>
					<dim>40</dim>
					<dim>1</dim>
					<dim>1</dim>
				</port>
			</output>
		</layer>
		<layer id="295" name="2691269513207" type="Const" version="opset1">
			<data offset="1470316" size="4" shape="" element_type="f32"/>
			<output>
				<port id="0" precision="FP32"/>
			</output>
		</layer>
		<layer id="296" name="2692269613669" type="Const" version="opset1">
			<data offset="1470320" size="4" shape="" element_type="f32"/>
			<output>
				<port id="0" precision="FP32"/>
			</output>
		</layer>
		<layer id="297" name="2693269712970" type="Const" version="opset1">
			<data offset="1470316" size="4" shape="" element_type="f32"/>
			<output>
				<port id="0" precision="FP32"/>
			</output>
		</layer>
		<layer id="298" name="2694269812946" type="Const" version="opset1">
			<data offset="1470320" size="4" shape="" element_type="f32"/>
			<output>
				<port id="0" precision="FP32"/>
			</output>
		</layer>
		<layer id="299" name="1761176513507" type="Const" version="opset1">
			<data offset="1470324" size="4" shape="" element_type="f32"/>
			<output>
				<port id="0" precision="FP32"/>
			</output>
		</layer>
		<layer id="300" name="1762176612250" type="Const" version="opset1">
			<data offset="1470328" size="4" shape="" element_type="f32"/>
			<output>
				<port id="0" precision="FP32"/>
			</output>
		</layer>
		<layer id="301" name="1763176711488" type="Const" version="opset1">
			<data offset="1470324" size="4" shape="" element_type="f32"/>
			<output>
				<port id="0" precision="FP32"/>
			</output>
		</layer>
		<layer id="302" name="1764176811158" type="Const" version="opset1">
			<data offset="1470328" size="4" shape="" element_type="f32"/>
			<output>
				<port id="0" precision="FP32"/>
			</output>
		</layer>
		<layer id="303" name="3381338513441" type="Const" version="opset1">
			<data offset="1470332" size="4" shape="" element_type="f32"/>
			<output>
				<port id="0" precision="FP32"/>
			</output>
		</layer>
		<layer id="304" name="3382338613696" type="Const" version="opset1">
			<data offset="1470336" size="4" shape="" element_type="f32"/>
			<output>
				<port id="0" precision="FP32"/>
			</output>
		</layer>
		<layer id="305" name="3383338713195" type="Const" version="opset1">
			<data offset="1470332" size="4" shape="" element_type="f32"/>
			<output>
				<port id="0" precision="FP32"/>
			</output>
		</layer>
		<layer id="306" name="3384338811725" type="Const" version="opset1">
			<data offset="1470336" size="4" shape="" element_type="f32"/>
			<output>
				<port id="0" precision="FP32"/>
			</output>
		</layer>
		<layer id="307" name="3581358512856" type="Const" version="opset1">
			<data offset="1187936" size="4" shape="" element_type="f32"/>
			<output>
				<port id="0" precision="FP32"/>
			</output>
		</layer>
		<layer id="308" name="3582358613558" type="Const" version="opset1">
			<data offset="1187940" size="4" shape="" element_type="f32"/>
			<output>
				<port id="0" precision="FP32"/>
			</output>
		</layer>
		<layer id="309" name="3583358712481" type="Const" version="opset1">
			<data offset="1187936" size="4" shape="" element_type="f32"/>
			<output>
				<port id="0" precision="FP32"/>
			</output>
		</layer>
		<layer id="310" name="3584358811614" type="Const" version="opset1">
			<data offset="1187940" size="4" shape="" element_type="f32"/>
			<output>
				<port id="0" precision="FP32"/>
			</output>
		</layer>
		<layer id="311" name="2511251512487" type="Const" version="opset1">
			<data offset="1187936" size="4" shape="" element_type="f32"/>
			<output>
				<port id="0" precision="FP32"/>
			</output>
		</layer>
		<layer id="312" name="2512251611707" type="Const" version="opset1">
			<data offset="1470340" size="4" shape="" element_type="f32"/>
			<output>
				<port id="0" precision="FP32"/>
			</output>
		</layer>
		<layer id="313" name="2513251712553" type="Const" version="opset1">
			<data offset="1187936" size="4" shape="" element_type="f32"/>
			<output>
				<port id="0" precision="FP32"/>
			</output>
		</layer>
		<layer id="314" name="2514251812073" type="Const" version="opset1">
			<data offset="1470340" size="4" shape="" element_type="f32"/>
			<output>
				<port id="0" precision="FP32"/>
			</output>
		</layer>
		<layer id="315" name="2131213513432" type="Const" version="opset1">
			<data offset="1470344" size="4" shape="" element_type="f32"/>
			<output>
				<port id="0" precision="FP32"/>
			</output>
		</layer>
		<layer id="316" name="2132213612355" type="Const" version="opset1">
			<data offset="1470348" size="4" shape="" element_type="f32"/>
			<output>
				<port id="0" precision="FP32"/>
			</output>
		</layer>
		<layer id="317" name="2133213712727" type="Const" version="opset1">
			<data offset="1470344" size="4" shape="" element_type="f32"/>
			<output>
				<port id="0" precision="FP32"/>
			</output>
		</layer>
		<layer id="318" name="2134213811758" type="Const" version="opset1">
			<data offset="1470348" size="4" shape="" element_type="f32"/>
			<output>
				<port id="0" precision="FP32"/>
			</output>
		</layer>
		<layer id="319" name="Range_68268813048" type="Const" version="opset1">
			<data offset="1187880" size="16" shape="2" element_type="i64"/>
			<output>
				<port id="0" precision="I64">
					<dim>2</dim>
				</port>
			</output>
		</layer>
		<layer id="320" name="2391239511683" type="Const" version="opset1">
			<data offset="1470352" size="4" shape="" element_type="f32"/>
			<output>
				<port id="0" precision="FP32"/>
			</output>
		</layer>
		<layer id="321" name="2392239612805" type="Const" version="opset1">
			<data offset="1470356" size="4" shape="" element_type="f32"/>
			<output>
				<port id="0" precision="FP32"/>
			</output>
		</layer>
		<layer id="322" name="2393239712166" type="Const" version="opset1">
			<data offset="1470352" size="4" shape="" element_type="f32"/>
			<output>
				<port id="0" precision="FP32"/>
			</output>
		</layer>
		<layer id="323" name="2394239811212" type="Const" version="opset1">
			<data offset="1470356" size="4" shape="" element_type="f32"/>
			<output>
				<port id="0" precision="FP32"/>
			</output>
		</layer>
		<layer id="324" name="1991199511281" type="Const" version="opset1">
			<data offset="1470360" size="4" shape="" element_type="f32"/>
			<output>
				<port id="0" precision="FP32"/>
			</output>
		</layer>
		<layer id="325" name="1992199611959" type="Const" version="opset1">
			<data offset="1470364" size="4" shape="" element_type="f32"/>
			<output>
				<port id="0" precision="FP32"/>
			</output>
		</layer>
		<layer id="326" name="1993199711764" type="Const" version="opset1">
			<data offset="1470360" size="4" shape="" element_type="f32"/>
			<output>
				<port id="0" precision="FP32"/>
			</output>
		</layer>
		<layer id="327" name="1994199811590" type="Const" version="opset1">
			<data offset="1470364" size="4" shape="" element_type="f32"/>
			<output>
				<port id="0" precision="FP32"/>
			</output>
		</layer>
		<layer id="328" name="1781178512616" type="Const" version="opset1">
			<data offset="1470368" size="960" shape="1,240,1,1" element_type="f32"/>
			<output>
				<port id="0" precision="FP32">
					<dim>1</dim>
					<dim>240</dim>
					<dim>1</dim>
					<dim>1</dim>
				</port>
			</output>
		</layer>
		<layer id="329" name="1782178612034" type="Const" version="opset1">
			<data offset="1471328" size="960" shape="1,240,1,1" element_type="f32"/>
			<output>
				<port id="0" precision="FP32">
					<dim>1</dim>
					<dim>240</dim>
					<dim>1</dim>
					<dim>1</dim>
				</port>
			</output>
		</layer>
		<layer id="330" name="1783178712814" type="Const" version="opset1">
			<data offset="1470368" size="960" shape="1,240,1,1" element_type="f32"/>
			<output>
				<port id="0" precision="FP32">
					<dim>1</dim>
					<dim>240</dim>
					<dim>1</dim>
					<dim>1</dim>
				</port>
			</output>
		</layer>
		<layer id="331" name="1784178813165" type="Const" version="opset1">
			<data offset="1471328" size="960" shape="1,240,1,1" element_type="f32"/>
			<output>
				<port id="0" precision="FP32">
					<dim>1</dim>
					<dim>240</dim>
					<dim>1</dim>
					<dim>1</dim>
				</port>
			</output>
		</layer>
		<layer id="332" name="3361336512793" type="Const" version="opset1">
			<data offset="1472288" size="4" shape="" element_type="f32"/>
			<output>
				<port id="0" precision="FP32"/>
			</output>
		</layer>
		<layer id="333" name="3362336611572" type="Const" version="opset1">
			<data offset="1472292" size="4" shape="" element_type="f32"/>
			<output>
				<port id="0" precision="FP32"/>
			</output>
		</layer>
		<layer id="334" name="3363336711362" type="Const" version="opset1">
			<data offset="1472288" size="4" shape="" element_type="f32"/>
			<output>
				<port id="0" precision="FP32"/>
			</output>
		</layer>
		<layer id="335" name="3364336811953" type="Const" version="opset1">
			<data offset="1472292" size="4" shape="" element_type="f32"/>
			<output>
				<port id="0" precision="FP32"/>
			</output>
		</layer>
		<layer id="336" name="3551355513288" type="Const" version="opset1">
			<data offset="1472296" size="960" shape="240,1,1,1" element_type="f32"/>
			<output>
				<port id="0" precision="FP32">
					<dim>240</dim>
					<dim>1</dim>
					<dim>1</dim>
					<dim>1</dim>
				</port>
			</output>
		</layer>
		<layer id="337" name="3552355612454" type="Const" version="opset1">
			<data offset="1473256" size="960" shape="240,1,1,1" element_type="f32"/>
			<output>
				<port id="0" precision="FP32">
					<dim>240</dim>
					<dim>1</dim>
					<dim>1</dim>
					<dim>1</dim>
				</port>
			</output>
		</layer>
		<layer id="338" name="3553355711977" type="Const" version="opset1">
			<data offset="1472296" size="960" shape="240,1,1,1" element_type="f32"/>
			<output>
				<port id="0" precision="FP32">
					<dim>240</dim>
					<dim>1</dim>
					<dim>1</dim>
					<dim>1</dim>
				</port>
			</output>
		</layer>
		<layer id="339" name="3554355811845" type="Const" version="opset1">
			<data offset="1473256" size="960" shape="240,1,1,1" element_type="f32"/>
			<output>
				<port id="0" precision="FP32">
					<dim>240</dim>
					<dim>1</dim>
					<dim>1</dim>
					<dim>1</dim>
				</port>
			</output>
		</layer>
		<layer id="340" name="onnx::Conv_45766513411" type="Const" version="opset1">
			<data offset="1474216" size="19200" shape="240,40,1,1" element_type="f16"/>
			<output>
				<port id="0" precision="FP16">
					<dim>240</dim>
					<dim>40</dim>
					<dim>1</dim>
					<dim>1</dim>
				</port>
			</output>
		</layer>
		<layer id="341" name="onnx::Conv_4576658089/restored_convert" type="Convert" version="opset1">
			<data destination_type="f32"/>
			<rt_info>
				<attribute name="decompression" version="0"/>
			</rt_info>
			<input>
				<port id="0">
					<dim>240</dim>
					<dim>40</dim>
					<dim>1</dim>
					<dim>1</dim>
				</port>
			</input>
			<output>
				<port id="1" precision="FP32" names="onnx::Conv_457">
					<dim>240</dim>
					<dim>40</dim>
					<dim>1</dim>
					<dim>1</dim>
				</port>
			</output>
		</layer>
		<layer id="342" name="/features/features.5/block/block.0/block.0.0/Conv/WithoutBiases/fq_weights_1" type="FakeQuantize" version="opset1">
			<data levels="255" auto_broadcast="numpy"/>
			<input>
				<port id="0">
					<dim>240</dim>
					<dim>40</dim>
					<dim>1</dim>
					<dim>1</dim>
				</port>
				<port id="1">
					<dim>240</dim>
					<dim>1</dim>
					<dim>1</dim>
					<dim>1</dim>
				</port>
				<port id="2">
					<dim>240</dim>
					<dim>1</dim>
					<dim>1</dim>
					<dim>1</dim>
				</port>
				<port id="3">
					<dim>240</dim>
					<dim>1</dim>
					<dim>1</dim>
					<dim>1</dim>
				</port>
				<port id="4">
					<dim>240</dim>
					<dim>1</dim>
					<dim>1</dim>
					<dim>1</dim>
				</port>
			</input>
			<output>
				<port id="5" precision="FP32">
					<dim>240</dim>
					<dim>40</dim>
					<dim>1</dim>
					<dim>1</dim>
				</port>
			</output>
		</layer>
		<layer id="343" name="1771177513459" type="Const" version="opset1">
			<data offset="1493416" size="4" shape="" element_type="f32"/>
			<output>
				<port id="0" precision="FP32"/>
			</output>
		</layer>
		<layer id="344" name="1772177612751" type="Const" version="opset1">
			<data offset="1493420" size="4" shape="" element_type="f32"/>
			<output>
				<port id="0" precision="FP32"/>
			</output>
		</layer>
		<layer id="345" name="1773177713390" type="Const" version="opset1">
			<data offset="1493416" size="4" shape="" element_type="f32"/>
			<output>
				<port id="0" precision="FP32"/>
			</output>
		</layer>
		<layer id="346" name="1774177813726" type="Const" version="opset1">
			<data offset="1493420" size="4" shape="" element_type="f32"/>
			<output>
				<port id="0" precision="FP32"/>
			</output>
		</layer>
		<layer id="347" name="2611261511857" type="Const" version="opset1">
			<data offset="1493424" size="4" shape="" element_type="f32"/>
			<output>
				<port id="0" precision="FP32"/>
			</output>
		</layer>
		<layer id="348" name="2612261612565" type="Const" version="opset1">
			<data offset="1493428" size="4" shape="" element_type="f32"/>
			<output>
				<port id="0" precision="FP32"/>
			</output>
		</layer>
		<layer id="349" name="2613261711500" type="Const" version="opset1">
			<data offset="1493424" size="4" shape="" element_type="f32"/>
			<output>
				<port id="0" precision="FP32"/>
			</output>
		</layer>
		<layer id="350" name="2614261811464" type="Const" version="opset1">
			<data offset="1493428" size="4" shape="" element_type="f32"/>
			<output>
				<port id="0" precision="FP32"/>
			</output>
		</layer>
		<layer id="351" name="2191219513708" type="Const" version="opset1">
			<data offset="1187936" size="4" shape="" element_type="f32"/>
			<output>
				<port id="0" precision="FP32"/>
			</output>
		</layer>
		<layer id="352" name="2192219613111" type="Const" version="opset1">
			<data offset="1493432" size="4" shape="" element_type="f32"/>
			<output>
				<port id="0" precision="FP32"/>
			</output>
		</layer>
		<layer id="353" name="2193219711347" type="Const" version="opset1">
			<data offset="1187936" size="4" shape="" element_type="f32"/>
			<output>
				<port id="0" precision="FP32"/>
			</output>
		</layer>
		<layer id="354" name="2194219813156" type="Const" version="opset1">
			<data offset="1493432" size="4" shape="" element_type="f32"/>
			<output>
				<port id="0" precision="FP32"/>
			</output>
		</layer>
		<layer id="355" name="2091209511680" type="Const" version="opset1">
			<data offset="1187936" size="4" shape="" element_type="f32"/>
			<output>
				<port id="0" precision="FP32"/>
			</output>
		</layer>
		<layer id="356" name="2092209613147" type="Const" version="opset1">
			<data offset="1493436" size="4" shape="" element_type="f32"/>
			<output>
				<port id="0" precision="FP32"/>
			</output>
		</layer>
		<layer id="357" name="2093209713408" type="Const" version="opset1">
			<data offset="1187936" size="4" shape="" element_type="f32"/>
			<output>
				<port id="0" precision="FP32"/>
			</output>
		</layer>
		<layer id="358" name="2094209812985" type="Const" version="opset1">
			<data offset="1493436" size="4" shape="" element_type="f32"/>
			<output>
				<port id="0" precision="FP32"/>
			</output>
		</layer>
		<layer id="359" name="3141314512796" type="Const" version="opset1">
			<data offset="1493440" size="4" shape="" element_type="f32"/>
			<output>
				<port id="0" precision="FP32"/>
			</output>
		</layer>
		<layer id="360" name="3142314612433" type="Const" version="opset1">
			<data offset="1493444" size="4" shape="" element_type="f32"/>
			<output>
				<port id="0" precision="FP32"/>
			</output>
		</layer>
		<layer id="361" name="3143314712826" type="Const" version="opset1">
			<data offset="1493440" size="4" shape="" element_type="f32"/>
			<output>
				<port id="0" precision="FP32"/>
			</output>
		</layer>
		<layer id="362" name="3144314811491" type="Const" version="opset1">
			<data offset="1493444" size="4" shape="" element_type="f32"/>
			<output>
				<port id="0" precision="FP32"/>
			</output>
		</layer>
		<layer id="363" name="Range_53664011968" type="Const" version="opset1">
			<data offset="1187880" size="16" shape="2" element_type="i64"/>
			<output>
				<port id="0" precision="I64">
					<dim>2</dim>
				</port>
			</output>
		</layer>
		<layer id="364" name="2421242512178" type="Const" version="opset1">
			<data offset="1493448" size="4" shape="" element_type="f32"/>
			<output>
				<port id="0" precision="FP32"/>
			</output>
		</layer>
		<layer id="365" name="2422242613258" type="Const" version="opset1">
			<data offset="1493452" size="4" shape="" element_type="f32"/>
			<output>
				<port id="0" precision="FP32"/>
			</output>
		</layer>
		<layer id="366" name="2423242713753" type="Const" version="opset1">
			<data offset="1493448" size="4" shape="" element_type="f32"/>
			<output>
				<port id="0" precision="FP32"/>
			</output>
		</layer>
		<layer id="367" name="2424242813438" type="Const" version="opset1">
			<data offset="1493452" size="4" shape="" element_type="f32"/>
			<output>
				<port id="0" precision="FP32"/>
			</output>
		</layer>
		<layer id="368" name="2761276512382" type="Const" version="opset1">
			<data offset="1493456" size="4" shape="" element_type="f32"/>
			<output>
				<port id="0" precision="FP32"/>
			</output>
		</layer>
		<layer id="369" name="2762276613516" type="Const" version="opset1">
			<data offset="1493460" size="4" shape="" element_type="f32"/>
			<output>
				<port id="0" precision="FP32"/>
			</output>
		</layer>
		<layer id="370" name="2763276712991" type="Const" version="opset1">
			<data offset="1493456" size="4" shape="" element_type="f32"/>
			<output>
				<port id="0" precision="FP32"/>
			</output>
		</layer>
		<layer id="371" name="2764276813219" type="Const" version="opset1">
			<data offset="1493460" size="4" shape="" element_type="f32"/>
			<output>
				<port id="0" precision="FP32"/>
			</output>
		</layer>
		<layer id="372" name="2821282511422" type="Const" version="opset1">
			<data offset="1493464" size="384" shape="1,96,1,1" element_type="f32"/>
			<output>
				<port id="0" precision="FP32">
					<dim>1</dim>
					<dim>96</dim>
					<dim>1</dim>
					<dim>1</dim>
				</port>
			</output>
		</layer>
		<layer id="373" name="2822282612385" type="Const" version="opset1">
			<data offset="1493848" size="384" shape="1,96,1,1" element_type="f32"/>
			<output>
				<port id="0" precision="FP32">
					<dim>1</dim>
					<dim>96</dim>
					<dim>1</dim>
					<dim>1</dim>
				</port>
			</output>
		</layer>
		<layer id="374" name="2823282712811" type="Const" version="opset1">
			<data offset="1493464" size="384" shape="1,96,1,1" element_type="f32"/>
			<output>
				<port id="0" precision="FP32">
					<dim>1</dim>
					<dim>96</dim>
					<dim>1</dim>
					<dim>1</dim>
				</port>
			</output>
		</layer>
		<layer id="375" name="2824282813291" type="Const" version="opset1">
			<data offset="1493848" size="384" shape="1,96,1,1" element_type="f32"/>
			<output>
				<port id="0" precision="FP32">
					<dim>1</dim>
					<dim>96</dim>
					<dim>1</dim>
					<dim>1</dim>
				</port>
			</output>
		</layer>
		<layer id="376" name="2371237512511" type="Const" version="opset1">
			<data offset="1494232" size="4" shape="" element_type="f32"/>
			<output>
				<port id="0" precision="FP32"/>
			</output>
		</layer>
		<layer id="377" name="2372237611263" type="Const" version="opset1">
			<data offset="1494236" size="4" shape="" element_type="f32"/>
			<output>
				<port id="0" precision="FP32"/>
			</output>
		</layer>
		<layer id="378" name="2373237713672" type="Const" version="opset1">
			<data offset="1494232" size="4" shape="" element_type="f32"/>
			<output>
				<port id="0" precision="FP32"/>
			</output>
		</layer>
		<layer id="379" name="2374237813741" type="Const" version="opset1">
			<data offset="1494236" size="4" shape="" element_type="f32"/>
			<output>
				<port id="0" precision="FP32"/>
			</output>
		</layer>
		<layer id="380" name="3341334512133" type="Const" version="opset1">
			<data offset="1494240" size="4" shape="" element_type="f32"/>
			<output>
				<port id="0" precision="FP32"/>
			</output>
		</layer>
		<layer id="381" name="3342334613729" type="Const" version="opset1">
			<data offset="1494244" size="4" shape="" element_type="f32"/>
			<output>
				<port id="0" precision="FP32"/>
			</output>
		</layer>
		<layer id="382" name="3343334713492" type="Const" version="opset1">
			<data offset="1494240" size="4" shape="" element_type="f32"/>
			<output>
				<port id="0" precision="FP32"/>
			</output>
		</layer>
		<layer id="383" name="3344334811686" type="Const" version="opset1">
			<data offset="1494244" size="4" shape="" element_type="f32"/>
			<output>
				<port id="0" precision="FP32"/>
			</output>
		</layer>
		<layer id="384" name="3181318512124" type="Const" version="opset1">
			<data offset="1494248" size="4" shape="" element_type="f32"/>
			<output>
				<port id="0" precision="FP32"/>
			</output>
		</layer>
		<layer id="385" name="3182318613513" type="Const" version="opset1">
			<data offset="1494252" size="4" shape="" element_type="f32"/>
			<output>
				<port id="0" precision="FP32"/>
			</output>
		</layer>
		<layer id="386" name="3183318712439" type="Const" version="opset1">
			<data offset="1494248" size="4" shape="" element_type="f32"/>
			<output>
				<port id="0" precision="FP32"/>
			</output>
		</layer>
		<layer id="387" name="3184318811563" type="Const" version="opset1">
			<data offset="1494252" size="4" shape="" element_type="f32"/>
			<output>
				<port id="0" precision="FP32"/>
			</output>
		</layer>
		<layer id="388" name="3261326511179" type="Const" version="opset1">
			<data offset="1187936" size="4" shape="" element_type="f32"/>
			<output>
				<port id="0" precision="FP32"/>
			</output>
		</layer>
		<layer id="389" name="3262326611842" type="Const" version="opset1">
			<data offset="1494256" size="4" shape="" element_type="f32"/>
			<output>
				<port id="0" precision="FP32"/>
			</output>
		</layer>
		<layer id="390" name="3263326711827" type="Const" version="opset1">
			<data offset="1187936" size="4" shape="" element_type="f32"/>
			<output>
				<port id="0" precision="FP32"/>
			</output>
		</layer>
		<layer id="391" name="3264326812733" type="Const" version="opset1">
			<data offset="1494256" size="4" shape="" element_type="f32"/>
			<output>
				<port id="0" precision="FP32"/>
			</output>
		</layer>
		<layer id="392" name="3081308511617" type="Const" version="opset1">
			<data offset="1494260" size="352" shape="1,88,1,1" element_type="f32"/>
			<output>
				<port id="0" precision="FP32">
					<dim>1</dim>
					<dim>88</dim>
					<dim>1</dim>
					<dim>1</dim>
				</port>
			</output>
		</layer>
		<layer id="393" name="3082308611419" type="Const" version="opset1">
			<data offset="1494612" size="352" shape="1,88,1,1" element_type="f32"/>
			<output>
				<port id="0" precision="FP32">
					<dim>1</dim>
					<dim>88</dim>
					<dim>1</dim>
					<dim>1</dim>
				</port>
			</output>
		</layer>
		<layer id="394" name="3083308712988" type="Const" version="opset1">
			<data offset="1494260" size="352" shape="1,88,1,1" element_type="f32"/>
			<output>
				<port id="0" precision="FP32">
					<dim>1</dim>
					<dim>88</dim>
					<dim>1</dim>
					<dim>1</dim>
				</port>
			</output>
		</layer>
		<layer id="395" name="3084308813222" type="Const" version="opset1">
			<data offset="1494612" size="352" shape="1,88,1,1" element_type="f32"/>
			<output>
				<port id="0" precision="FP32">
					<dim>1</dim>
					<dim>88</dim>
					<dim>1</dim>
					<dim>1</dim>
				</port>
			</output>
		</layer>
		<layer id="396" name="1921192511647" type="Const" version="opset1">
			<data offset="1494964" size="352" shape="88,1,1,1" element_type="f32"/>
			<output>
				<port id="0" precision="FP32">
					<dim>88</dim>
					<dim>1</dim>
					<dim>1</dim>
					<dim>1</dim>
				</port>
			</output>
		</layer>
		<layer id="397" name="1922192612604" type="Const" version="opset1">
			<data offset="1495316" size="352" shape="88,1,1,1" element_type="f32"/>
			<output>
				<port id="0" precision="FP32">
					<dim>88</dim>
					<dim>1</dim>
					<dim>1</dim>
					<dim>1</dim>
				</port>
			</output>
		</layer>
		<layer id="398" name="1923192712016" type="Const" version="opset1">
			<data offset="1494964" size="352" shape="88,1,1,1" element_type="f32"/>
			<output>
				<port id="0" precision="FP32">
					<dim>88</dim>
					<dim>1</dim>
					<dim>1</dim>
					<dim>1</dim>
				</port>
			</output>
		</layer>
		<layer id="399" name="1924192812895" type="Const" version="opset1">
			<data offset="1495316" size="352" shape="88,1,1,1" element_type="f32"/>
			<output>
				<port id="0" precision="FP32">
					<dim>88</dim>
					<dim>1</dim>
					<dim>1</dim>
					<dim>1</dim>
				</port>
			</output>
		</layer>
		<layer id="400" name="onnx::Conv_43959611980" type="Const" version="opset1">
			<data offset="1495668" size="4224" shape="88,24,1,1" element_type="f16"/>
			<output>
				<port id="0" precision="FP16">
					<dim>88</dim>
					<dim>24</dim>
					<dim>1</dim>
					<dim>1</dim>
				</port>
			</output>
		</layer>
		<layer id="401" name="onnx::Conv_4395968066/restored_convert" type="Convert" version="opset1">
			<data destination_type="f32"/>
			<rt_info>
				<attribute name="decompression" version="0"/>
			</rt_info>
			<input>
				<port id="0">
					<dim>88</dim>
					<dim>24</dim>
					<dim>1</dim>
					<dim>1</dim>
				</port>
			</input>
			<output>
				<port id="1" precision="FP32" names="onnx::Conv_439">
					<dim>88</dim>
					<dim>24</dim>
					<dim>1</dim>
					<dim>1</dim>
				</port>
			</output>
		</layer>
		<layer id="402" name="/features/features.3/block/block.0/block.0.0/Conv/WithoutBiases/fq_weights_1" type="FakeQuantize" version="opset1">
			<data levels="255" auto_broadcast="numpy"/>
			<input>
				<port id="0">
					<dim>88</dim>
					<dim>24</dim>
					<dim>1</dim>
					<dim>1</dim>
				</port>
				<port id="1">
					<dim>88</dim>
					<dim>1</dim>
					<dim>1</dim>
					<dim>1</dim>
				</port>
				<port id="2">
					<dim>88</dim>
					<dim>1</dim>
					<dim>1</dim>
					<dim>1</dim>
				</port>
				<port id="3">
					<dim>88</dim>
					<dim>1</dim>
					<dim>1</dim>
					<dim>1</dim>
				</port>
				<port id="4">
					<dim>88</dim>
					<dim>1</dim>
					<dim>1</dim>
					<dim>1</dim>
				</port>
			</input>
			<output>
				<port id="5" precision="FP32">
					<dim>88</dim>
					<dim>24</dim>
					<dim>1</dim>
					<dim>1</dim>
				</port>
			</output>
		</layer>
		<layer id="403" name="3191319512574" type="Const" version="opset1">
			<data offset="1499892" size="4" shape="" element_type="f32"/>
			<output>
				<port id="0" precision="FP32"/>
			</output>
		</layer>
		<layer id="404" name="3192319612916" type="Const" version="opset1">
			<data offset="1499896" size="4" shape="" element_type="f32"/>
			<output>
				<port id="0" precision="FP32"/>
			</output>
		</layer>
		<layer id="405" name="3193319712922" type="Const" version="opset1">
			<data offset="1499892" size="4" shape="" element_type="f32"/>
			<output>
				<port id="0" precision="FP32"/>
			</output>
		</layer>
		<layer id="406" name="3194319812187" type="Const" version="opset1">
			<data offset="1499896" size="4" shape="" element_type="f32"/>
			<output>
				<port id="0" precision="FP32"/>
			</output>
		</layer>
		<layer id="407" name="3241324512955" type="Const" version="opset1">
			<data offset="1187936" size="4" shape="" element_type="f32"/>
			<output>
				<port id="0" precision="FP32"/>
			</output>
		</layer>
		<layer id="408" name="3242324612799" type="Const" version="opset1">
			<data offset="1499900" size="4" shape="" element_type="f32"/>
			<output>
				<port id="0" precision="FP32"/>
			</output>
		</layer>
		<layer id="409" name="3243324713045" type="Const" version="opset1">
			<data offset="1187936" size="4" shape="" element_type="f32"/>
			<output>
				<port id="0" precision="FP32"/>
			</output>
		</layer>
		<layer id="410" name="3244324813312" type="Const" version="opset1">
			<data offset="1499900" size="4" shape="" element_type="f32"/>
			<output>
				<port id="0" precision="FP32"/>
			</output>
		</layer>
		<layer id="411" name="2881288512361" type="Const" version="opset1">
			<data offset="1499904" size="288" shape="1,72,1,1" element_type="f32"/>
			<output>
				<port id="0" precision="FP32">
					<dim>1</dim>
					<dim>72</dim>
					<dim>1</dim>
					<dim>1</dim>
				</port>
			</output>
		</layer>
		<layer id="412" name="2882288612289" type="Const" version="opset1">
			<data offset="1500192" size="288" shape="1,72,1,1" element_type="f32"/>
			<output>
				<port id="0" precision="FP32">
					<dim>1</dim>
					<dim>72</dim>
					<dim>1</dim>
					<dim>1</dim>
				</port>
			</output>
		</layer>
		<layer id="413" name="2883288712820" type="Const" version="opset1">
			<data offset="1499904" size="288" shape="1,72,1,1" element_type="f32"/>
			<output>
				<port id="0" precision="FP32">
					<dim>1</dim>
					<dim>72</dim>
					<dim>1</dim>
					<dim>1</dim>
				</port>
			</output>
		</layer>
		<layer id="414" name="2884288812082" type="Const" version="opset1">
			<data offset="1500192" size="288" shape="1,72,1,1" element_type="f32"/>
			<output>
				<port id="0" precision="FP32">
					<dim>1</dim>
					<dim>72</dim>
					<dim>1</dim>
					<dim>1</dim>
				</port>
			</output>
		</layer>
		<layer id="415" name="1951195512730" type="Const" version="opset1">
			<data offset="1500480" size="4" shape="" element_type="f32"/>
			<output>
				<port id="0" precision="FP32"/>
			</output>
		</layer>
		<layer id="416" name="1952195612445" type="Const" version="opset1">
			<data offset="1500484" size="4" shape="" element_type="f32"/>
			<output>
				<port id="0" precision="FP32"/>
			</output>
		</layer>
		<layer id="417" name="1953195711497" type="Const" version="opset1">
			<data offset="1500480" size="4" shape="" element_type="f32"/>
			<output>
				<port id="0" precision="FP32"/>
			</output>
		</layer>
		<layer id="418" name="1954195812247" type="Const" version="opset1">
			<data offset="1500484" size="4" shape="" element_type="f32"/>
			<output>
				<port id="0" precision="FP32"/>
			</output>
		</layer>
		<layer id="419" name="3321332511539" type="Const" version="opset1">
			<data offset="1187936" size="4" shape="" element_type="f32"/>
			<output>
				<port id="0" precision="FP32"/>
			</output>
		</layer>
		<layer id="420" name="3322332612739" type="Const" version="opset1">
			<data offset="1500488" size="4" shape="" element_type="f32"/>
			<output>
				<port id="0" precision="FP32"/>
			</output>
		</layer>
		<layer id="421" name="3323332711788" type="Const" version="opset1">
			<data offset="1187936" size="4" shape="" element_type="f32"/>
			<output>
				<port id="0" precision="FP32"/>
			</output>
		</layer>
		<layer id="422" name="3324332811395" type="Const" version="opset1">
			<data offset="1500488" size="4" shape="" element_type="f32"/>
			<output>
				<port id="0" precision="FP32"/>
			</output>
		</layer>
		<layer id="423" name="3301330511929" type="Const" version="opset1">
			<data offset="1187936" size="4" shape="" element_type="f32"/>
			<output>
				<port id="0" precision="FP32"/>
			</output>
		</layer>
		<layer id="424" name="3302330611290" type="Const" version="opset1">
			<data offset="1500492" size="4" shape="" element_type="f32"/>
			<output>
				<port id="0" precision="FP32"/>
			</output>
		</layer>
		<layer id="425" name="3303330713198" type="Const" version="opset1">
			<data offset="1187936" size="4" shape="" element_type="f32"/>
			<output>
				<port id="0" precision="FP32"/>
			</output>
		</layer>
		<layer id="426" name="3304330813201" type="Const" version="opset1">
			<data offset="1500492" size="4" shape="" element_type="f32"/>
			<output>
				<port id="0" precision="FP32"/>
			</output>
		</layer>
		<layer id="427" name="3601360512559" type="Const" version="opset1">
			<data offset="1187936" size="4" shape="" element_type="f32"/>
			<output>
				<port id="0" precision="FP32"/>
			</output>
		</layer>
		<layer id="428" name="3602360611890" type="Const" version="opset1">
			<data offset="1493436" size="4" shape="" element_type="f32"/>
			<output>
				<port id="0" precision="FP32"/>
			</output>
		</layer>
		<layer id="429" name="3603360713381" type="Const" version="opset1">
			<data offset="1187936" size="4" shape="" element_type="f32"/>
			<output>
				<port id="0" precision="FP32"/>
			</output>
		</layer>
		<layer id="430" name="3604360812007" type="Const" version="opset1">
			<data offset="1493436" size="4" shape="" element_type="f32"/>
			<output>
				<port id="0" precision="FP32"/>
			</output>
		</layer>
		<layer id="431" name="2301230512505" type="Const" version="opset1">
			<data offset="1187936" size="4" shape="" element_type="f32"/>
			<output>
				<port id="0" precision="FP32"/>
			</output>
		</layer>
		<layer id="432" name="2302230611386" type="Const" version="opset1">
			<data offset="1500496" size="4" shape="" element_type="f32"/>
			<output>
				<port id="0" precision="FP32"/>
			</output>
		</layer>
		<layer id="433" name="2303230712697" type="Const" version="opset1">
			<data offset="1187936" size="4" shape="" element_type="f32"/>
			<output>
				<port id="0" precision="FP32"/>
			</output>
		</layer>
		<layer id="434" name="2304230811509" type="Const" version="opset1">
			<data offset="1500496" size="4" shape="" element_type="f32"/>
			<output>
				<port id="0" precision="FP32"/>
			</output>
		</layer>
		<layer id="435" name="Range_19955112652" type="Const" version="opset1">
			<data offset="1187880" size="16" shape="2" element_type="i64"/>
			<output>
				<port id="0" precision="I64">
					<dim>2</dim>
				</port>
			</output>
		</layer>
		<layer id="436" name="2571257511554" type="Const" version="opset1">
			<data offset="1187936" size="4" shape="" element_type="f32"/>
			<output>
				<port id="0" precision="FP32"/>
			</output>
		</layer>
		<layer id="437" name="2572257612673" type="Const" version="opset1">
			<data offset="1500500" size="4" shape="" element_type="f32"/>
			<output>
				<port id="0" precision="FP32"/>
			</output>
		</layer>
		<layer id="438" name="2573257712190" type="Const" version="opset1">
			<data offset="1187936" size="4" shape="" element_type="f32"/>
			<output>
				<port id="0" precision="FP32"/>
			</output>
		</layer>
		<layer id="439" name="2574257813534" type="Const" version="opset1">
			<data offset="1500500" size="4" shape="" element_type="f32"/>
			<output>
				<port id="0" precision="FP32"/>
			</output>
		</layer>
		<layer id="440" name="3061306513396" type="Const" version="opset1">
			<data offset="1500504" size="64" shape="1,16,1,1" element_type="f32"/>
			<output>
				<port id="0" precision="FP32">
					<dim>1</dim>
					<dim>16</dim>
					<dim>1</dim>
					<dim>1</dim>
				</port>
			</output>
		</layer>
		<layer id="441" name="3062306611893" type="Const" version="opset1">
			<data offset="1500568" size="64" shape="1,16,1,1" element_type="f32"/>
			<output>
				<port id="0" precision="FP32">
					<dim>1</dim>
					<dim>16</dim>
					<dim>1</dim>
					<dim>1</dim>
				</port>
			</output>
		</layer>
		<layer id="442" name="3063306711341" type="Const" version="opset1">
			<data offset="1500504" size="64" shape="1,16,1,1" element_type="f32"/>
			<output>
				<port id="0" precision="FP32">
					<dim>1</dim>
					<dim>16</dim>
					<dim>1</dim>
					<dim>1</dim>
				</port>
			</output>
		</layer>
		<layer id="443" name="3064306813255" type="Const" version="opset1">
			<data offset="1500568" size="64" shape="1,16,1,1" element_type="f32"/>
			<output>
				<port id="0" precision="FP32">
					<dim>1</dim>
					<dim>16</dim>
					<dim>1</dim>
					<dim>1</dim>
				</port>
			</output>
		</layer>
		<layer id="444" name="2451245511887" type="Const" version="opset1">
			<data offset="1500632" size="4" shape="" element_type="f32"/>
			<output>
				<port id="0" precision="FP32"/>
			</output>
		</layer>
		<layer id="445" name="2452245611779" type="Const" version="opset1">
			<data offset="1500636" size="4" shape="" element_type="f32"/>
			<output>
				<port id="0" precision="FP32"/>
			</output>
		</layer>
		<layer id="446" name="2453245713315" type="Const" version="opset1">
			<data offset="1500632" size="4" shape="" element_type="f32"/>
			<output>
				<port id="0" precision="FP32"/>
			</output>
		</layer>
		<layer id="447" name="2454245812994" type="Const" version="opset1">
			<data offset="1500636" size="4" shape="" element_type="f32"/>
			<output>
				<port id="0" precision="FP32"/>
			</output>
		</layer>
		<layer id="448" name="2031203513093" type="Const" version="opset1">
			<data offset="1500640" size="4" shape="" element_type="f32"/>
			<output>
				<port id="0" precision="FP32"/>
			</output>
		</layer>
		<layer id="449" name="2032203612334" type="Const" version="opset1">
			<data offset="1500644" size="4" shape="" element_type="f32"/>
			<output>
				<port id="0" precision="FP32"/>
			</output>
		</layer>
		<layer id="450" name="2033203712655" type="Const" version="opset1">
			<data offset="1500640" size="4" shape="" element_type="f32"/>
			<output>
				<port id="0" precision="FP32"/>
			</output>
		</layer>
		<layer id="451" name="2034203813261" type="Const" version="opset1">
			<data offset="1500644" size="4" shape="" element_type="f32"/>
			<output>
				<port id="0" precision="FP32"/>
			</output>
		</layer>
		<layer id="453" name="/features/features.0/features.0.0/Conv/WithoutBiases/fq_input_0" type="FakeQuantize" version="opset1">
			<data levels="256" auto_broadcast="numpy"/>
			<input>
				<port id="0">
					<dim>1</dim>
					<dim>3</dim>
					<dim>224</dim>
					<dim>224</dim>
				</port>
				<port id="1"/>
				<port id="2"/>
				<port id="3"/>
				<port id="4"/>
			</input>
			<output>
				<port id="5" precision="FP32">
					<dim>1</dim>
					<dim>3</dim>
					<dim>224</dim>
					<dim>224</dim>
				</port>
			</output>
		</layer>
		<layer id="454" name="2041204512763" type="Const" version="opset1">
			<data offset="1500648" size="64" shape="16,1,1,1" element_type="f32"/>
			<output>
				<port id="0" precision="FP32">
					<dim>16</dim>
					<dim>1</dim>
					<dim>1</dim>
					<dim>1</dim>
				</port>
			</output>
		</layer>
		<layer id="455" name="2042204611380" type="Const" version="opset1">
			<data offset="1500712" size="64" shape="16,1,1,1" element_type="f32"/>
			<output>
				<port id="0" precision="FP32">
					<dim>16</dim>
					<dim>1</dim>
					<dim>1</dim>
					<dim>1</dim>
				</port>
			</output>
		</layer>
		<layer id="456" name="2043204713711" type="Const" version="opset1">
			<data offset="1500776" size="64" shape="16,1,1,1" element_type="f32"/>
			<output>
				<port id="0" precision="FP32">
					<dim>16</dim>
					<dim>1</dim>
					<dim>1</dim>
					<dim>1</dim>
				</port>
			</output>
		</layer>
		<layer id="457" name="2044204811665" type="Const" version="opset1">
			<data offset="1500840" size="64" shape="16,1,1,1" element_type="f32"/>
			<output>
				<port id="0" precision="FP32">
					<dim>16</dim>
					<dim>1</dim>
					<dim>1</dim>
					<dim>1</dim>
				</port>
			</output>
		</layer>
		<layer id="458" name="onnx::Conv_42153311701" type="Const" version="opset1">
			<data offset="1500904" size="864" shape="16,3,3,3" element_type="f16"/>
			<output>
				<port id="0" precision="FP16">
					<dim>16</dim>
					<dim>3</dim>
					<dim>3</dim>
					<dim>3</dim>
				</port>
			</output>
		</layer>
		<layer id="459" name="onnx::Conv_4215338045/restored_convert" type="Convert" version="opset1">
			<data destination_type="f32"/>
			<rt_info>
				<attribute name="decompression" version="0"/>
			</rt_info>
			<input>
				<port id="0">
					<dim>16</dim>
					<dim>3</dim>
					<dim>3</dim>
					<dim>3</dim>
				</port>
			</input>
			<output>
				<port id="1" precision="FP32" names="onnx::Conv_421">
					<dim>16</dim>
					<dim>3</dim>
					<dim>3</dim>
					<dim>3</dim>
				</port>
			</output>
		</layer>
		<layer id="460" name="/features/features.0/features.0.0/Conv/WithoutBiases/fq_weights_1" type="FakeQuantize" version="opset1">
			<data levels="255" auto_broadcast="numpy"/>
			<input>
				<port id="0">
					<dim>16</dim>
					<dim>3</dim>
					<dim>3</dim>
					<dim>3</dim>
				</port>
				<port id="1">
					<dim>16</dim>
					<dim>1</dim>
					<dim>1</dim>
					<dim>1</dim>
				</port>
				<port id="2">
					<dim>16</dim>
					<dim>1</dim>
					<dim>1</dim>
					<dim>1</dim>
				</port>
				<port id="3">
					<dim>16</dim>
					<dim>1</dim>
					<dim>1</dim>
					<dim>1</dim>
				</port>
				<port id="4">
					<dim>16</dim>
					<dim>1</dim>
					<dim>1</dim>
					<dim>1</dim>
				</port>
			</input>
			<output>
				<port id="5" precision="FP32">
					<dim>16</dim>
					<dim>3</dim>
					<dim>3</dim>
					<dim>3</dim>
				</port>
			</output>
		</layer>
		<layer id="461" name="/features/features.0/features.0.0/Conv/WithoutBiases" type="Convolution" version="opset1">
			<data auto_pad="explicit" strides="2,2" dilations="1,1" pads_begin="1,1" pads_end="1,1"/>
			<input>
				<port id="0">
					<dim>1</dim>
					<dim>3</dim>
					<dim>224</dim>
					<dim>224</dim>
				</port>
				<port id="1">
					<dim>16</dim>
					<dim>3</dim>
					<dim>3</dim>
					<dim>3</dim>
				</port>
			</input>
			<output>
				<port id="2" precision="FP32">
					<dim>1</dim>
					<dim>16</dim>
					<dim>112</dim>
					<dim>112</dim>
				</port>
			</output>
		</layer>
		<layer id="462" name="Reshape_12153613354" type="Const" version="opset1">
			<data offset="1501768" size="32" shape="1,16,1,1" element_type="f16"/>
			<output>
				<port id="0" precision="FP16">
					<dim>1</dim>
					<dim>16</dim>
					<dim>1</dim>
					<dim>1</dim>
				</port>
			</output>
		</layer>
		<layer id="463" name="Reshape_1215368046/restored_convert" type="Convert" version="opset1">
			<data destination_type="f32"/>
			<rt_info>
				<attribute name="decompression" version="0"/>
			</rt_info>
			<input>
				<port id="0">
					<dim>1</dim>
					<dim>16</dim>
					<dim>1</dim>
					<dim>1</dim>
				</port>
			</input>
			<output>
				<port id="1" precision="FP32">
					<dim>1</dim>
					<dim>16</dim>
					<dim>1</dim>
					<dim>1</dim>
				</port>
			</output>
		</layer>
		<layer id="464" name="/features/features.0/features.0.0/Conv" type="Add" version="opset1">
			<data auto_broadcast="numpy"/>
			<input>
				<port id="0">
					<dim>1</dim>
					<dim>16</dim>
					<dim>112</dim>
					<dim>112</dim>
				</port>
				<port id="1">
					<dim>1</dim>
					<dim>16</dim>
					<dim>1</dim>
					<dim>1</dim>
				</port>
			</input>
			<output>
				<port id="2" precision="FP32" names="/features/features.0/features.0.0/Conv_output_0">
					<dim>1</dim>
					<dim>16</dim>
					<dim>112</dim>
					<dim>112</dim>
				</port>
			</output>
		</layer>
		<layer id="465" name="/features/features.0/features.0.2/Mul/fq_input_0" type="FakeQuantize" version="opset1">
			<data levels="256" auto_broadcast="numpy"/>
			<input>
				<port id="0">
					<dim>1</dim>
					<dim>16</dim>
					<dim>112</dim>
					<dim>112</dim>
				</port>
				<port id="1"/>
				<port id="2"/>
				<port id="3"/>
				<port id="4"/>
			</input>
			<output>
				<port id="5" precision="FP32">
					<dim>1</dim>
					<dim>16</dim>
					<dim>112</dim>
					<dim>112</dim>
				</port>
			</output>
		</layer>
		<layer id="466" name="2461246512649" type="Const" version="opset1">
			<data offset="1187936" size="4" shape="" element_type="f32"/>
			<output>
				<port id="0" precision="FP32"/>
			</output>
		</layer>
		<layer id="467" name="2462246611320" type="Const" version="opset1">
			<data offset="1187940" size="4" shape="" element_type="f32"/>
			<output>
				<port id="0" precision="FP32"/>
			</output>
		</layer>
		<layer id="468" name="2463246712223" type="Const" version="opset1">
			<data offset="1187936" size="4" shape="" element_type="f32"/>
			<output>
				<port id="0" precision="FP32"/>
			</output>
		</layer>
		<layer id="469" name="2464246812286" type="Const" version="opset1">
			<data offset="1187940" size="4" shape="" element_type="f32"/>
			<output>
				<port id="0" precision="FP32"/>
			</output>
		</layer>
		<layer id="470" name="Constant_12553911233" type="Const" version="opset1">
			<data offset="1501800" size="2" shape="" element_type="f16"/>
			<output>
				<port id="0" precision="FP16"/>
			</output>
		</layer>
		<layer id="471" name="Constant_1255398047/restored_convert" type="Convert" version="opset1">
			<data destination_type="f32"/>
			<rt_info>
				<attribute name="decompression" version="0"/>
			</rt_info>
			<input>
				<port id="0"/>
			</input>
			<output>
				<port id="1" precision="FP32"/>
			</output>
		</layer>
		<layer id="472" name="Constant_12654113003" type="Const" version="opset1">
			<data offset="1501802" size="2" shape="" element_type="f16"/>
			<output>
				<port id="0" precision="FP16"/>
			</output>
		</layer>
		<layer id="473" name="Constant_1265418048/restored_convert" type="Convert" version="opset1">
			<data destination_type="f32"/>
			<rt_info>
				<attribute name="decompression" version="0"/>
			</rt_info>
			<input>
				<port id="0"/>
			</input>
			<output>
				<port id="1" precision="FP32"/>
			</output>
		</layer>
		<layer id="474" name="/features/features.0/features.0.2/HardSigmoid" type="HardSigmoid" version="opset1">
			<input>
				<port id="0">
					<dim>1</dim>
					<dim>16</dim>
					<dim>112</dim>
					<dim>112</dim>
				</port>
				<port id="1"/>
				<port id="2"/>
			</input>
			<output>
				<port id="3" precision="FP32" names="/features/features.0/features.0.2/HardSigmoid_output_0">
					<dim>1</dim>
					<dim>16</dim>
					<dim>112</dim>
					<dim>112</dim>
				</port>
			</output>
		</layer>
		<layer id="475" name="/features/features.0/features.0.2/Mul/fq_input_1" type="FakeQuantize" version="opset1">
			<data levels="256" auto_broadcast="numpy"/>
			<input>
				<port id="0">
					<dim>1</dim>
					<dim>16</dim>
					<dim>112</dim>
					<dim>112</dim>
				</port>
				<port id="1"/>
				<port id="2"/>
				<port id="3"/>
				<port id="4"/>
			</input>
			<output>
				<port id="5" precision="FP32">
					<dim>1</dim>
					<dim>16</dim>
					<dim>112</dim>
					<dim>112</dim>
				</port>
			</output>
		</layer>
		<layer id="476" name="/features/features.0/features.0.2/Mul" type="Multiply" version="opset1">
			<data auto_broadcast="numpy"/>
			<input>
				<port id="0">
					<dim>1</dim>
					<dim>16</dim>
					<dim>112</dim>
					<dim>112</dim>
				</port>
				<port id="1">
					<dim>1</dim>
					<dim>16</dim>
					<dim>112</dim>
					<dim>112</dim>
				</port>
			</input>
			<output>
				<port id="2" precision="FP32" names="/features/features.0/features.0.2/Mul_output_0">
					<dim>1</dim>
					<dim>16</dim>
					<dim>112</dim>
					<dim>112</dim>
				</port>
			</output>
		</layer>
		<layer id="477" name="/features/features.1/block/block.0/block.0.0/Conv/WithoutBiases/fq_input_0" type="FakeQuantize" version="opset1">
			<data levels="256" auto_broadcast="numpy"/>
			<input>
				<port id="0">
					<dim>1</dim>
					<dim>16</dim>
					<dim>112</dim>
					<dim>112</dim>
				</port>
				<port id="1">
					<dim>1</dim>
					<dim>16</dim>
					<dim>1</dim>
					<dim>1</dim>
				</port>
				<port id="2">
					<dim>1</dim>
					<dim>16</dim>
					<dim>1</dim>
					<dim>1</dim>
				</port>
				<port id="3">
					<dim>1</dim>
					<dim>16</dim>
					<dim>1</dim>
					<dim>1</dim>
				</port>
				<port id="4">
					<dim>1</dim>
					<dim>16</dim>
					<dim>1</dim>
					<dim>1</dim>
				</port>
			</input>
			<output>
				<port id="5" precision="FP32">
					<dim>1</dim>
					<dim>16</dim>
					<dim>112</dim>
					<dim>112</dim>
				</port>
			</output>
		</layer>
		<layer id="478" name="/features/features.1/block/block.0/block.0.0/Conv/WithoutBiases/weights_shape923211596" type="Const" version="opset1">
			<data offset="1501804" size="40" shape="5" element_type="i64"/>
			<output>
				<port id="0" precision="I64">
					<dim>5</dim>
				</port>
			</output>
		</layer>
		<layer id="479" name="3071307512637" type="Const" version="opset1">
			<data offset="1501844" size="64" shape="16,1,1,1" element_type="f32"/>
			<output>
				<port id="0" precision="FP32">
					<dim>16</dim>
					<dim>1</dim>
					<dim>1</dim>
					<dim>1</dim>
				</port>
			</output>
		</layer>
		<layer id="480" name="3072307612349" type="Const" version="opset1">
			<data offset="1501908" size="64" shape="16,1,1,1" element_type="f32"/>
			<output>
				<port id="0" precision="FP32">
					<dim>16</dim>
					<dim>1</dim>
					<dim>1</dim>
					<dim>1</dim>
				</port>
			</output>
		</layer>
		<layer id="481" name="3073307712226" type="Const" version="opset1">
			<data offset="1501844" size="64" shape="16,1,1,1" element_type="f32"/>
			<output>
				<port id="0" precision="FP32">
					<dim>16</dim>
					<dim>1</dim>
					<dim>1</dim>
					<dim>1</dim>
				</port>
			</output>
		</layer>
		<layer id="482" name="3074307812475" type="Const" version="opset1">
			<data offset="1501908" size="64" shape="16,1,1,1" element_type="f32"/>
			<output>
				<port id="0" precision="FP32">
					<dim>16</dim>
					<dim>1</dim>
					<dim>1</dim>
					<dim>1</dim>
				</port>
			</output>
		</layer>
		<layer id="483" name="Reshape_13654512769" type="Const" version="opset1">
			<data offset="1501972" size="288" shape="16,1,3,3" element_type="f16"/>
			<output>
				<port id="0" precision="FP16">
					<dim>16</dim>
					<dim>1</dim>
					<dim>3</dim>
					<dim>3</dim>
				</port>
			</output>
		</layer>
		<layer id="484" name="Reshape_1365458049/restored_convert" type="Convert" version="opset1">
			<data destination_type="f32"/>
			<rt_info>
				<attribute name="decompression" version="0"/>
			</rt_info>
			<input>
				<port id="0">
					<dim>16</dim>
					<dim>1</dim>
					<dim>3</dim>
					<dim>3</dim>
				</port>
			</input>
			<output>
				<port id="1" precision="FP32">
					<dim>16</dim>
					<dim>1</dim>
					<dim>3</dim>
					<dim>3</dim>
				</port>
			</output>
		</layer>
		<layer id="485" name="/features/features.1/block/block.0/block.0.0/Conv/WithoutBiases/fq_weights_1" type="FakeQuantize" version="opset1">
			<data levels="255" auto_broadcast="numpy"/>
			<input>
				<port id="0">
					<dim>16</dim>
					<dim>1</dim>
					<dim>3</dim>
					<dim>3</dim>
				</port>
				<port id="1">
					<dim>16</dim>
					<dim>1</dim>
					<dim>1</dim>
					<dim>1</dim>
				</port>
				<port id="2">
					<dim>16</dim>
					<dim>1</dim>
					<dim>1</dim>
					<dim>1</dim>
				</port>
				<port id="3">
					<dim>16</dim>
					<dim>1</dim>
					<dim>1</dim>
					<dim>1</dim>
				</port>
				<port id="4">
					<dim>16</dim>
					<dim>1</dim>
					<dim>1</dim>
					<dim>1</dim>
				</port>
			</input>
			<output>
				<port id="5" precision="FP32">
					<dim>16</dim>
					<dim>1</dim>
					<dim>3</dim>
					<dim>3</dim>
				</port>
			</output>
		</layer>
		<layer id="486" name="9231" type="Reshape" version="opset1">
			<data special_zero="true"/>
			<input>
				<port id="0">
					<dim>16</dim>
					<dim>1</dim>
					<dim>3</dim>
					<dim>3</dim>
				</port>
				<port id="1">
					<dim>5</dim>
				</port>
			</input>
			<output>
				<port id="2" precision="FP32">
					<dim>16</dim>
					<dim>1</dim>
					<dim>1</dim>
					<dim>3</dim>
					<dim>3</dim>
				</port>
			</output>
		</layer>
		<layer id="487" name="/features/features.1/block/block.0/block.0.0/Conv/WithoutBiases" type="GroupConvolution" version="opset1">
			<data auto_pad="explicit" strides="2,2" dilations="1,1" pads_begin="1,1" pads_end="1,1"/>
			<input>
				<port id="0">
					<dim>1</dim>
					<dim>16</dim>
					<dim>112</dim>
					<dim>112</dim>
				</port>
				<port id="1">
					<dim>16</dim>
					<dim>1</dim>
					<dim>1</dim>
					<dim>3</dim>
					<dim>3</dim>
				</port>
			</input>
			<output>
				<port id="2" precision="FP32">
					<dim>1</dim>
					<dim>16</dim>
					<dim>56</dim>
					<dim>56</dim>
				</port>
			</output>
		</layer>
		<layer id="488" name="Reshape_18854813135" type="Const" version="opset1">
			<data offset="1502260" size="32" shape="1,16,1,1" element_type="f16"/>
			<output>
				<port id="0" precision="FP16">
					<dim>1</dim>
					<dim>16</dim>
					<dim>1</dim>
					<dim>1</dim>
				</port>
			</output>
		</layer>
		<layer id="489" name="Reshape_1885488050/restored_convert" type="Convert" version="opset1">
			<data destination_type="f32"/>
			<rt_info>
				<attribute name="decompression" version="0"/>
			</rt_info>
			<input>
				<port id="0">
					<dim>1</dim>
					<dim>16</dim>
					<dim>1</dim>
					<dim>1</dim>
				</port>
			</input>
			<output>
				<port id="1" precision="FP32">
					<dim>1</dim>
					<dim>16</dim>
					<dim>1</dim>
					<dim>1</dim>
				</port>
			</output>
		</layer>
		<layer id="490" name="/features/features.1/block/block.0/block.0.0/Conv" type="Add" version="opset1">
			<data auto_broadcast="numpy"/>
			<input>
				<port id="0">
					<dim>1</dim>
					<dim>16</dim>
					<dim>56</dim>
					<dim>56</dim>
				</port>
				<port id="1">
					<dim>1</dim>
					<dim>16</dim>
					<dim>1</dim>
					<dim>1</dim>
				</port>
			</input>
			<output>
				<port id="2" precision="FP32" names="/features/features.1/block/block.0/block.0.0/Conv_output_0">
					<dim>1</dim>
					<dim>16</dim>
					<dim>56</dim>
					<dim>56</dim>
				</port>
			</output>
		</layer>
		<layer id="491" name="/features/features.1/block/block.0/block.0.2/Relu" type="ReLU" version="opset1">
			<input>
				<port id="0">
					<dim>1</dim>
					<dim>16</dim>
					<dim>56</dim>
					<dim>56</dim>
				</port>
			</input>
			<output>
				<port id="1" precision="FP32" names="/features/features.1/block/block.0/block.0.2/Relu_output_0">
					<dim>1</dim>
					<dim>16</dim>
					<dim>56</dim>
					<dim>56</dim>
				</port>
			</output>
		</layer>
		<layer id="492" name="/features/features.1/block/block.1/GlobalAveragePool/fq_input_0" type="FakeQuantize" version="opset1">
			<data levels="256" auto_broadcast="numpy"/>
			<input>
				<port id="0">
					<dim>1</dim>
					<dim>16</dim>
					<dim>56</dim>
					<dim>56</dim>
				</port>
				<port id="1"/>
				<port id="2"/>
				<port id="3"/>
				<port id="4"/>
			</input>
			<output>
				<port id="5" precision="FP32">
					<dim>1</dim>
					<dim>16</dim>
					<dim>56</dim>
					<dim>56</dim>
				</port>
			</output>
		</layer>
		<layer id="493" name="/features/features.1/block/block.1/GlobalAveragePool" type="ReduceMean" version="opset1">
			<data keep_dims="true"/>
			<input>
				<port id="0">
					<dim>1</dim>
					<dim>16</dim>
					<dim>56</dim>
					<dim>56</dim>
				</port>
				<port id="1">
					<dim>2</dim>
				</port>
			</input>
			<output>
				<port id="2" precision="FP32" names="/features/features.1/block/block.1/GlobalAveragePool_output_0">
					<dim>1</dim>
					<dim>16</dim>
					<dim>1</dim>
					<dim>1</dim>
				</port>
			</output>
		</layer>
		<layer id="494" name="/features/features.1/block/block.1/fc1/Conv/WithoutBiases/fq_input_0" type="FakeQuantize" version="opset1">
			<data levels="256" auto_broadcast="numpy"/>
			<input>
				<port id="0">
					<dim>1</dim>
					<dim>16</dim>
					<dim>1</dim>
					<dim>1</dim>
				</port>
				<port id="1"/>
				<port id="2"/>
				<port id="3"/>
				<port id="4"/>
			</input>
			<output>
				<port id="5" precision="FP32">
					<dim>1</dim>
					<dim>16</dim>
					<dim>1</dim>
					<dim>1</dim>
				</port>
			</output>
		</layer>
		<layer id="495" name="2311231512397" type="Const" version="opset1">
			<data offset="1502292" size="32" shape="8,1,1,1" element_type="f32"/>
			<output>
				<port id="0" precision="FP32">
					<dim>8</dim>
					<dim>1</dim>
					<dim>1</dim>
					<dim>1</dim>
				</port>
			</output>
		</layer>
		<layer id="496" name="2312231613129" type="Const" version="opset1">
			<data offset="1502324" size="32" shape="8,1,1,1" element_type="f32"/>
			<output>
				<port id="0" precision="FP32">
					<dim>8</dim>
					<dim>1</dim>
					<dim>1</dim>
					<dim>1</dim>
				</port>
			</output>
		</layer>
		<layer id="497" name="2313231712328" type="Const" version="opset1">
			<data offset="1502292" size="32" shape="8,1,1,1" element_type="f32"/>
			<output>
				<port id="0" precision="FP32">
					<dim>8</dim>
					<dim>1</dim>
					<dim>1</dim>
					<dim>1</dim>
				</port>
			</output>
		</layer>
		<layer id="498" name="2314231811239" type="Const" version="opset1">
			<data offset="1502324" size="32" shape="8,1,1,1" element_type="f32"/>
			<output>
				<port id="0" precision="FP32">
					<dim>8</dim>
					<dim>1</dim>
					<dim>1</dim>
					<dim>1</dim>
				</port>
			</output>
		</layer>
		<layer id="499" name="features.1.block.1.fc1.weight55313738" type="Const" version="opset1">
			<data offset="1502356" size="512" shape="8,16,1,1" element_type="f32"/>
			<output>
				<port id="0" precision="FP32" names="features.1.block.1.fc1.weight">
					<dim>8</dim>
					<dim>16</dim>
					<dim>1</dim>
					<dim>1</dim>
				</port>
			</output>
		</layer>
		<layer id="500" name="/features/features.1/block/block.1/fc1/Conv/WithoutBiases/fq_weights_1" type="FakeQuantize" version="opset1">
			<data levels="255" auto_broadcast="numpy"/>
			<input>
				<port id="0">
					<dim>8</dim>
					<dim>16</dim>
					<dim>1</dim>
					<dim>1</dim>
				</port>
				<port id="1">
					<dim>8</dim>
					<dim>1</dim>
					<dim>1</dim>
					<dim>1</dim>
				</port>
				<port id="2">
					<dim>8</dim>
					<dim>1</dim>
					<dim>1</dim>
					<dim>1</dim>
				</port>
				<port id="3">
					<dim>8</dim>
					<dim>1</dim>
					<dim>1</dim>
					<dim>1</dim>
				</port>
				<port id="4">
					<dim>8</dim>
					<dim>1</dim>
					<dim>1</dim>
					<dim>1</dim>
				</port>
			</input>
			<output>
				<port id="5" precision="FP32">
					<dim>8</dim>
					<dim>16</dim>
					<dim>1</dim>
					<dim>1</dim>
				</port>
			</output>
		</layer>
		<layer id="501" name="/features/features.1/block/block.1/fc1/Conv/WithoutBiases" type="Convolution" version="opset1">
			<data auto_pad="explicit" strides="1,1" dilations="1,1" pads_begin="0,0" pads_end="0,0"/>
			<input>
				<port id="0">
					<dim>1</dim>
					<dim>16</dim>
					<dim>1</dim>
					<dim>1</dim>
				</port>
				<port id="1">
					<dim>8</dim>
					<dim>16</dim>
					<dim>1</dim>
					<dim>1</dim>
				</port>
			</input>
			<output>
				<port id="2" precision="FP32">
					<dim>1</dim>
					<dim>8</dim>
					<dim>1</dim>
					<dim>1</dim>
				</port>
			</output>
		</layer>
		<layer id="502" name="Reshape_21455513504" type="Const" version="opset1">
			<data offset="1502868" size="32" shape="1,8,1,1" element_type="f32"/>
			<output>
				<port id="0" precision="FP32">
					<dim>1</dim>
					<dim>8</dim>
					<dim>1</dim>
					<dim>1</dim>
				</port>
			</output>
		</layer>
		<layer id="503" name="/features/features.1/block/block.1/fc1/Conv" type="Add" version="opset1">
			<data auto_broadcast="numpy"/>
			<input>
				<port id="0">
					<dim>1</dim>
					<dim>8</dim>
					<dim>1</dim>
					<dim>1</dim>
				</port>
				<port id="1">
					<dim>1</dim>
					<dim>8</dim>
					<dim>1</dim>
					<dim>1</dim>
				</port>
			</input>
			<output>
				<port id="2" precision="FP32" names="/features/features.1/block/block.1/fc1/Conv_output_0">
					<dim>1</dim>
					<dim>8</dim>
					<dim>1</dim>
					<dim>1</dim>
				</port>
			</output>
		</layer>
		<layer id="504" name="/features/features.1/block/block.1/Relu" type="ReLU" version="opset1">
			<input>
				<port id="0">
					<dim>1</dim>
					<dim>8</dim>
					<dim>1</dim>
					<dim>1</dim>
				</port>
			</input>
			<output>
				<port id="1" precision="FP32" names="/features/features.1/block/block.1/Relu_output_0">
					<dim>1</dim>
					<dim>8</dim>
					<dim>1</dim>
					<dim>1</dim>
				</port>
			</output>
		</layer>
		<layer id="505" name="/features/features.1/block/block.1/fc2/Conv/WithoutBiases/fq_input_0" type="FakeQuantize" version="opset1">
			<data levels="256" auto_broadcast="numpy"/>
			<input>
				<port id="0">
					<dim>1</dim>
					<dim>8</dim>
					<dim>1</dim>
					<dim>1</dim>
				</port>
				<port id="1"/>
				<port id="2"/>
				<port id="3"/>
				<port id="4"/>
			</input>
			<output>
				<port id="5" precision="FP32">
					<dim>1</dim>
					<dim>8</dim>
					<dim>1</dim>
					<dim>1</dim>
				</port>
			</output>
		</layer>
		<layer id="506" name="3611361511260" type="Const" version="opset1">
			<data offset="1502900" size="64" shape="16,1,1,1" element_type="f32"/>
			<output>
				<port id="0" precision="FP32">
					<dim>16</dim>
					<dim>1</dim>
					<dim>1</dim>
					<dim>1</dim>
				</port>
			</output>
		</layer>
		<layer id="507" name="3612361612700" type="Const" version="opset1">
			<data offset="1502964" size="64" shape="16,1,1,1" element_type="f32"/>
			<output>
				<port id="0" precision="FP32">
					<dim>16</dim>
					<dim>1</dim>
					<dim>1</dim>
					<dim>1</dim>
				</port>
			</output>
		</layer>
		<layer id="508" name="3613361711761" type="Const" version="opset1">
			<data offset="1502900" size="64" shape="16,1,1,1" element_type="f32"/>
			<output>
				<port id="0" precision="FP32">
					<dim>16</dim>
					<dim>1</dim>
					<dim>1</dim>
					<dim>1</dim>
				</port>
			</output>
		</layer>
		<layer id="509" name="3614361813186" type="Const" version="opset1">
			<data offset="1502964" size="64" shape="16,1,1,1" element_type="f32"/>
			<output>
				<port id="0" precision="FP32">
					<dim>16</dim>
					<dim>1</dim>
					<dim>1</dim>
					<dim>1</dim>
				</port>
			</output>
		</layer>
		<layer id="510" name="features.1.block.1.fc2.weight55811737" type="Const" version="opset1">
			<data offset="1503028" size="512" shape="16,8,1,1" element_type="f32"/>
			<output>
				<port id="0" precision="FP32" names="features.1.block.1.fc2.weight">
					<dim>16</dim>
					<dim>8</dim>
					<dim>1</dim>
					<dim>1</dim>
				</port>
			</output>
		</layer>
		<layer id="511" name="/features/features.1/block/block.1/fc2/Conv/WithoutBiases/fq_weights_1" type="FakeQuantize" version="opset1">
			<data levels="255" auto_broadcast="numpy"/>
			<input>
				<port id="0">
					<dim>16</dim>
					<dim>8</dim>
					<dim>1</dim>
					<dim>1</dim>
				</port>
				<port id="1">
					<dim>16</dim>
					<dim>1</dim>
					<dim>1</dim>
					<dim>1</dim>
				</port>
				<port id="2">
					<dim>16</dim>
					<dim>1</dim>
					<dim>1</dim>
					<dim>1</dim>
				</port>
				<port id="3">
					<dim>16</dim>
					<dim>1</dim>
					<dim>1</dim>
					<dim>1</dim>
				</port>
				<port id="4">
					<dim>16</dim>
					<dim>1</dim>
					<dim>1</dim>
					<dim>1</dim>
				</port>
			</input>
			<output>
				<port id="5" precision="FP32">
					<dim>16</dim>
					<dim>8</dim>
					<dim>1</dim>
					<dim>1</dim>
				</port>
			</output>
		</layer>
		<layer id="512" name="/features/features.1/block/block.1/fc2/Conv/WithoutBiases" type="Convolution" version="opset1">
			<data auto_pad="explicit" strides="1,1" dilations="1,1" pads_begin="0,0" pads_end="0,0"/>
			<input>
				<port id="0">
					<dim>1</dim>
					<dim>8</dim>
					<dim>1</dim>
					<dim>1</dim>
				</port>
				<port id="1">
					<dim>16</dim>
					<dim>8</dim>
					<dim>1</dim>
					<dim>1</dim>
				</port>
			</input>
			<output>
				<port id="2" precision="FP32">
					<dim>1</dim>
					<dim>16</dim>
					<dim>1</dim>
					<dim>1</dim>
				</port>
			</output>
		</layer>
		<layer id="513" name="Reshape_23056111872" type="Const" version="opset1">
			<data offset="1503540" size="32" shape="1,16,1,1" element_type="f16"/>
			<output>
				<port id="0" precision="FP16">
					<dim>1</dim>
					<dim>16</dim>
					<dim>1</dim>
					<dim>1</dim>
				</port>
			</output>
		</layer>
		<layer id="514" name="Reshape_2305618055/restored_convert" type="Convert" version="opset1">
			<data destination_type="f32"/>
			<rt_info>
				<attribute name="decompression" version="0"/>
			</rt_info>
			<input>
				<port id="0">
					<dim>1</dim>
					<dim>16</dim>
					<dim>1</dim>
					<dim>1</dim>
				</port>
			</input>
			<output>
				<port id="1" precision="FP32">
					<dim>1</dim>
					<dim>16</dim>
					<dim>1</dim>
					<dim>1</dim>
				</port>
			</output>
		</layer>
		<layer id="515" name="/features/features.1/block/block.1/fc2/Conv" type="Add" version="opset1">
			<data auto_broadcast="numpy"/>
			<input>
				<port id="0">
					<dim>1</dim>
					<dim>16</dim>
					<dim>1</dim>
					<dim>1</dim>
				</port>
				<port id="1">
					<dim>1</dim>
					<dim>16</dim>
					<dim>1</dim>
					<dim>1</dim>
				</port>
			</input>
			<output>
				<port id="2" precision="FP32" names="/features/features.1/block/block.1/fc2/Conv_output_0">
					<dim>1</dim>
					<dim>16</dim>
					<dim>1</dim>
					<dim>1</dim>
				</port>
			</output>
		</layer>
		<layer id="516" name="Constant_23456413024" type="Const" version="opset1">
			<data offset="1501800" size="2" shape="" element_type="f16"/>
			<output>
				<port id="0" precision="FP16"/>
			</output>
		</layer>
		<layer id="517" name="Constant_2345648056/restored_convert" type="Convert" version="opset1">
			<data destination_type="f32"/>
			<rt_info>
				<attribute name="decompression" version="0"/>
			</rt_info>
			<input>
				<port id="0"/>
			</input>
			<output>
				<port id="1" precision="FP32"/>
			</output>
		</layer>
		<layer id="518" name="Constant_23556611173" type="Const" version="opset1">
			<data offset="1501802" size="2" shape="" element_type="f16"/>
			<output>
				<port id="0" precision="FP16"/>
			</output>
		</layer>
		<layer id="519" name="Constant_2355668057/restored_convert" type="Convert" version="opset1">
			<data destination_type="f32"/>
			<rt_info>
				<attribute name="decompression" version="0"/>
			</rt_info>
			<input>
				<port id="0"/>
			</input>
			<output>
				<port id="1" precision="FP32"/>
			</output>
		</layer>
		<layer id="520" name="/features/features.1/block/block.1/HardSigmoid" type="HardSigmoid" version="opset1">
			<input>
				<port id="0">
					<dim>1</dim>
					<dim>16</dim>
					<dim>1</dim>
					<dim>1</dim>
				</port>
				<port id="1"/>
				<port id="2"/>
			</input>
			<output>
				<port id="3" precision="FP32" names="/features/features.1/block/block.1/HardSigmoid_output_0">
					<dim>1</dim>
					<dim>16</dim>
					<dim>1</dim>
					<dim>1</dim>
				</port>
			</output>
		</layer>
		<layer id="521" name="/features/features.1/block/block.1/Mul/fq_input_0" type="FakeQuantize" version="opset1">
			<data levels="256" auto_broadcast="numpy"/>
			<input>
				<port id="0">
					<dim>1</dim>
					<dim>16</dim>
					<dim>1</dim>
					<dim>1</dim>
				</port>
				<port id="1"/>
				<port id="2"/>
				<port id="3"/>
				<port id="4"/>
			</input>
			<output>
				<port id="5" precision="FP32">
					<dim>1</dim>
					<dim>16</dim>
					<dim>1</dim>
					<dim>1</dim>
				</port>
			</output>
		</layer>
		<layer id="522" name="/features/features.1/block/block.1/Mul" type="Multiply" version="opset1">
			<data auto_broadcast="numpy"/>
			<input>
				<port id="0">
					<dim>1</dim>
					<dim>16</dim>
					<dim>1</dim>
					<dim>1</dim>
				</port>
				<port id="1">
					<dim>1</dim>
					<dim>16</dim>
					<dim>56</dim>
					<dim>56</dim>
				</port>
			</input>
			<output>
				<port id="2" precision="FP32" names="/features/features.1/block/block.1/Mul_output_0">
					<dim>1</dim>
					<dim>16</dim>
					<dim>56</dim>
					<dim>56</dim>
				</port>
			</output>
		</layer>
		<layer id="523" name="/features/features.1/block/block.2/block.2.0/Conv/WithoutBiases/fq_input_0" type="FakeQuantize" version="opset1">
			<data levels="256" auto_broadcast="numpy"/>
			<input>
				<port id="0">
					<dim>1</dim>
					<dim>16</dim>
					<dim>56</dim>
					<dim>56</dim>
				</port>
				<port id="1"/>
				<port id="2"/>
				<port id="3"/>
				<port id="4"/>
			</input>
			<output>
				<port id="5" precision="FP32">
					<dim>1</dim>
					<dim>16</dim>
					<dim>56</dim>
					<dim>56</dim>
				</port>
			</output>
		</layer>
		<layer id="524" name="3331333512421" type="Const" version="opset1">
			<data offset="1503572" size="64" shape="16,1,1,1" element_type="f32"/>
			<output>
				<port id="0" precision="FP32">
					<dim>16</dim>
					<dim>1</dim>
					<dim>1</dim>
					<dim>1</dim>
				</port>
			</output>
		</layer>
		<layer id="525" name="3332333613108" type="Const" version="opset1">
			<data offset="1503636" size="64" shape="16,1,1,1" element_type="f32"/>
			<output>
				<port id="0" precision="FP32">
					<dim>16</dim>
					<dim>1</dim>
					<dim>1</dim>
					<dim>1</dim>
				</port>
			</output>
		</layer>
		<layer id="526" name="3333333712217" type="Const" version="opset1">
			<data offset="1503572" size="64" shape="16,1,1,1" element_type="f32"/>
			<output>
				<port id="0" precision="FP32">
					<dim>16</dim>
					<dim>1</dim>
					<dim>1</dim>
					<dim>1</dim>
				</port>
			</output>
		</layer>
		<layer id="527" name="3334333811299" type="Const" version="opset1">
			<data offset="1503636" size="64" shape="16,1,1,1" element_type="f32"/>
			<output>
				<port id="0" precision="FP32">
					<dim>16</dim>
					<dim>1</dim>
					<dim>1</dim>
					<dim>1</dim>
				</port>
			</output>
		</layer>
		<layer id="528" name="onnx::Conv_42757012472" type="Const" version="opset1">
			<data offset="1503700" size="512" shape="16,16,1,1" element_type="f16"/>
			<output>
				<port id="0" precision="FP16">
					<dim>16</dim>
					<dim>16</dim>
					<dim>1</dim>
					<dim>1</dim>
				</port>
			</output>
		</layer>
		<layer id="529" name="onnx::Conv_4275708058/restored_convert" type="Convert" version="opset1">
			<data destination_type="f32"/>
			<rt_info>
				<attribute name="decompression" version="0"/>
			</rt_info>
			<input>
				<port id="0">
					<dim>16</dim>
					<dim>16</dim>
					<dim>1</dim>
					<dim>1</dim>
				</port>
			</input>
			<output>
				<port id="1" precision="FP32" names="onnx::Conv_427">
					<dim>16</dim>
					<dim>16</dim>
					<dim>1</dim>
					<dim>1</dim>
				</port>
			</output>
		</layer>
		<layer id="530" name="/features/features.1/block/block.2/block.2.0/Conv/WithoutBiases/fq_weights_1" type="FakeQuantize" version="opset1">
			<data levels="255" auto_broadcast="numpy"/>
			<input>
				<port id="0">
					<dim>16</dim>
					<dim>16</dim>
					<dim>1</dim>
					<dim>1</dim>
				</port>
				<port id="1">
					<dim>16</dim>
					<dim>1</dim>
					<dim>1</dim>
					<dim>1</dim>
				</port>
				<port id="2">
					<dim>16</dim>
					<dim>1</dim>
					<dim>1</dim>
					<dim>1</dim>
				</port>
				<port id="3">
					<dim>16</dim>
					<dim>1</dim>
					<dim>1</dim>
					<dim>1</dim>
				</port>
				<port id="4">
					<dim>16</dim>
					<dim>1</dim>
					<dim>1</dim>
					<dim>1</dim>
				</port>
			</input>
			<output>
				<port id="5" precision="FP32">
					<dim>16</dim>
					<dim>16</dim>
					<dim>1</dim>
					<dim>1</dim>
				</port>
			</output>
		</layer>
		<layer id="531" name="/features/features.1/block/block.2/block.2.0/Conv/WithoutBiases" type="Convolution" version="opset1">
			<data auto_pad="explicit" strides="1,1" dilations="1,1" pads_begin="0,0" pads_end="0,0"/>
			<input>
				<port id="0">
					<dim>1</dim>
					<dim>16</dim>
					<dim>56</dim>
					<dim>56</dim>
				</port>
				<port id="1">
					<dim>16</dim>
					<dim>16</dim>
					<dim>1</dim>
					<dim>1</dim>
				</port>
			</input>
			<output>
				<port id="2" precision="FP32">
					<dim>1</dim>
					<dim>16</dim>
					<dim>56</dim>
					<dim>56</dim>
				</port>
			</output>
		</layer>
		<layer id="532" name="Reshape_24957311548" type="Const" version="opset1">
			<data offset="1504212" size="32" shape="1,16,1,1" element_type="f16"/>
			<output>
				<port id="0" precision="FP16">
					<dim>1</dim>
					<dim>16</dim>
					<dim>1</dim>
					<dim>1</dim>
				</port>
			</output>
		</layer>
		<layer id="533" name="Reshape_2495738059/restored_convert" type="Convert" version="opset1">
			<data destination_type="f32"/>
			<rt_info>
				<attribute name="decompression" version="0"/>
			</rt_info>
			<input>
				<port id="0">
					<dim>1</dim>
					<dim>16</dim>
					<dim>1</dim>
					<dim>1</dim>
				</port>
			</input>
			<output>
				<port id="1" precision="FP32">
					<dim>1</dim>
					<dim>16</dim>
					<dim>1</dim>
					<dim>1</dim>
				</port>
			</output>
		</layer>
		<layer id="534" name="/features/features.1/block/block.2/block.2.0/Conv" type="Add" version="opset1">
			<data auto_broadcast="numpy"/>
			<input>
				<port id="0">
					<dim>1</dim>
					<dim>16</dim>
					<dim>56</dim>
					<dim>56</dim>
				</port>
				<port id="1">
					<dim>1</dim>
					<dim>16</dim>
					<dim>1</dim>
					<dim>1</dim>
				</port>
			</input>
			<output>
				<port id="2" precision="FP32" names="/features/features.1/block/block.2/block.2.0/Conv_output_0">
					<dim>1</dim>
					<dim>16</dim>
					<dim>56</dim>
					<dim>56</dim>
				</port>
			</output>
		</layer>
		<layer id="535" name="/features/features.2/block/block.0/block.0.0/Conv/WithoutBiases/fq_input_0" type="FakeQuantize" version="opset1">
			<data levels="256" auto_broadcast="numpy"/>
			<input>
				<port id="0">
					<dim>1</dim>
					<dim>16</dim>
					<dim>56</dim>
					<dim>56</dim>
				</port>
				<port id="1"/>
				<port id="2"/>
				<port id="3"/>
				<port id="4"/>
			</input>
			<output>
				<port id="5" precision="FP32">
					<dim>1</dim>
					<dim>16</dim>
					<dim>56</dim>
					<dim>56</dim>
				</port>
			</output>
		</layer>
		<layer id="536" name="1961196511272" type="Const" version="opset1">
			<data offset="1504244" size="288" shape="72,1,1,1" element_type="f32"/>
			<output>
				<port id="0" precision="FP32">
					<dim>72</dim>
					<dim>1</dim>
					<dim>1</dim>
					<dim>1</dim>
				</port>
			</output>
		</layer>
		<layer id="537" name="1962196613456" type="Const" version="opset1">
			<data offset="1504532" size="288" shape="72,1,1,1" element_type="f32"/>
			<output>
				<port id="0" precision="FP32">
					<dim>72</dim>
					<dim>1</dim>
					<dim>1</dim>
					<dim>1</dim>
				</port>
			</output>
		</layer>
		<layer id="538" name="1963196711455" type="Const" version="opset1">
			<data offset="1504820" size="288" shape="72,1,1,1" element_type="f32"/>
			<output>
				<port id="0" precision="FP32">
					<dim>72</dim>
					<dim>1</dim>
					<dim>1</dim>
					<dim>1</dim>
				</port>
			</output>
		</layer>
		<layer id="539" name="1964196812496" type="Const" version="opset1">
			<data offset="1505108" size="288" shape="72,1,1,1" element_type="f32"/>
			<output>
				<port id="0" precision="FP32">
					<dim>72</dim>
					<dim>1</dim>
					<dim>1</dim>
					<dim>1</dim>
				</port>
			</output>
		</layer>
		<layer id="540" name="onnx::Conv_43057612298" type="Const" version="opset1">
			<data offset="1505396" size="2304" shape="72,16,1,1" element_type="f16"/>
			<output>
				<port id="0" precision="FP16">
					<dim>72</dim>
					<dim>16</dim>
					<dim>1</dim>
					<dim>1</dim>
				</port>
			</output>
		</layer>
		<layer id="541" name="onnx::Conv_4305768060/restored_convert" type="Convert" version="opset1">
			<data destination_type="f32"/>
			<rt_info>
				<attribute name="decompression" version="0"/>
			</rt_info>
			<input>
				<port id="0">
					<dim>72</dim>
					<dim>16</dim>
					<dim>1</dim>
					<dim>1</dim>
				</port>
			</input>
			<output>
				<port id="1" precision="FP32" names="onnx::Conv_430">
					<dim>72</dim>
					<dim>16</dim>
					<dim>1</dim>
					<dim>1</dim>
				</port>
			</output>
		</layer>
		<layer id="542" name="/features/features.2/block/block.0/block.0.0/Conv/WithoutBiases/fq_weights_1" type="FakeQuantize" version="opset1">
			<data levels="255" auto_broadcast="numpy"/>
			<input>
				<port id="0">
					<dim>72</dim>
					<dim>16</dim>
					<dim>1</dim>
					<dim>1</dim>
				</port>
				<port id="1">
					<dim>72</dim>
					<dim>1</dim>
					<dim>1</dim>
					<dim>1</dim>
				</port>
				<port id="2">
					<dim>72</dim>
					<dim>1</dim>
					<dim>1</dim>
					<dim>1</dim>
				</port>
				<port id="3">
					<dim>72</dim>
					<dim>1</dim>
					<dim>1</dim>
					<dim>1</dim>
				</port>
				<port id="4">
					<dim>72</dim>
					<dim>1</dim>
					<dim>1</dim>
					<dim>1</dim>
				</port>
			</input>
			<output>
				<port id="5" precision="FP32">
					<dim>72</dim>
					<dim>16</dim>
					<dim>1</dim>
					<dim>1</dim>
				</port>
			</output>
		</layer>
		<layer id="543" name="/features/features.2/block/block.0/block.0.0/Conv/WithoutBiases" type="Convolution" version="opset1">
			<data auto_pad="explicit" strides="1,1" dilations="1,1" pads_begin="0,0" pads_end="0,0"/>
			<input>
				<port id="0">
					<dim>1</dim>
					<dim>16</dim>
					<dim>56</dim>
					<dim>56</dim>
				</port>
				<port id="1">
					<dim>72</dim>
					<dim>16</dim>
					<dim>1</dim>
					<dim>1</dim>
				</port>
			</input>
			<output>
				<port id="2" precision="FP32">
					<dim>1</dim>
					<dim>72</dim>
					<dim>56</dim>
					<dim>56</dim>
				</port>
			</output>
		</layer>
		<layer id="544" name="Reshape_26457912913" type="Const" version="opset1">
			<data offset="1507700" size="144" shape="1,72,1,1" element_type="f16"/>
			<output>
				<port id="0" precision="FP16">
					<dim>1</dim>
					<dim>72</dim>
					<dim>1</dim>
					<dim>1</dim>
				</port>
			</output>
		</layer>
		<layer id="545" name="Reshape_2645798061/restored_convert" type="Convert" version="opset1">
			<data destination_type="f32"/>
			<rt_info>
				<attribute name="decompression" version="0"/>
			</rt_info>
			<input>
				<port id="0">
					<dim>1</dim>
					<dim>72</dim>
					<dim>1</dim>
					<dim>1</dim>
				</port>
			</input>
			<output>
				<port id="1" precision="FP32">
					<dim>1</dim>
					<dim>72</dim>
					<dim>1</dim>
					<dim>1</dim>
				</port>
			</output>
		</layer>
		<layer id="546" name="/features/features.2/block/block.0/block.0.0/Conv" type="Add" version="opset1">
			<data auto_broadcast="numpy"/>
			<input>
				<port id="0">
					<dim>1</dim>
					<dim>72</dim>
					<dim>56</dim>
					<dim>56</dim>
				</port>
				<port id="1">
					<dim>1</dim>
					<dim>72</dim>
					<dim>1</dim>
					<dim>1</dim>
				</port>
			</input>
			<output>
				<port id="2" precision="FP32" names="/features/features.2/block/block.0/block.0.0/Conv_output_0">
					<dim>1</dim>
					<dim>72</dim>
					<dim>56</dim>
					<dim>56</dim>
				</port>
			</output>
		</layer>
		<layer id="547" name="/features/features.2/block/block.0/block.0.2/Relu" type="ReLU" version="opset1">
			<input>
				<port id="0">
					<dim>1</dim>
					<dim>72</dim>
					<dim>56</dim>
					<dim>56</dim>
				</port>
			</input>
			<output>
				<port id="1" precision="FP32" names="/features/features.2/block/block.0/block.0.2/Relu_output_0">
					<dim>1</dim>
					<dim>72</dim>
					<dim>56</dim>
					<dim>56</dim>
				</port>
			</output>
		</layer>
		<layer id="548" name="/features/features.2/block/block.1/block.1.0/Conv/WithoutBiases/fq_input_0" type="FakeQuantize" version="opset1">
			<data levels="256" auto_broadcast="numpy"/>
			<input>
				<port id="0">
					<dim>1</dim>
					<dim>72</dim>
					<dim>56</dim>
…
		<edge from-layer="966" from-port="3" to-layer="967" to-port="0"/>
		<edge from-layer="218" from-port="0" to-layer="967" to-port="1"/>
		<edge from-layer="219" from-port="0" to-layer="967" to-port="2"/>
		<edge from-layer="220" from-port="0" to-layer="967" to-port="3"/>
		<edge from-layer="221" from-port="0" to-layer="967" to-port="4"/>
		<edge from-layer="967" from-port="5" to-layer="968" to-port="0"/>
		<edge from-layer="935" from-port="5" to-layer="968" to-port="1"/>
		<edge from-layer="968" from-port="2" to-layer="969" to-port="0"/>
		<edge from-layer="214" from-port="0" to-layer="969" to-port="1"/>
		<edge from-layer="215" from-port="0" to-layer="969" to-port="2"/>
		<edge from-layer="216" from-port="0" to-layer="969" to-port="3"/>
		<edge from-layer="217" from-port="0" to-layer="969" to-port="4"/>
		<edge from-layer="974" from-port="0" to-layer="975" to-port="0"/>
		<edge from-layer="975" from-port="1" to-layer="976" to-port="0"/>
		<edge from-layer="970" from-port="0" to-layer="976" to-port="1"/>
		<edge from-layer="971" from-port="0" to-layer="976" to-port="2"/>
		<edge from-layer="972" from-port="0" to-layer="976" to-port="3"/>
		<edge from-layer="973" from-port="0" to-layer="976" to-port="4"/>
		<edge from-layer="969" from-port="5" to-layer="977" to-port="0"/>
		<edge from-layer="976" from-port="5" to-layer="977" to-port="1"/>
		<edge from-layer="978" from-port="0" to-layer="979" to-port="0"/>
		<edge from-layer="977" from-port="2" to-layer="980" to-port="0"/>
		<edge from-layer="979" from-port="1" to-layer="980" to-port="1"/>
		<edge from-layer="980" from-port="2" to-layer="981" to-port="0"/>
		<edge from-layer="210" from-port="0" to-layer="981" to-port="1"/>
		<edge from-layer="211" from-port="0" to-layer="981" to-port="2"/>
		<edge from-layer="212" from-port="0" to-layer="981" to-port="3"/>
		<edge from-layer="213" from-port="0" to-layer="981" to-port="4"/>
		<edge from-layer="981" from-port="5" to-layer="982" to-port="0"/>
		<edge from-layer="209" from-port="5" to-layer="982" to-port="1"/>
		<edge from-layer="983" from-port="0" to-layer="984" to-port="0"/>
		<edge from-layer="982" from-port="2" to-layer="985" to-port="0"/>
		<edge from-layer="984" from-port="1" to-layer="985" to-port="1"/>
		<edge from-layer="985" from-port="2" to-layer="986" to-port="0"/>
		<edge from-layer="199" from-port="0" to-layer="986" to-port="1"/>
		<edge from-layer="200" from-port="0" to-layer="986" to-port="2"/>
		<edge from-layer="201" from-port="0" to-layer="986" to-port="3"/>
		<edge from-layer="202" from-port="0" to-layer="986" to-port="4"/>
		<edge from-layer="991" from-port="0" to-layer="992" to-port="0"/>
		<edge from-layer="993" from-port="0" to-layer="994" to-port="0"/>
		<edge from-layer="985" from-port="2" to-layer="995" to-port="0"/>
		<edge from-layer="992" from-port="1" to-layer="995" to-port="1"/>
		<edge from-layer="994" from-port="1" to-layer="995" to-port="2"/>
		<edge from-layer="995" from-port="3" to-layer="996" to-port="0"/>
		<edge from-layer="987" from-port="0" to-layer="996" to-port="1"/>
		<edge from-layer="988" from-port="0" to-layer="996" to-port="2"/>
		<edge from-layer="989" from-port="0" to-layer="996" to-port="3"/>
		<edge from-layer="990" from-port="0" to-layer="996" to-port="4"/>
		<edge from-layer="986" from-port="5" to-layer="997" to-port="0"/>
		<edge from-layer="996" from-port="5" to-layer="997" to-port="1"/>
		<edge from-layer="997" from-port="2" to-layer="998" to-port="0"/>
		<edge from-layer="195" from-port="0" to-layer="998" to-port="1"/>
		<edge from-layer="196" from-port="0" to-layer="998" to-port="2"/>
		<edge from-layer="197" from-port="0" to-layer="998" to-port="3"/>
		<edge from-layer="198" from-port="0" to-layer="998" to-port="4"/>
		<edge from-layer="1004" from-port="0" to-layer="1005" to-port="0"/>
		<edge from-layer="1005" from-port="1" to-layer="1006" to-port="0"/>
		<edge from-layer="1000" from-port="0" to-layer="1006" to-port="1"/>
		<edge from-layer="1001" from-port="0" to-layer="1006" to-port="2"/>
		<edge from-layer="1002" from-port="0" to-layer="1006" to-port="3"/>
		<edge from-layer="1003" from-port="0" to-layer="1006" to-port="4"/>
		<edge from-layer="1006" from-port="5" to-layer="1007" to-port="0"/>
		<edge from-layer="999" from-port="0" to-layer="1007" to-port="1"/>
		<edge from-layer="998" from-port="5" to-layer="1008" to-port="0"/>
		<edge from-layer="1007" from-port="2" to-layer="1008" to-port="1"/>
		<edge from-layer="1009" from-port="0" to-layer="1010" to-port="0"/>
		<edge from-layer="1008" from-port="2" to-layer="1011" to-port="0"/>
		<edge from-layer="1010" from-port="1" to-layer="1011" to-port="1"/>
		<edge from-layer="1011" from-port="2" to-layer="1012" to-port="0"/>
		<edge from-layer="191" from-port="0" to-layer="1012" to-port="1"/>
		<edge from-layer="192" from-port="0" to-layer="1012" to-port="2"/>
		<edge from-layer="193" from-port="0" to-layer="1012" to-port="3"/>
		<edge from-layer="194" from-port="0" to-layer="1012" to-port="4"/>
		<edge from-layer="1017" from-port="0" to-layer="1018" to-port="0"/>
		<edge from-layer="1019" from-port="0" to-layer="1020" to-port="0"/>
		<edge from-layer="1011" from-port="2" to-layer="1021" to-port="0"/>
		<edge from-layer="1018" from-port="1" to-layer="1021" to-port="1"/>
		<edge from-layer="1020" from-port="1" to-layer="1021" to-port="2"/>
		<edge from-layer="1021" from-port="3" to-layer="1022" to-port="0"/>
		<edge from-layer="1013" from-port="0" to-layer="1022" to-port="1"/>
		<edge from-layer="1014" from-port="0" to-layer="1022" to-port="2"/>
		<edge from-layer="1015" from-port="0" to-layer="1022" to-port="3"/>
		<edge from-layer="1016" from-port="0" to-layer="1022" to-port="4"/>
		<edge from-layer="1012" from-port="5" to-layer="1023" to-port="0"/>
		<edge from-layer="1022" from-port="5" to-layer="1023" to-port="1"/>
		<edge from-layer="1023" from-port="2" to-layer="1024" to-port="0"/>
		<edge from-layer="187" from-port="0" to-layer="1024" to-port="1"/>
		<edge from-layer="188" from-port="0" to-layer="1024" to-port="2"/>
		<edge from-layer="189" from-port="0" to-layer="1024" to-port="3"/>
		<edge from-layer="190" from-port="0" to-layer="1024" to-port="4"/>
		<edge from-layer="1024" from-port="5" to-layer="1025" to-port="0"/>
		<edge from-layer="186" from-port="0" to-layer="1025" to-port="1"/>
		<edge from-layer="1025" from-port="2" to-layer="1026" to-port="0"/>
		<edge from-layer="182" from-port="0" to-layer="1026" to-port="1"/>
		<edge from-layer="183" from-port="0" to-layer="1026" to-port="2"/>
		<edge from-layer="184" from-port="0" to-layer="1026" to-port="3"/>
		<edge from-layer="185" from-port="0" to-layer="1026" to-port="4"/>
		<edge from-layer="1031" from-port="0" to-layer="1032" to-port="0"/>
		<edge from-layer="1032" from-port="1" to-layer="1033" to-port="0"/>
		<edge from-layer="1027" from-port="0" to-layer="1033" to-port="1"/>
		<edge from-layer="1028" from-port="0" to-layer="1033" to-port="2"/>
		<edge from-layer="1029" from-port="0" to-layer="1033" to-port="3"/>
		<edge from-layer="1030" from-port="0" to-layer="1033" to-port="4"/>
		<edge from-layer="1026" from-port="5" to-layer="1034" to-port="0"/>
		<edge from-layer="1033" from-port="5" to-layer="1034" to-port="1"/>
		<edge from-layer="1035" from-port="0" to-layer="1036" to-port="0"/>
		<edge from-layer="1034" from-port="2" to-layer="1037" to-port="0"/>
		<edge from-layer="1036" from-port="1" to-layer="1037" to-port="1"/>
		<edge from-layer="1037" from-port="2" to-layer="1038" to-port="0"/>
		<edge from-layer="1038" from-port="1" to-layer="1039" to-port="0"/>
		<edge from-layer="178" from-port="0" to-layer="1039" to-port="1"/>
		<edge from-layer="179" from-port="0" to-layer="1039" to-port="2"/>
		<edge from-layer="180" from-port="0" to-layer="1039" to-port="3"/>
		<edge from-layer="181" from-port="0" to-layer="1039" to-port="4"/>
		<edge from-layer="1044" from-port="0" to-layer="1045" to-port="0"/>
		<edge from-layer="1045" from-port="1" to-layer="1046" to-port="0"/>
		<edge from-layer="1040" from-port="0" to-layer="1046" to-port="1"/>
		<edge from-layer="1041" from-port="0" to-layer="1046" to-port="2"/>
		<edge from-layer="1042" from-port="0" to-layer="1046" to-port="3"/>
		<edge from-layer="1043" from-port="0" to-layer="1046" to-port="4"/>
		<edge from-layer="1039" from-port="5" to-layer="1047" to-port="0"/>
		<edge from-layer="1046" from-port="5" to-layer="1047" to-port="1"/>
		<edge from-layer="1048" from-port="0" to-layer="1049" to-port="0"/>
		<edge from-layer="1047" from-port="2" to-layer="1050" to-port="0"/>
		<edge from-layer="1049" from-port="1" to-layer="1050" to-port="1"/>
		<edge from-layer="1051" from-port="0" to-layer="1052" to-port="0"/>
		<edge from-layer="1053" from-port="0" to-layer="1054" to-port="0"/>
		<edge from-layer="1050" from-port="2" to-layer="1055" to-port="0"/>
		<edge from-layer="1052" from-port="1" to-layer="1055" to-port="1"/>
		<edge from-layer="1054" from-port="1" to-layer="1055" to-port="2"/>
		<edge from-layer="1055" from-port="3" to-layer="1056" to-port="0"/>
		<edge from-layer="174" from-port="0" to-layer="1056" to-port="1"/>
		<edge from-layer="175" from-port="0" to-layer="1056" to-port="2"/>
		<edge from-layer="176" from-port="0" to-layer="1056" to-port="3"/>
		<edge from-layer="177" from-port="0" to-layer="1056" to-port="4"/>
		<edge from-layer="1056" from-port="5" to-layer="1057" to-port="0"/>
		<edge from-layer="1024" from-port="5" to-layer="1057" to-port="1"/>
		<edge from-layer="1057" from-port="2" to-layer="1058" to-port="0"/>
		<edge from-layer="170" from-port="0" to-layer="1058" to-port="1"/>
		<edge from-layer="171" from-port="0" to-layer="1058" to-port="2"/>
		<edge from-layer="172" from-port="0" to-layer="1058" to-port="3"/>
		<edge from-layer="173" from-port="0" to-layer="1058" to-port="4"/>
		<edge from-layer="1063" from-port="0" to-layer="1064" to-port="0"/>
		<edge from-layer="1064" from-port="1" to-layer="1065" to-port="0"/>
		<edge from-layer="1059" from-port="0" to-layer="1065" to-port="1"/>
		<edge from-layer="1060" from-port="0" to-layer="1065" to-port="2"/>
		<edge from-layer="1061" from-port="0" to-layer="1065" to-port="3"/>
		<edge from-layer="1062" from-port="0" to-layer="1065" to-port="4"/>
		<edge from-layer="1058" from-port="5" to-layer="1066" to-port="0"/>
		<edge from-layer="1065" from-port="5" to-layer="1066" to-port="1"/>
		<edge from-layer="1067" from-port="0" to-layer="1068" to-port="0"/>
		<edge from-layer="1066" from-port="2" to-layer="1069" to-port="0"/>
		<edge from-layer="1068" from-port="1" to-layer="1069" to-port="1"/>
		<edge from-layer="1069" from-port="2" to-layer="1070" to-port="0"/>
		<edge from-layer="166" from-port="0" to-layer="1070" to-port="1"/>
		<edge from-layer="167" from-port="0" to-layer="1070" to-port="2"/>
		<edge from-layer="168" from-port="0" to-layer="1070" to-port="3"/>
		<edge from-layer="169" from-port="0" to-layer="1070" to-port="4"/>
		<edge from-layer="1070" from-port="5" to-layer="1071" to-port="0"/>
		<edge from-layer="981" from-port="5" to-layer="1071" to-port="1"/>
		<edge from-layer="1071" from-port="2" to-layer="1072" to-port="0"/>
		<edge from-layer="162" from-port="0" to-layer="1072" to-port="1"/>
		<edge from-layer="163" from-port="0" to-layer="1072" to-port="2"/>
		<edge from-layer="164" from-port="0" to-layer="1072" to-port="3"/>
		<edge from-layer="165" from-port="0" to-layer="1072" to-port="4"/>
		<edge from-layer="1077" from-port="0" to-layer="1078" to-port="0"/>
		<edge from-layer="1078" from-port="1" to-layer="1079" to-port="0"/>
		<edge from-layer="1073" from-port="0" to-layer="1079" to-port="1"/>
		<edge from-layer="1074" from-port="0" to-layer="1079" to-port="2"/>
		<edge from-layer="1075" from-port="0" to-layer="1079" to-port="3"/>
		<edge from-layer="1076" from-port="0" to-layer="1079" to-port="4"/>
		<edge from-layer="1072" from-port="5" to-layer="1080" to-port="0"/>
		<edge from-layer="1079" from-port="5" to-layer="1080" to-port="1"/>
		<edge from-layer="1081" from-port="0" to-layer="1082" to-port="0"/>
		<edge from-layer="1080" from-port="2" to-layer="1083" to-port="0"/>
		<edge from-layer="1082" from-port="1" to-layer="1083" to-port="1"/>
		<edge from-layer="1083" from-port="2" to-layer="1084" to-port="0"/>
		<edge from-layer="158" from-port="0" to-layer="1084" to-port="1"/>
		<edge from-layer="159" from-port="0" to-layer="1084" to-port="2"/>
		<edge from-layer="160" from-port="0" to-layer="1084" to-port="3"/>
		<edge from-layer="161" from-port="0" to-layer="1084" to-port="4"/>
		<edge from-layer="1089" from-port="0" to-layer="1090" to-port="0"/>
		<edge from-layer="1091" from-port="0" to-layer="1092" to-port="0"/>
		<edge from-layer="1083" from-port="2" to-layer="1093" to-port="0"/>
		<edge from-layer="1090" from-port="1" to-layer="1093" to-port="1"/>
		<edge from-layer="1092" from-port="1" to-layer="1093" to-port="2"/>
		<edge from-layer="1093" from-port="3" to-layer="1094" to-port="0"/>
		<edge from-layer="1085" from-port="0" to-layer="1094" to-port="1"/>
		<edge from-layer="1086" from-port="0" to-layer="1094" to-port="2"/>
		<edge from-layer="1087" from-port="0" to-layer="1094" to-port="3"/>
		<edge from-layer="1088" from-port="0" to-layer="1094" to-port="4"/>
		<edge from-layer="1084" from-port="5" to-layer="1095" to-port="0"/>
		<edge from-layer="1094" from-port="5" to-layer="1095" to-port="1"/>
		<edge from-layer="1095" from-port="2" to-layer="1096" to-port="0"/>
		<edge from-layer="154" from-port="0" to-layer="1096" to-port="1"/>
		<edge from-layer="155" from-port="0" to-layer="1096" to-port="2"/>
		<edge from-layer="156" from-port="0" to-layer="1096" to-port="3"/>
		<edge from-layer="157" from-port="0" to-layer="1096" to-port="4"/>
		<edge from-layer="1102" from-port="0" to-layer="1103" to-port="0"/>
		<edge from-layer="1103" from-port="1" to-layer="1104" to-port="0"/>
		<edge from-layer="1098" from-port="0" to-layer="1104" to-port="1"/>
		<edge from-layer="1099" from-port="0" to-layer="1104" to-port="2"/>
		<edge from-layer="1100" from-port="0" to-layer="1104" to-port="3"/>
		<edge from-layer="1101" from-port="0" to-layer="1104" to-port="4"/>
		<edge from-layer="1104" from-port="5" to-layer="1105" to-port="0"/>
		<edge from-layer="1097" from-port="0" to-layer="1105" to-port="1"/>
		<edge from-layer="1096" from-port="5" to-layer="1106" to-port="0"/>
		<edge from-layer="1105" from-port="2" to-layer="1106" to-port="1"/>
		<edge from-layer="1107" from-port="0" to-layer="1108" to-port="0"/>
		<edge from-layer="1106" from-port="2" to-layer="1109" to-port="0"/>
		<edge from-layer="1108" from-port="1" to-layer="1109" to-port="1"/>
		<edge from-layer="1109" from-port="2" to-layer="1110" to-port="0"/>
		<edge from-layer="150" from-port="0" to-layer="1110" to-port="1"/>
		<edge from-layer="151" from-port="0" to-layer="1110" to-port="2"/>
		<edge from-layer="152" from-port="0" to-layer="1110" to-port="3"/>
		<edge from-layer="153" from-port="0" to-layer="1110" to-port="4"/>
		<edge from-layer="1115" from-port="0" to-layer="1116" to-port="0"/>
		<edge from-layer="1117" from-port="0" to-layer="1118" to-port="0"/>
		<edge from-layer="1109" from-port="2" to-layer="1119" to-port="0"/>
		<edge from-layer="1116" from-port="1" to-layer="1119" to-port="1"/>
		<edge from-layer="1118" from-port="1" to-layer="1119" to-port="2"/>
		<edge from-layer="1119" from-port="3" to-layer="1120" to-port="0"/>
		<edge from-layer="1111" from-port="0" to-layer="1120" to-port="1"/>
		<edge from-layer="1112" from-port="0" to-layer="1120" to-port="2"/>
		<edge from-layer="1113" from-port="0" to-layer="1120" to-port="3"/>
		<edge from-layer="1114" from-port="0" to-layer="1120" to-port="4"/>
		<edge from-layer="1110" from-port="5" to-layer="1121" to-port="0"/>
		<edge from-layer="1120" from-port="5" to-layer="1121" to-port="1"/>
		<edge from-layer="1121" from-port="2" to-layer="1122" to-port="0"/>
		<edge from-layer="146" from-port="0" to-layer="1122" to-port="1"/>
		<edge from-layer="147" from-port="0" to-layer="1122" to-port="2"/>
		<edge from-layer="148" from-port="0" to-layer="1122" to-port="3"/>
		<edge from-layer="149" from-port="0" to-layer="1122" to-port="4"/>
		<edge from-layer="1122" from-port="5" to-layer="1123" to-port="0"/>
		<edge from-layer="145" from-port="0" to-layer="1123" to-port="1"/>
		<edge from-layer="1123" from-port="2" to-layer="1124" to-port="0"/>
		<edge from-layer="141" from-port="0" to-layer="1124" to-port="1"/>
		<edge from-layer="142" from-port="0" to-layer="1124" to-port="2"/>
		<edge from-layer="143" from-port="0" to-layer="1124" to-port="3"/>
		<edge from-layer="144" from-port="0" to-layer="1124" to-port="4"/>
		<edge from-layer="1129" from-port="0" to-layer="1130" to-port="0"/>
		<edge from-layer="1130" from-port="1" to-layer="1131" to-port="0"/>
		<edge from-layer="1125" from-port="0" to-layer="1131" to-port="1"/>
		<edge from-layer="1126" from-port="0" to-layer="1131" to-port="2"/>
		<edge from-layer="1127" from-port="0" to-layer="1131" to-port="3"/>
		<edge from-layer="1128" from-port="0" to-layer="1131" to-port="4"/>
		<edge from-layer="1124" from-port="5" to-layer="1132" to-port="0"/>
		<edge from-layer="1131" from-port="5" to-layer="1132" to-port="1"/>
		<edge from-layer="1133" from-port="0" to-layer="1134" to-port="0"/>
		<edge from-layer="1132" from-port="2" to-layer="1135" to-port="0"/>
		<edge from-layer="1134" from-port="1" to-layer="1135" to-port="1"/>
		<edge from-layer="1135" from-port="2" to-layer="1136" to-port="0"/>
		<edge from-layer="1136" from-port="1" to-layer="1137" to-port="0"/>
		<edge from-layer="137" from-port="0" to-layer="1137" to-port="1"/>
		<edge from-layer="138" from-port="0" to-layer="1137" to-port="2"/>
		<edge from-layer="139" from-port="0" to-layer="1137" to-port="3"/>
		<edge from-layer="140" from-port="0" to-layer="1137" to-port="4"/>
		<edge from-layer="1142" from-port="0" to-layer="1143" to-port="0"/>
		<edge from-layer="1143" from-port="1" to-layer="1144" to-port="0"/>
		<edge from-layer="1138" from-port="0" to-layer="1144" to-port="1"/>
		<edge from-layer="1139" from-port="0" to-layer="1144" to-port="2"/>
		<edge from-layer="1140" from-port="0" to-layer="1144" to-port="3"/>
		<edge from-layer="1141" from-port="0" to-layer="1144" to-port="4"/>
		<edge from-layer="1137" from-port="5" to-layer="1145" to-port="0"/>
		<edge from-layer="1144" from-port="5" to-layer="1145" to-port="1"/>
		<edge from-layer="1146" from-port="0" to-layer="1147" to-port="0"/>
		<edge from-layer="1145" from-port="2" to-layer="1148" to-port="0"/>
		<edge from-layer="1147" from-port="1" to-layer="1148" to-port="1"/>
		<edge from-layer="1149" from-port="0" to-layer="1150" to-port="0"/>
		<edge from-layer="1151" from-port="0" to-layer="1152" to-port="0"/>
		<edge from-layer="1148" from-port="2" to-layer="1153" to-port="0"/>
		<edge from-layer="1150" from-port="1" to-layer="1153" to-port="1"/>
		<edge from-layer="1152" from-port="1" to-layer="1153" to-port="2"/>
		<edge from-layer="1153" from-port="3" to-layer="1154" to-port="0"/>
		<edge from-layer="133" from-port="0" to-layer="1154" to-port="1"/>
		<edge from-layer="134" from-port="0" to-layer="1154" to-port="2"/>
		<edge from-layer="135" from-port="0" to-layer="1154" to-port="3"/>
		<edge from-layer="136" from-port="0" to-layer="1154" to-port="4"/>
		<edge from-layer="1154" from-port="5" to-layer="1155" to-port="0"/>
		<edge from-layer="1122" from-port="5" to-layer="1155" to-port="1"/>
		<edge from-layer="1155" from-port="2" to-layer="1156" to-port="0"/>
		<edge from-layer="129" from-port="0" to-layer="1156" to-port="1"/>
		<edge from-layer="130" from-port="0" to-layer="1156" to-port="2"/>
		<edge from-layer="131" from-port="0" to-layer="1156" to-port="3"/>
		<edge from-layer="132" from-port="0" to-layer="1156" to-port="4"/>
		<edge from-layer="1161" from-port="0" to-layer="1162" to-port="0"/>
		<edge from-layer="1162" from-port="1" to-layer="1163" to-port="0"/>
		<edge from-layer="1157" from-port="0" to-layer="1163" to-port="1"/>
		<edge from-layer="1158" from-port="0" to-layer="1163" to-port="2"/>
		<edge from-layer="1159" from-port="0" to-layer="1163" to-port="3"/>
		<edge from-layer="1160" from-port="0" to-layer="1163" to-port="4"/>
		<edge from-layer="1156" from-port="5" to-layer="1164" to-port="0"/>
		<edge from-layer="1163" from-port="5" to-layer="1164" to-port="1"/>
		<edge from-layer="1165" from-port="0" to-layer="1166" to-port="0"/>
		<edge from-layer="1164" from-port="2" to-layer="1167" to-port="0"/>
		<edge from-layer="1166" from-port="1" to-layer="1167" to-port="1"/>
		<edge from-layer="1167" from-port="2" to-layer="1168" to-port="0"/>
		<edge from-layer="125" from-port="0" to-layer="1168" to-port="1"/>
		<edge from-layer="126" from-port="0" to-layer="1168" to-port="2"/>
		<edge from-layer="127" from-port="0" to-layer="1168" to-port="3"/>
		<edge from-layer="128" from-port="0" to-layer="1168" to-port="4"/>
		<edge from-layer="1168" from-port="5" to-layer="1169" to-port="0"/>
		<edge from-layer="124" from-port="5" to-layer="1169" to-port="1"/>
		<edge from-layer="1170" from-port="0" to-layer="1171" to-port="0"/>
		<edge from-layer="1169" from-port="2" to-layer="1172" to-port="0"/>
		<edge from-layer="1171" from-port="1" to-layer="1172" to-port="1"/>
		<edge from-layer="1172" from-port="2" to-layer="1173" to-port="0"/>
		<edge from-layer="114" from-port="0" to-layer="1173" to-port="1"/>
		<edge from-layer="115" from-port="0" to-layer="1173" to-port="2"/>
		<edge from-layer="116" from-port="0" to-layer="1173" to-port="3"/>
		<edge from-layer="117" from-port="0" to-layer="1173" to-port="4"/>
		<edge from-layer="1178" from-port="0" to-layer="1179" to-port="0"/>
		<edge from-layer="1180" from-port="0" to-layer="1181" to-port="0"/>
		<edge from-layer="1172" from-port="2" to-layer="1182" to-port="0"/>
		<edge from-layer="1179" from-port="1" to-layer="1182" to-port="1"/>
		<edge from-layer="1181" from-port="1" to-layer="1182" to-port="2"/>
		<edge from-layer="1182" from-port="3" to-layer="1183" to-port="0"/>
		<edge from-layer="1174" from-port="0" to-layer="1183" to-port="1"/>
		<edge from-layer="1175" from-port="0" to-layer="1183" to-port="2"/>
		<edge from-layer="1176" from-port="0" to-layer="1183" to-port="3"/>
		<edge from-layer="1177" from-port="0" to-layer="1183" to-port="4"/>
		<edge from-layer="1173" from-port="5" to-layer="1184" to-port="0"/>
		<edge from-layer="1183" from-port="5" to-layer="1184" to-port="1"/>
		<edge from-layer="1184" from-port="2" to-layer="1185" to-port="0"/>
		<edge from-layer="110" from-port="0" to-layer="1185" to-port="1"/>
		<edge from-layer="111" from-port="0" to-layer="1185" to-port="2"/>
		<edge from-layer="112" from-port="0" to-layer="1185" to-port="3"/>
		<edge from-layer="113" from-port="0" to-layer="1185" to-port="4"/>
		<edge from-layer="1191" from-port="0" to-layer="1192" to-port="0"/>
		<edge from-layer="1192" from-port="1" to-layer="1193" to-port="0"/>
		<edge from-layer="1187" from-port="0" to-layer="1193" to-port="1"/>
		<edge from-layer="1188" from-port="0" to-layer="1193" to-port="2"/>
		<edge from-layer="1189" from-port="0" to-layer="1193" to-port="3"/>
		<edge from-layer="1190" from-port="0" to-layer="1193" to-port="4"/>
		<edge from-layer="1193" from-port="5" to-layer="1194" to-port="0"/>
		<edge from-layer="1186" from-port="0" to-layer="1194" to-port="1"/>
		<edge from-layer="1185" from-port="5" to-layer="1195" to-port="0"/>
		<edge from-layer="1194" from-port="2" to-layer="1195" to-port="1"/>
		<edge from-layer="1196" from-port="0" to-layer="1197" to-port="0"/>
		<edge from-layer="1195" from-port="2" to-layer="1198" to-port="0"/>
		<edge from-layer="1197" from-port="1" to-layer="1198" to-port="1"/>
		<edge from-layer="1198" from-port="2" to-layer="1199" to-port="0"/>
		<edge from-layer="106" from-port="0" to-layer="1199" to-port="1"/>
		<edge from-layer="107" from-port="0" to-layer="1199" to-port="2"/>
		<edge from-layer="108" from-port="0" to-layer="1199" to-port="3"/>
		<edge from-layer="109" from-port="0" to-layer="1199" to-port="4"/>
		<edge from-layer="1204" from-port="0" to-layer="1205" to-port="0"/>
		<edge from-layer="1206" from-port="0" to-layer="1207" to-port="0"/>
		<edge from-layer="1198" from-port="2" to-layer="1208" to-port="0"/>
		<edge from-layer="1205" from-port="1" to-layer="1208" to-port="1"/>
		<edge from-layer="1207" from-port="1" to-layer="1208" to-port="2"/>
		<edge from-layer="1208" from-port="3" to-layer="1209" to-port="0"/>
		<edge from-layer="1200" from-port="0" to-layer="1209" to-port="1"/>
		<edge from-layer="1201" from-port="0" to-layer="1209" to-port="2"/>
		<edge from-layer="1202" from-port="0" to-layer="1209" to-port="3"/>
		<edge from-layer="1203" from-port="0" to-layer="1209" to-port="4"/>
		<edge from-layer="1199" from-port="5" to-layer="1210" to-port="0"/>
		<edge from-layer="1209" from-port="5" to-layer="1210" to-port="1"/>
		<edge from-layer="1210" from-port="2" to-layer="1211" to-port="0"/>
		<edge from-layer="102" from-port="0" to-layer="1211" to-port="1"/>
		<edge from-layer="103" from-port="0" to-layer="1211" to-port="2"/>
		<edge from-layer="104" from-port="0" to-layer="1211" to-port="3"/>
		<edge from-layer="105" from-port="0" to-layer="1211" to-port="4"/>
		<edge from-layer="1211" from-port="5" to-layer="1212" to-port="0"/>
		<edge from-layer="101" from-port="0" to-layer="1212" to-port="1"/>
		<edge from-layer="1212" from-port="2" to-layer="1213" to-port="0"/>
		<edge from-layer="97" from-port="0" to-layer="1213" to-port="1"/>
		<edge from-layer="98" from-port="0" to-layer="1213" to-port="2"/>
		<edge from-layer="99" from-port="0" to-layer="1213" to-port="3"/>
		<edge from-layer="100" from-port="0" to-layer="1213" to-port="4"/>
		<edge from-layer="1218" from-port="0" to-layer="1219" to-port="0"/>
		<edge from-layer="1219" from-port="1" to-layer="1220" to-port="0"/>
		<edge from-layer="1214" from-port="0" to-layer="1220" to-port="1"/>
		<edge from-layer="1215" from-port="0" to-layer="1220" to-port="2"/>
		<edge from-layer="1216" from-port="0" to-layer="1220" to-port="3"/>
		<edge from-layer="1217" from-port="0" to-layer="1220" to-port="4"/>
		<edge from-layer="1213" from-port="5" to-layer="1221" to-port="0"/>
		<edge from-layer="1220" from-port="5" to-layer="1221" to-port="1"/>
		<edge from-layer="1222" from-port="0" to-layer="1223" to-port="0"/>
		<edge from-layer="1221" from-port="2" to-layer="1224" to-port="0"/>
		<edge from-layer="1223" from-port="1" to-layer="1224" to-port="1"/>
		<edge from-layer="1224" from-port="2" to-layer="1225" to-port="0"/>
		<edge from-layer="1225" from-port="1" to-layer="1226" to-port="0"/>
		<edge from-layer="93" from-port="0" to-layer="1226" to-port="1"/>
		<edge from-layer="94" from-port="0" to-layer="1226" to-port="2"/>
		<edge from-layer="95" from-port="0" to-layer="1226" to-port="3"/>
		<edge from-layer="96" from-port="0" to-layer="1226" to-port="4"/>
		<edge from-layer="1231" from-port="0" to-layer="1232" to-port="0"/>
		<edge from-layer="1232" from-port="1" to-layer="1233" to-port="0"/>
		<edge from-layer="1227" from-port="0" to-layer="1233" to-port="1"/>
		<edge from-layer="1228" from-port="0" to-layer="1233" to-port="2"/>
		<edge from-layer="1229" from-port="0" to-layer="1233" to-port="3"/>
		<edge from-layer="1230" from-port="0" to-layer="1233" to-port="4"/>
		<edge from-layer="1226" from-port="5" to-layer="1234" to-port="0"/>
		<edge from-layer="1233" from-port="5" to-layer="1234" to-port="1"/>
		<edge from-layer="1235" from-port="0" to-layer="1236" to-port="0"/>
		<edge from-layer="1234" from-port="2" to-layer="1237" to-port="0"/>
		<edge from-layer="1236" from-port="1" to-layer="1237" to-port="1"/>
		<edge from-layer="1238" from-port="0" to-layer="1239" to-port="0"/>
		<edge from-layer="1240" from-port="0" to-layer="1241" to-port="0"/>
		<edge from-layer="1237" from-port="2" to-layer="1242" to-port="0"/>
		<edge from-layer="1239" from-port="1" to-layer="1242" to-port="1"/>
		<edge from-layer="1241" from-port="1" to-layer="1242" to-port="2"/>
		<edge from-layer="1242" from-port="3" to-layer="1243" to-port="0"/>
		<edge from-layer="89" from-port="0" to-layer="1243" to-port="1"/>
		<edge from-layer="90" from-port="0" to-layer="1243" to-port="2"/>
		<edge from-layer="91" from-port="0" to-layer="1243" to-port="3"/>
		<edge from-layer="92" from-port="0" to-layer="1243" to-port="4"/>
		<edge from-layer="1243" from-port="5" to-layer="1244" to-port="0"/>
		<edge from-layer="1211" from-port="5" to-layer="1244" to-port="1"/>
		<edge from-layer="1244" from-port="2" to-layer="1245" to-port="0"/>
		<edge from-layer="85" from-port="0" to-layer="1245" to-port="1"/>
		<edge from-layer="86" from-port="0" to-layer="1245" to-port="2"/>
		<edge from-layer="87" from-port="0" to-layer="1245" to-port="3"/>
		<edge from-layer="88" from-port="0" to-layer="1245" to-port="4"/>
		<edge from-layer="1250" from-port="0" to-layer="1251" to-port="0"/>
		<edge from-layer="1251" from-port="1" to-layer="1252" to-port="0"/>
		<edge from-layer="1246" from-port="0" to-layer="1252" to-port="1"/>
		<edge from-layer="1247" from-port="0" to-layer="1252" to-port="2"/>
		<edge from-layer="1248" from-port="0" to-layer="1252" to-port="3"/>
		<edge from-layer="1249" from-port="0" to-layer="1252" to-port="4"/>
		<edge from-layer="1245" from-port="5" to-layer="1253" to-port="0"/>
		<edge from-layer="1252" from-port="5" to-layer="1253" to-port="1"/>
		<edge from-layer="1254" from-port="0" to-layer="1255" to-port="0"/>
		<edge from-layer="1253" from-port="2" to-layer="1256" to-port="0"/>
		<edge from-layer="1255" from-port="1" to-layer="1256" to-port="1"/>
		<edge from-layer="1256" from-port="2" to-layer="1257" to-port="0"/>
		<edge from-layer="81" from-port="0" to-layer="1257" to-port="1"/>
		<edge from-layer="82" from-port="0" to-layer="1257" to-port="2"/>
		<edge from-layer="83" from-port="0" to-layer="1257" to-port="3"/>
		<edge from-layer="84" from-port="0" to-layer="1257" to-port="4"/>
		<edge from-layer="1257" from-port="5" to-layer="1258" to-port="0"/>
		<edge from-layer="1168" from-port="5" to-layer="1258" to-port="1"/>
		<edge from-layer="1258" from-port="2" to-layer="1259" to-port="0"/>
		<edge from-layer="77" from-port="0" to-layer="1259" to-port="1"/>
		<edge from-layer="78" from-port="0" to-layer="1259" to-port="2"/>
		<edge from-layer="79" from-port="0" to-layer="1259" to-port="3"/>
		<edge from-layer="80" from-port="0" to-layer="1259" to-port="4"/>
		<edge from-layer="1259" from-port="5" to-layer="1260" to-port="0"/>
		<edge from-layer="76" from-port="5" to-layer="1260" to-port="1"/>
		<edge from-layer="1261" from-port="0" to-layer="1262" to-port="0"/>
		<edge from-layer="1260" from-port="2" to-layer="1263" to-port="0"/>
		<edge from-layer="1262" from-port="1" to-layer="1263" to-port="1"/>
		<edge from-layer="1263" from-port="2" to-layer="1264" to-port="0"/>
		<edge from-layer="66" from-port="0" to-layer="1264" to-port="1"/>
		<edge from-layer="67" from-port="0" to-layer="1264" to-port="2"/>
		<edge from-layer="68" from-port="0" to-layer="1264" to-port="3"/>
		<edge from-layer="69" from-port="0" to-layer="1264" to-port="4"/>
		<edge from-layer="1269" from-port="0" to-layer="1270" to-port="0"/>
		<edge from-layer="1271" from-port="0" to-layer="1272" to-port="0"/>
		<edge from-layer="1263" from-port="2" to-layer="1273" to-port="0"/>
		<edge from-layer="1270" from-port="1" to-layer="1273" to-port="1"/>
		<edge from-layer="1272" from-port="1" to-layer="1273" to-port="2"/>
		<edge from-layer="1273" from-port="3" to-layer="1274" to-port="0"/>
		<edge from-layer="1265" from-port="0" to-layer="1274" to-port="1"/>
		<edge from-layer="1266" from-port="0" to-layer="1274" to-port="2"/>
		<edge from-layer="1267" from-port="0" to-layer="1274" to-port="3"/>
		<edge from-layer="1268" from-port="0" to-layer="1274" to-port="4"/>
		<edge from-layer="1264" from-port="5" to-layer="1275" to-port="0"/>
		<edge from-layer="1274" from-port="5" to-layer="1275" to-port="1"/>
		<edge from-layer="1275" from-port="2" to-layer="1276" to-port="0"/>
		<edge from-layer="62" from-port="0" to-layer="1276" to-port="1"/>
		<edge from-layer="63" from-port="0" to-layer="1276" to-port="2"/>
		<edge from-layer="64" from-port="0" to-layer="1276" to-port="3"/>
		<edge from-layer="65" from-port="0" to-layer="1276" to-port="4"/>
		<edge from-layer="1282" from-port="0" to-layer="1283" to-port="0"/>
		<edge from-layer="1283" from-port="1" to-layer="1284" to-port="0"/>
		<edge from-layer="1278" from-port="0" to-layer="1284" to-port="1"/>
		<edge from-layer="1279" from-port="0" to-layer="1284" to-port="2"/>
		<edge from-layer="1280" from-port="0" to-layer="1284" to-port="3"/>
		<edge from-layer="1281" from-port="0" to-layer="1284" to-port="4"/>
		<edge from-layer="1284" from-port="5" to-layer="1285" to-port="0"/>
		<edge from-layer="1277" from-port="0" to-layer="1285" to-port="1"/>
		<edge from-layer="1276" from-port="5" to-layer="1286" to-port="0"/>
		<edge from-layer="1285" from-port="2" to-layer="1286" to-port="1"/>
		<edge from-layer="1287" from-port="0" to-layer="1288" to-port="0"/>
		<edge from-layer="1286" from-port="2" to-layer="1289" to-port="0"/>
		<edge from-layer="1288" from-port="1" to-layer="1289" to-port="1"/>
		<edge from-layer="1289" from-port="2" to-layer="1290" to-port="0"/>
		<edge from-layer="58" from-port="0" to-layer="1290" to-port="1"/>
		<edge from-layer="59" from-port="0" to-layer="1290" to-port="2"/>
		<edge from-layer="60" from-port="0" to-layer="1290" to-port="3"/>
		<edge from-layer="61" from-port="0" to-layer="1290" to-port="4"/>
		<edge from-layer="1295" from-port="0" to-layer="1296" to-port="0"/>
		<edge from-layer="1297" from-port="0" to-layer="1298" to-port="0"/>
		<edge from-layer="1289" from-port="2" to-layer="1299" to-port="0"/>
		<edge from-layer="1296" from-port="1" to-layer="1299" to-port="1"/>
		<edge from-layer="1298" from-port="1" to-layer="1299" to-port="2"/>
		<edge from-layer="1299" from-port="3" to-layer="1300" to-port="0"/>
		<edge from-layer="1291" from-port="0" to-layer="1300" to-port="1"/>
		<edge from-layer="1292" from-port="0" to-layer="1300" to-port="2"/>
		<edge from-layer="1293" from-port="0" to-layer="1300" to-port="3"/>
		<edge from-layer="1294" from-port="0" to-layer="1300" to-port="4"/>
		<edge from-layer="1290" from-port="5" to-layer="1301" to-port="0"/>
		<edge from-layer="1300" from-port="5" to-layer="1301" to-port="1"/>
		<edge from-layer="1301" from-port="2" to-layer="1302" to-port="0"/>
		<edge from-layer="54" from-port="0" to-layer="1302" to-port="1"/>
		<edge from-layer="55" from-port="0" to-layer="1302" to-port="2"/>
		<edge from-layer="56" from-port="0" to-layer="1302" to-port="3"/>
		<edge from-layer="57" from-port="0" to-layer="1302" to-port="4"/>
		<edge from-layer="1302" from-port="5" to-layer="1303" to-port="0"/>
		<edge from-layer="53" from-port="0" to-layer="1303" to-port="1"/>
		<edge from-layer="1303" from-port="2" to-layer="1304" to-port="0"/>
		<edge from-layer="49" from-port="0" to-layer="1304" to-port="1"/>
		<edge from-layer="50" from-port="0" to-layer="1304" to-port="2"/>
		<edge from-layer="51" from-port="0" to-layer="1304" to-port="3"/>
		<edge from-layer="52" from-port="0" to-layer="1304" to-port="4"/>
		<edge from-layer="1309" from-port="0" to-layer="1310" to-port="0"/>
		<edge from-layer="1310" from-port="1" to-layer="1311" to-port="0"/>
		<edge from-layer="1305" from-port="0" to-layer="1311" to-port="1"/>
		<edge from-layer="1306" from-port="0" to-layer="1311" to-port="2"/>
		<edge from-layer="1307" from-port="0" to-layer="1311" to-port="3"/>
		<edge from-layer="1308" from-port="0" to-layer="1311" to-port="4"/>
		<edge from-layer="1304" from-port="5" to-layer="1312" to-port="0"/>
		<edge from-layer="1311" from-port="5" to-layer="1312" to-port="1"/>
		<edge from-layer="1313" from-port="0" to-layer="1314" to-port="0"/>
		<edge from-layer="1312" from-port="2" to-layer="1315" to-port="0"/>
		<edge from-layer="1314" from-port="1" to-layer="1315" to-port="1"/>
		<edge from-layer="1315" from-port="2" to-layer="1316" to-port="0"/>
		<edge from-layer="1316" from-port="1" to-layer="1317" to-port="0"/>
		<edge from-layer="45" from-port="0" to-layer="1317" to-port="1"/>
		<edge from-layer="46" from-port="0" to-layer="1317" to-port="2"/>
		<edge from-layer="47" from-port="0" to-layer="1317" to-port="3"/>
		<edge from-layer="48" from-port="0" to-layer="1317" to-port="4"/>
		<edge from-layer="1322" from-port="0" to-layer="1323" to-port="0"/>
		<edge from-layer="1323" from-port="1" to-layer="1324" to-port="0"/>
		<edge from-layer="1318" from-port="0" to-layer="1324" to-port="1"/>
		<edge from-layer="1319" from-port="0" to-layer="1324" to-port="2"/>
		<edge from-layer="1320" from-port="0" to-layer="1324" to-port="3"/>
		<edge from-layer="1321" from-port="0" to-layer="1324" to-port="4"/>
		<edge from-layer="1317" from-port="5" to-layer="1325" to-port="0"/>
		<edge from-layer="1324" from-port="5" to-layer="1325" to-port="1"/>
		<edge from-layer="1326" from-port="0" to-layer="1327" to-port="0"/>
		<edge from-layer="1325" from-port="2" to-layer="1328" to-port="0"/>
		<edge from-layer="1327" from-port="1" to-layer="1328" to-port="1"/>
		<edge from-layer="1329" from-port="0" to-layer="1330" to-port="0"/>
		<edge from-layer="1331" from-port="0" to-layer="1332" to-port="0"/>
		<edge from-layer="1328" from-port="2" to-layer="1333" to-port="0"/>
		<edge from-layer="1330" from-port="1" to-layer="1333" to-port="1"/>
		<edge from-layer="1332" from-port="1" to-layer="1333" to-port="2"/>
		<edge from-layer="1333" from-port="3" to-layer="1334" to-port="0"/>
		<edge from-layer="41" from-port="0" to-layer="1334" to-port="1"/>
		<edge from-layer="42" from-port="0" to-layer="1334" to-port="2"/>
		<edge from-layer="43" from-port="0" to-layer="1334" to-port="3"/>
		<edge from-layer="44" from-port="0" to-layer="1334" to-port="4"/>
		<edge from-layer="1334" from-port="5" to-layer="1335" to-port="0"/>
		<edge from-layer="1302" from-port="5" to-layer="1335" to-port="1"/>
		<edge from-layer="1335" from-port="2" to-layer="1336" to-port="0"/>
		<edge from-layer="37" from-port="0" to-layer="1336" to-port="1"/>
		<edge from-layer="38" from-port="0" to-layer="1336" to-port="2"/>
		<edge from-layer="39" from-port="0" to-layer="1336" to-port="3"/>
		<edge from-layer="40" from-port="0" to-layer="1336" to-port="4"/>
		<edge from-layer="1341" from-port="0" to-layer="1342" to-port="0"/>
		<edge from-layer="1342" from-port="1" to-layer="1343" to-port="0"/>
		<edge from-layer="1337" from-port="0" to-layer="1343" to-port="1"/>
		<edge from-layer="1338" from-port="0" to-layer="1343" to-port="2"/>
		<edge from-layer="1339" from-port="0" to-layer="1343" to-port="3"/>
		<edge from-layer="1340" from-port="0" to-layer="1343" to-port="4"/>
		<edge from-layer="1336" from-port="5" to-layer="1344" to-port="0"/>
		<edge from-layer="1343" from-port="5" to-layer="1344" to-port="1"/>
		<edge from-layer="1345" from-port="0" to-layer="1346" to-port="0"/>
		<edge from-layer="1344" from-port="2" to-layer="1347" to-port="0"/>
		<edge from-layer="1346" from-port="1" to-layer="1347" to-port="1"/>
		<edge from-layer="1347" from-port="2" to-layer="1348" to-port="0"/>
		<edge from-layer="33" from-port="0" to-layer="1348" to-port="1"/>
		<edge from-layer="34" from-port="0" to-layer="1348" to-port="2"/>
		<edge from-layer="35" from-port="0" to-layer="1348" to-port="3"/>
		<edge from-layer="36" from-port="0" to-layer="1348" to-port="4"/>
		<edge from-layer="1348" from-port="5" to-layer="1349" to-port="0"/>
		<edge from-layer="1259" from-port="5" to-layer="1349" to-port="1"/>
		<edge from-layer="1349" from-port="2" to-layer="1350" to-port="0"/>
		<edge from-layer="29" from-port="0" to-layer="1350" to-port="1"/>
		<edge from-layer="30" from-port="0" to-layer="1350" to-port="2"/>
		<edge from-layer="31" from-port="0" to-layer="1350" to-port="3"/>
		<edge from-layer="32" from-port="0" to-layer="1350" to-port="4"/>
		<edge from-layer="1355" from-port="0" to-layer="1356" to-port="0"/>
		<edge from-layer="1356" from-port="1" to-layer="1357" to-port="0"/>
		<edge from-layer="1351" from-port="0" to-layer="1357" to-port="1"/>
		<edge from-layer="1352" from-port="0" to-layer="1357" to-port="2"/>
		<edge from-layer="1353" from-port="0" to-layer="1357" to-port="3"/>
		<edge from-layer="1354" from-port="0" to-layer="1357" to-port="4"/>
		<edge from-layer="1350" from-port="5" to-layer="1358" to-port="0"/>
		<edge from-layer="1357" from-port="5" to-layer="1358" to-port="1"/>
		<edge from-layer="1359" from-port="0" to-layer="1360" to-port="0"/>
		<edge from-layer="1358" from-port="2" to-layer="1361" to-port="0"/>
		<edge from-layer="1360" from-port="1" to-layer="1361" to-port="1"/>
		<edge from-layer="1361" from-port="2" to-layer="1362" to-port="0"/>
		<edge from-layer="25" from-port="0" to-layer="1362" to-port="1"/>
		<edge from-layer="26" from-port="0" to-layer="1362" to-port="2"/>
		<edge from-layer="27" from-port="0" to-layer="1362" to-port="3"/>
		<edge from-layer="28" from-port="0" to-layer="1362" to-port="4"/>
		<edge from-layer="1367" from-port="0" to-layer="1368" to-port="0"/>
		<edge from-layer="1369" from-port="0" to-layer="1370" to-port="0"/>
		<edge from-layer="1361" from-port="2" to-layer="1371" to-port="0"/>
		<edge from-layer="1368" from-port="1" to-layer="1371" to-port="1"/>
		<edge from-layer="1370" from-port="1" to-layer="1371" to-port="2"/>
		<edge from-layer="1371" from-port="3" to-layer="1372" to-port="0"/>
		<edge from-layer="1363" from-port="0" to-layer="1372" to-port="1"/>
		<edge from-layer="1364" from-port="0" to-layer="1372" to-port="2"/>
		<edge from-layer="1365" from-port="0" to-layer="1372" to-port="3"/>
		<edge from-layer="1366" from-port="0" to-layer="1372" to-port="4"/>
		<edge from-layer="1362" from-port="5" to-layer="1373" to-port="0"/>
		<edge from-layer="1372" from-port="5" to-layer="1373" to-port="1"/>
		<edge from-layer="1373" from-port="2" to-layer="1374" to-port="0"/>
		<edge from-layer="21" from-port="0" to-layer="1374" to-port="1"/>
		<edge from-layer="22" from-port="0" to-layer="1374" to-port="2"/>
		<edge from-layer="23" from-port="0" to-layer="1374" to-port="3"/>
		<edge from-layer="24" from-port="0" to-layer="1374" to-port="4"/>
		<edge from-layer="1374" from-port="5" to-layer="1375" to-port="0"/>
		<edge from-layer="20" from-port="0" to-layer="1375" to-port="1"/>
		<edge from-layer="1375" from-port="2" to-layer="1376" to-port="0"/>
		<edge from-layer="16" from-port="0" to-layer="1376" to-port="1"/>
		<edge from-layer="17" from-port="0" to-layer="1376" to-port="2"/>
		<edge from-layer="18" from-port="0" to-layer="1376" to-port="3"/>
		<edge from-layer="19" from-port="0" to-layer="1376" to-port="4"/>
		<edge from-layer="1376" from-port="5" to-layer="1377" to-port="0"/>
		<edge from-layer="15" from-port="0" to-layer="1377" to-port="1"/>
		<edge from-layer="1377" from-port="2" to-layer="1378" to-port="0"/>
		<edge from-layer="14" from-port="5" to-layer="1378" to-port="1"/>
		<edge from-layer="1379" from-port="0" to-layer="1380" to-port="0"/>
		<edge from-layer="1378" from-port="2" to-layer="1381" to-port="0"/>
		<edge from-layer="1380" from-port="1" to-layer="1381" to-port="1"/>
		<edge from-layer="1381" from-port="2" to-layer="1382" to-port="0"/>
		<edge from-layer="4" from-port="0" to-layer="1382" to-port="1"/>
		<edge from-layer="5" from-port="0" to-layer="1382" to-port="2"/>
		<edge from-layer="6" from-port="0" to-layer="1382" to-port="3"/>
		<edge from-layer="7" from-port="0" to-layer="1382" to-port="4"/>
		<edge from-layer="1387" from-port="0" to-layer="1388" to-port="0"/>
		<edge from-layer="1389" from-port="0" to-layer="1390" to-port="0"/>
		<edge from-layer="1381" from-port="2" to-layer="1391" to-port="0"/>
		<edge from-layer="1388" from-port="1" to-layer="1391" to-port="1"/>
		<edge from-layer="1390" from-port="1" to-layer="1391" to-port="2"/>
		<edge from-layer="1391" from-port="3" to-layer="1392" to-port="0"/>
		<edge from-layer="1383" from-port="0" to-layer="1392" to-port="1"/>
		<edge from-layer="1384" from-port="0" to-layer="1392" to-port="2"/>
		<edge from-layer="1385" from-port="0" to-layer="1392" to-port="3"/>
		<edge from-layer="1386" from-port="0" to-layer="1392" to-port="4"/>
		<edge from-layer="1382" from-port="5" to-layer="1393" to-port="0"/>
		<edge from-layer="1392" from-port="5" to-layer="1393" to-port="1"/>
		<edge from-layer="1393" from-port="2" to-layer="1394" to-port="0"/>
		<edge from-layer="0" from-port="0" to-layer="1394" to-port="1"/>
		<edge from-layer="1" from-port="0" to-layer="1394" to-port="2"/>
		<edge from-layer="2" from-port="0" to-layer="1394" to-port="3"/>
		<edge from-layer="3" from-port="0" to-layer="1394" to-port="4"/>
		<edge from-layer="1399" from-port="0" to-layer="1400" to-port="0"/>
		<edge from-layer="1400" from-port="1" to-layer="1401" to-port="0"/>
		<edge from-layer="1395" from-port="0" to-layer="1401" to-port="1"/>
		<edge from-layer="1396" from-port="0" to-layer="1401" to-port="2"/>
		<edge from-layer="1397" from-port="0" to-layer="1401" to-port="3"/>
		<edge from-layer="1398" from-port="0" to-layer="1401" to-port="4"/>
		<edge from-layer="1394" from-port="5" to-layer="1402" to-port="0"/>
		<edge from-layer="1401" from-port="5" to-layer="1402" to-port="1"/>
		<edge from-layer="1403" from-port="0" to-layer="1404" to-port="0"/>
		<edge from-layer="1402" from-port="2" to-layer="1405" to-port="0"/>
		<edge from-layer="1404" from-port="1" to-layer="1405" to-port="1"/>
		<edge from-layer="1405" from-port="2" to-layer="1406" to-port="0"/>
	</edges>
	<rt_info>
		<MO_version value="2023.0.1-11005-fa1c41994f3-releases/2023/0"/>
		<Runtime_version value="2023.0.1-11005-fa1c41994f3-releases/2023/0"/>
		<conversion_parameters>
			<compress_to_fp16 value="True"/>
			<input_model value="DIR/best.onnx"/>
			<is_python_api_used value="False"/>
			<model_name value="bestfp16"/>
			<output_dir value="DIR"/>
		</conversion_parameters>
		<legacy_frontend value="False"/>
		<quantization_parameters>
			<cli_params>
				<ac_config value="None"/>
				<data_source value="None"/>
				<direct_dump value="False"/>
				<engine value="None"/>
				<evaluate value="False"/>
				<keep_uncompressed_weights value="False"/>
				<log_level value="INFO"/>
				<max_drop value="None"/>
				<model value="None"/>
				<name value="None"/>
				<output_dir value="PATH"/>
				<pbar value="False"/>
				<preset value="None"/>
				<quantize value="None"/>
				<stream_output value="False"/>
				<weights value="None"/>
			</cli_params>
			<config value="{
		'compression': {
			'target_device': 'CPU',
			'algorithms': [
				{
					'name': 'AccuracyAwareQuantization',
					'params': {
						'preset': 'performance',
						'stat_subset_size': 300,
						'maximal_drop': 0.1
					}
				}
			]
		},
		'engine': {
			'models': [
				{
					'name': 'mobileNetV3',
					'launchers': [
						{
							'framework': 'openvino',
							'device': 'CPU',
							'adapter': 'classification'
						}
					],
					'datasets': [
						{
							'name': 'classification_dataset',
							'data_source': 'PATH',
							'annotation_conversion': {
								'converter': 'imagenet',
								'annotation_file': '/home/yuesang/Pythonproject/MobileNetV3/onnxinference/int8inference/my_annotation.txt'
							},
							'reader': 'opencv_imread',
							'preprocessing': [
								{
									'type': 'resize',
									'size': 256,
									'aspect_ratio_scale': 'greater'
								},
								{
									'type': 'crop',
									'size': 224
								},
								{
									'type': 'bgr_to_rgb'
								},
								{
									'type': 'normalization',
									'mean': '(123.675, 116.28, 103.53)',
									'std': '(58.395, 57.12, 57.375)'
								}
							],
							'metrics': [
								{
									'name': 'accuracy @ top1',
									'type': 'accuracy',
									'top_k': 1
								}
							],
							'_command_line_mapping': {}
						}
					]
				}
			],
			'stat_requests_number': null,
			'eval_requests_number': null,
			'type': 'accuracy_checker'
		}
	}"/>
			<version value="2023.0.1-11005-fa1c41994f3-releases/2023/0"/>
		</quantization_parameters>
	</rt_info>
	<quantization_parameters>
		<config>{
		'compression': {
			'target_device': 'CPU',
			'algorithms': [
				{
					'name': 'AccuracyAwareQuantization',
					'params': {
						'preset': 'performance',
						'stat_subset_size': 300,
						'maximal_drop': 0.1
					}
				}
			]
		},
		'engine': {
			'models': [
				{
					'name': 'mobileNetV3',
					'launchers': [
						{
							'framework': 'openvino',
							'device': 'CPU',
							'adapter': 'classification'
						}
					],
					'datasets': [
						{
							'name': 'classification_dataset',
							'data_source': 'PATH',
							'annotation_conversion': {
								'converter': 'imagenet',
								'annotation_file': '/home/yuesang/Pythonproject/MobileNetV3/onnxinference/int8inference/my_annotation.txt'
							},
							'reader': 'opencv_imread',
							'preprocessing': [
								{
									'type': 'resize',
									'size': 256,
									'aspect_ratio_scale': 'greater'
								},
								{
									'type': 'crop',
									'size': 224
								},
								{
									'type': 'bgr_to_rgb'
								},
								{
									'type': 'normalization',
									'mean': '(123.675, 116.28, 103.53)',
									'std': '(58.395, 57.12, 57.375)'
								}
							],
							'metrics': [
								{
									'name': 'accuracy @ top1',
									'type': 'accuracy',
									'top_k': 1
								}
							],
							'_command_line_mapping': {}
						}
					]
				}
			],
			'stat_requests_number': null,
			'eval_requests_number': null,
			'type': 'accuracy_checker'
		}
	}</config>
		<version value="2023.0.1-11005-fa1c41994f3-releases/2023/0"/>
		<cli_params value="{'quantize': None, 'preset': None, 'model': None, 'weights': None, 'name': None, 'engine': None, 'ac_config': None, 'max_drop': None, 'evaluate': False, 'output_dir': 'PATH', 'direct_dump': False, 'log_level': 'INFO', 'pbar': False, 'stream_output': False, 'keep_uncompressed_weights': False, 'data_source': None}"/>
	</quantization_parameters>
</net>
